generalizability/epidemiology/checkpoints_v2/best_model.pt (torch, 491045 bytes, 94 tensors)

graph_laplacian.laplacian f4 [200, 200]
000000 0a 34 05 bc 09 34 05 bc 00 00 00 80 00 00 00 80
       -0.008130083 -0.008130082 -0.0 -0.0
000010 09 34 05 bc 09 34 05 bc 09 34 05 bc 00 00 00 80
       -0.008130082 -0.008130082 -0.008130082 -0.0
000020 09 34 05 bc 09 34 05 bc 09 34 05 bc 09 34 05 bc
       -0.008130082 -0.008130082 -0.008130082 -0.008130082
000030 09 34 05 bc 00 00 00 80 09 34 05 bc 09 34 05 bc
       -0.008130082 -0.0 -0.008130082 -0.008130082
000040 00 00 00 80 09 34 05 bc 00 00 00 80 00 00 00 80
       -0.0 -0.008130082 -0.0 -0.0
000050 00 00 00 80 08 34 05 bc 09 34 05 bc 08 34 05 bc
       -0.0 -0.008130081 -0.008130082 -0.008130081
000060 09 34 05 bc 09 34 05 bc 09 34 05 bc 09 34 05 bc
       -0.008130082 -0.008130082 -0.008130082 -0.008130082
000070 00 00 00 80 08 34 05 bc 09 34 05 bc 09 34 05 bc
       -0.0 -0.008130081 -0.008130082 -0.008130082
000080 00 00 00 80 09 34 05 bc 09 34 05 bc 09 34 05 bc
       -0.0 -0.008130082 -0.008130082 -0.008130082
000090 09 34 05 bc 00 00 00 80 09 34 05 bc 09 34 05 bc
       -0.008130082 -0.0 -0.008130082 -0.008130082
0000a0 0a 34 05 bc 09 34 05 bc 00 00 00 80 09 34 05 bc
       -0.008130083 -0.008130082 -0.0 -0.008130082
0000b0 00 00 00 80 09 34 05 bc 09 34 05 bc 09 34 05 bc
       -0.0 -0.008130082 -0.008130082 -0.008130082
0000c0 09 34 05 bc 09 34 05 bc 09 34 05 bc 09 34 05 bc
       -0.008130082 -0.008130082 -0.008130082 -0.008130082
0000d0 00 00 00 80 00 00 00 80 09 34 05 bc 0a 34 05 bc
       -0.0 -0.0 -0.008130082 -0.008130083
0000e0 00 00 00 80 00 00 00 80 09 34 05 bc 09 34 05 bc
       -0.0 -0.0 -0.008130082 -0.008130082
0000f0 09 34 05 bc 09 34 05 bc 09 34 05 bc 00 00 00 80
       -0.008130082 -0.008130082 -0.008130082 -0.0
000100 09 34 05 bc 00 00 00 80 08 34 05 bc 00 00 00 80
       -0.008130082 -0.0 -0.008130081 -0.0
000110 00 00 00 80 00 00 00 80 09 34 05 bc 09 34 05 bc
       -0.0 -0.0 -0.008130082 -0.008130082
000120 09 34 05 bc 09 34 05 bc 09 34 05 bc 0a 34 05 bc
       -0.008130082 -0.008130082 -0.008130082 -0.008130083
000130 09 34 05 bc 08 34 05 bc 09 34 05 bc 09 34 05 bc
       -0.008130082 -0.008130081 -0.008130082 -0.008130082
000140 09 34 05 bc 0a 34 05 bc 09 34 05 bc 09 34 05 bc
       -0.008130082 -0.008130083 -0.008130082 -0.008130082
000150 00 00 00 80 00 00 00 80 09 34 05 bc 00 00 00 80
       -0.0 -0.0 -0.008130082 -0.0
000160 00 00 00 80 00 00 00 80 09 34 05 bc 0a 34 05 bc
       -0.0 -0.0 -0.008130082 -0.008130083
000170 00 00 00 80 09 34 05 bc 09 34 05 bc 09 34 05 bc
       -0.0 -0.008130082 -0.008130082 -0.008130082
000180 09 34 05 bc 00 00 00 80 00 00 00 80 09 34 05 bc
       -0.008130082 -0.0 -0.0 -0.008130082
000190 09 34 05 bc 09 34 05 bc 00 00 00 80 00 00 00 80
       -0.008130082 -0.008130082 -0.0 -0.0
0001a0 09 34 05 bc 00 00 00 80 09 34 05 bc 00 00 00 80
       -0.008130082 -0.0 -0.008130082 -0.0
0001b0 09 34 05 bc 09 34 05 bc 09 34 05 bc 09 34 05 bc
       -0.008130082 -0.008130082 -0.008130082 -0.008130082
0001c0 09 34 05 bc 00 00 00 80 00 00 00 80 00 00 00 80
       -0.008130082 -0.0 -0.0 -0.0
0001d0 09 34 05 bc 00 00 00 80 00 00 00 80 08 34 05 bc
       -0.008130082 -0.0 -0.0 -0.008130081
0001e0 0a 34 05 bc 0a 34 05 bc 00 00 00 80 09 34 05 bc
       -0.008130083 -0.008130083 -0.0 -0.008130082
0001f0 09 34 05 bc 09 34 05 bc 09 34 05 bc 00 00 00 80
       -0.008130082 -0.008130082 -0.008130082 -0.0
000200 00 00 00 80 09 34 05 bc 00 00 00 80 09 34 05 bc
       -0.0 -0.008130082 -0.0 -0.008130082
000210 00 00 00 80 09 34 05 bc 09 34 05 bc 00 00 00 80
       -0.0 -0.008130082 -0.008130082 -0.0
000220 09 34 05 bc 09 34 05 bc 00 00 00 80 00 00 00 80
       -0.008130082 -0.008130082 -0.0 -0.0
000230 00 00 00 80 00 00 00 80 00 00 00 80 09 34 05 bc
       -0.0 -0.0 -0.0 -0.008130082
000240 09 34 05 bc 08 34 05 bc 09 34 05 bc 00 00 00 80
       -0.008130082 -0.008130081 -0.008130082 -0.0
000250 00 00 00 80 0a 34 05 bc 00 00 00 80 09 34 05 bc
       -0.0 -0.008130083 -0.0 -0.008130082
000260 09 34 05 bc 00 00 00 80 00 00 00 80 00 00 00 80
       -0.008130082 -0.0 -0.0 -0.0
000270 09 34 05 bc 00 00 00 80 0a 34 05 bc 09 34 05 bc
       -0.008130082 -0.0 -0.008130083 -0.008130082
000280 00 00 00 80 09 34 05 bc 00 00 00 80 09 34 05 bc
       -0.0 -0.008130082 -0.0 -0.008130082
000290 00 00 00 80 00 00 00 80 00 00 00 80 00 00 00 80
       -0.0 -0.0 -0.0 -0.0
0002a0 0a 34 05 bc 00 00 00 80 09 34 05 bc 00 00 00 80
       -0.008130083 -0.0 -0.008130082 -0.0
0002b0 00 00 00 80 00 00 00 80 00 00 00 80 09 34 05 bc
       -0.0 -0.0 -0.0 -0.008130082
0002c0 08 34 05 bc 09 34 05 bc 09 34 05 bc 00 00 00 80
       -0.008130081 -0.008130082 -0.008130082 -0.0
0002d0 09 34 05 bc 08 34 05 bc 09 34 05 bc 09 34 05 bc
       -0.008130082 -0.008130081 -0.008130082 -0.008130082
0002e0 00 00 00 80 09 34 05 bc 00 00 00 80 00 00 00 80
       -0.0 -0.008130082 -0.0 -0.0
0002f0 09 34 05 bc 0a 34 05 bc 09 34 05 bc 09 34 05 bc
       -0.008130082 -0.008130083 -0.008130082 -0.008130082
000300 09 34 05 bc 00 00 00 80 0a 34 05 bc 00 00 00 80
       -0.008130082 -0.0 -0.008130083 -0.0
000310 00 00 00 80 00 00 00 80 00 00 00 80 09 34 05 bc
       -0.0 -0.0 -0.0 -0.008130082
000320 67 11 1f bc 66 11 1f bc 00 00 00 80 00 00 00 80
       -0.009708739 -0.009708738 -0.0 -0.0
000330 66 11 1f bc 00 00 00 80 66 11 1f bc 00 00 00 80
       -0.009708738 -0.0 -0.009708738 -0.0
000340 66 11 1f bc 66 11 1f bc 66 11 1f bc 66 11 1f bc
       -0.009708738 -0.009708738 -0.009708738 -0.009708738
000350 66 11 1f bc 66 11 1f bc 66 11 1f bc 00 00 00 80
       -0.009708738 -0.009708738 -0.009708738 -0.0
000360 00 00 00 80 66 11 1f bc 00 00 00 80 00 00 00 80
       -0.0 -0.009708738 -0.0 -0.0
000370 00 00 00 80 65 11 1f bc 66 11 1f bc 65 11 1f bc
       -0.0 -0.009708737 -0.009708738 -0.009708737
000380 66 11 1f bc 66 11 1f bc 00 00 00 80 66 11 1f bc
       -0.009708738 -0.009708738 -0.0 -0.009708738
000390 00 00 00 80 65 11 1f bc 00 00 00 80 66 11 1f bc
       -0.0 -0.009708737 -0.0 -0.009708738
0003a0 00 00 00 80 00 00 00 80 66 11 1f bc 66 11 1f bc
       -0.0 -0.0 -0.009708738 -0.009708738
0003b0 00 00 00 80 00 00 00 80 66 11 1f bc 66 11 1f bc
       -0.0 -0.0 -0.009708738 -0.009708738
0003c0 67 11 1f bc 66 11 1f bc 00 00 00 80 66 11 1f bc
       -0.009708739 -0.009708738 -0.0 -0.009708738
0003d0 00 00 00 80 66 11 1f bc 66 11 1f bc 66 11 1f bc
       -0.0 -0.009708738 -0.009708738 -0.009708738
0003e0 66 11 1f bc 66 11 1f bc 66 11 1f bc 00 00 00 80
       -0.009708738 -0.009708738 -0.009708738 -0.0
0003f0 00 00 00 80 00 00 00 80 66 11 1f bc 67 11 1f bc
       -0.0 -0.0 -0.009708738 -0.009708739

reaction_module.encoder.0.weight f4 [64, 5]
000000 3c eb 9f 3e b6 d1 b6 3e 77 60 de bd d0 1b c4 3e
       0.31234157 0.35706872 -0.10858243 0.3830247
000010 ef 31 10 be bd a8 89 3d 22 33 66 be 91 85 6e 3e
       -0.14081548 0.067216374 -0.22480443 0.23293139
000020 a8 92 b5 3e 00 76 b9 be c0 59 ad 3e dd 84 45 3d
       0.35463452 -0.3622284 0.33857536 0.04822241
000030 6f 58 8f 3e 39 9d a2 3c d8 68 85 3e f6 4a 62 bd
       0.27997157 0.01985036 0.26056552 -0.05524727
000040 5e 85 b1 3e 56 6c a5 3d 66 e1 53 be 49 ee 58 3e
       0.34672064 0.08077304 -0.20691451 0.21184649
000050 5b cf a4 bd 14 89 15 3c 50 72 d9 bd 3a a7 8b 3e
       -0.080473624 0.00912692 -0.106175065 0.2727602
000060 57 3e c5 be 64 c4 18 be 52 de f2 bc ce e9 5f be
       -0.38524124 -0.14918667 -0.029647026 -0.21866533
000070 a5 2d 09 3d 1c 6c e9 be dc 07 af 3e 85 e2 cc be
       0.033490796 -0.45590293 0.34185684 -0.4001657
000080 7c f9 96 3e d9 57 01 3d bf ec 5b be 48 34 84 3e
       0.29487216 0.03157792 -0.2147703 0.25821137
000090 a8 6c 6a 3d a3 2c aa 3e 29 18 00 3d b9 22 39 be
       0.05723253 0.3323718 0.03127304 -0.18079652
0000a0 13 e2 4a 3d 76 47 16 be 68 8e 02 3e 68 44 a4 3e
       0.049532007 -0.14675698 0.12749636 0.3208344
0000b0 57 f6 66 3e ae 72 3b be 0a c9 8c 3e 34 33 ab 3d
       0.22554909 -0.18305466 0.2749713 0.083593756
0000c0 18 05 73 3e 9b 5e b0 be 2c 64 df be 66 da 47 be
       0.23732412 -0.34447178 -0.43631113 -0.19516906
0000d0 15 ff a1 be 22 8e d3 3e 48 01 83 3e fa c0 2c 3e
       -0.31639925 0.41319376 0.25586915 0.1687049
0000e0 14 03 e3 3d 62 ef 35 bd e9 fb 9a 3e 73 c9 d9 be
       0.110845715 -0.044417746 0.30270317 -0.42536506
0000f0 d5 18 f3 3d b6 b4 67 be 95 3b 2c 3e a4 eb fe bd
       0.11869971 -0.2262753 0.16819604 -0.12447289
000100 ad b4 08 3e 57 c8 19 bb 3a 40 d3 3e 37 f1 30 be
       0.13350172 -0.002346536 0.41259938 -0.17279516
000110 b0 3c 26 be 21 36 bd be f7 b8 ba 3e ab 75 df 3d
       -0.16234088 -0.3695536 0.36469242 0.10911115
000120 04 83 ca 3e 84 1d dc be ab fb 0e bf 8b 90 9c be
       0.39553082 -0.4299127 -0.55852765 -0.30579028
000130 59 64 52 be 2c dc 5d 3e aa 2d 54 3e d8 27 b7 3e
       -0.20546092 0.2166602 0.20720544 0.35772586
000140 70 ec 51 be 01 63 76 be c0 e6 9d 3e 7f 4a 0f be
       -0.2050035 -0.24061204 0.3084011 -0.13993262
000150 f9 d5 89 3e b2 d3 65 bd c1 23 8e 3e 28 08 a8 be
       0.2692106 -0.05611009 0.27761653 -0.32818723
000160 1f 2a 36 be ed d9 8d 3e 1b 02 c1 3d d9 41 c6 bd
       -0.17789505 0.27705327 0.0942423 -0.09680528
000170 50 79 7a 3e 8a 58 97 3e fe e2 be be 66 93 2b be
       0.2446034 0.29559737 -0.37282556 -0.16755447
000180 39 de e9 3e 11 76 ed bd c8 25 d6 bd 20 96 0f bf
       0.45677355 -0.11594785 -0.10456425 -0.5608845
000190 d8 c8 57 be 1c 24 43 3e e7 dd 9b bd 10 26 87 be
       -0.2107271 0.19056743 -0.07610684 -0.26396227
0001a0 6b 25 85 3d 1b dc 87 be 52 27 bb be 65 4c 45 be
       0.065012775 -0.26535115 -0.36553437 -0.19267423
0001b0 47 e9 c0 be d8 8a 9b be 46 6b d7 3e 50 39 78 3d
       -0.37677976 -0.30379367 0.4207403 0.060601532
0001c0 6d 47 e1 3d ff 0b d3 be 7f 30 de be e4 f4 c1 bd
       0.109999515 -0.4122009 -0.43396375 -0.09470537
0001d0 2d 0d b0 3d c6 0f bd be 63 c1 40 be 2e 2f 8a be
       0.08596263 -0.36926097 -0.18823771 -0.2698912
0001e0 60 ea 16 bd ae b5 03 be 91 9d a4 b9 c4 7f 95 be
       -0.03684461 -0.12862274 -0.00031397914 -0.2919904
0001f0 7e 52 bb be 9d 2d 17 be a7 0b 2d bd 07 50 93 be
       -0.36586374 -0.14763494 -0.04224744 -0.28771994
000200 c9 8e f2 3e c0 6c 46 3c d1 fe af 3e df 7b 9f 3d
       0.4737456 0.012110889 0.34374097 0.077872984
000210 04 9d db be 02 ac 8d 3e 2f 52 b2 bd 9e df 33 be
       -0.4289323 0.27670294 -0.087070815 -0.17565772
000220 a9 2b ca be f5 06 da be 2b ad 2d 3e d6 99 51 be
       -0.39486435 -0.42583433 0.1696059 -0.2046884
000230 ba 37 55 3e a0 c6 a1 be 88 80 b5 3e 3b d0 b3 be
       0.20822039 -0.3159685 0.35449624 -0.35119805
000240 6c f1 1a be 75 a3 96 3d a1 07 54 3e 40 97 ab 3e
       -0.15131158 0.07355396 0.20706035 0.33513832
000250 9c fb c1 3e 1a 29 be be 18 1b 25 3e 17 d3 f3 bd
       0.37887275 -0.37140733 0.16123617 -0.119054966
000260 ed e6 d5 3b a0 47 7b be 63 dd fe 3e bd 9c aa be
       0.0065277726 -0.24539042 0.4977828 -0.33322707
000270 cc 09 63 3e af e9 16 3e 76 a6 10 3e 88 17 98 be
       0.22171706 0.1473758 0.14126 -0.29705453
000280 8d a5 d5 3e 0b bf d8 3d 99 55 66 3d ee d1 d3 be
       0.41727868 0.105833136 0.056233976 -0.413711
000290 4d 95 7d 3e a7 20 88 bd d7 cd 5b be 13 a8 c6 3e
       0.24763985 -0.06646853 -0.2146524 0.38800105
0002a0 9a 12 ea 3d 23 f9 1a be 21 7d 82 be 8d a3 88 bb
       0.11429329 -0.151341 -0.2548609 -0.0041698874
0002b0 d3 5c 98 3e 35 84 2a be 6c c7 84 be c0 6a d7 bd
       0.2975832 -0.16651995 -0.25933397 -0.10518408
0002c0 b7 ef 92 be 7c e1 55 3e 7b 1f ca 3e 4a 59 cb be
       -0.28698513 0.20886797 0.39477143 -0.3971656
0002d0 3d 96 b4 3d e5 5b 42 3e c2 7d 6b 3d 99 fc 39 be
       0.08817718 0.18980367 0.05749298 -0.18162765
0002e0 f2 5f 97 3e e9 8b 61 3e 34 09 1a 3e 48 2c c7 bd
       0.29565388 0.22026028 0.15042573 -0.09725243
0002f0 75 84 06 be e2 b8 07 bc 9a 26 8e bd c3 23 e4 bd
       -0.13136466 -0.008283826 -0.069409564 -0.111396335
000300 b3 e4 8c 3e e0 0c bd 3e 9b 55 af bd 16 d0 c5 bd
       0.27518234 0.36923885 -0.0856125 -0.0965883
000310 8e d3 4b 37 f7 d4 e4 bc 27 9e cf 3d d7 85 28 3e
       1.2148999e-05 -0.02793358 0.10137587 0.16457306
000320 56 7e d3 be 03 11 02 be 7e 02 c9 3e 11 3a 1f 3e
       -0.41307324 -0.12701802 0.39259714 0.15549494
000330 cb 59 4a bd 92 7a 64 be 95 26 72 be 77 e3 a7 be
       -0.04940204 -0.22312382 -0.2364753 -0.3279073
000340 67 52 25 be 16 81 9d 3d 96 84 a1 3e f1 e3 72 3e
       -0.16144715 0.07690637 0.31546468 0.23719765
000350 f2 1f b9 be 56 11 59 be 5a fc ba bd ed 1e cf 3e
       -0.36157185 -0.2119802 -0.091301635 0.40453282
000360 70 0b 1b bc 25 09 16 be d7 a0 0b 3e be a6 91 be
       -0.009463176 -0.14651926 0.13635574 -0.28447527
000370 40 a7 79 be 8c 99 c9 3e 15 3b 16 be 7e 07 6e bd
       -0.24380207 0.3937496 -0.14670976 -0.058112614
000380 b9 76 fe be 27 d2 94 3e 62 5e ac 3e 1d a6 32 3e
       -0.49699953 0.29066584 0.33665758 0.1744618
000390 10 0f 96 be f0 a9 02 bf f8 04 ca be 0f fe a8 3e
       -0.29308367 -0.51040554 -0.39456916 0.3300633
0003a0 44 a1 53 3e 57 ee af 3e 76 aa b5 3e a6 3c 31 3e
       0.20666987 0.34361526 0.35481614 0.17308292
0003b0 c9 91 c1 3c ca 4d 70 be ca 7e fa be b4 c8 02 bf
       0.023629086 -0.23467174 -0.48924857 -0.510875
0003c0 6a f9 5e 3e 2f 4e 2b be 0f ed 88 bd b3 18 89 be
       0.21774831 -0.16729043 -0.0668584 -0.26776657
0003d0 84 5e 8b bd a7 fe 84 be d0 0d 6e be a7 73 72 3e
       -0.06805137 -0.25975534 -0.23247457 0.2367693
0003e0 2c 79 17 bd ee 8d 9a 3e ef 5c 8e bd 52 7d 85 be
       -0.036980793 0.3018641 -0.069513194 -0.26072174
0003f0 69 18 82 3c 0f 5d 26 be 40 a4 fe bc c5 9b e4 be
       0.01588078 -0.16246437 -0.03108418 -0.44650093

reaction_module.encoder.0.bias f4 [64]
000000 9e f3 b5 be 7d fe 05 be 04 df 9f 3e 13 56 51 3e
       -0.35537428 -0.13085361 0.31224835 0.20442991
000010 3d 00 77 be d6 9d 5a be a6 a7 a2 be 7e 5a f4 be
       -0.24121185 -0.21349272 -0.3176853 -0.4772529
000020 d8 9e ca be 66 3f f9 bd e6 57 a3 3e af c9 66 3d
       -0.39574313 -0.121702954 0.31903 0.056344684
000030 42 77 54 be 9b b6 8a be d6 8b 4b 3e 26 20 a3 be
       -0.20748618 -0.27092442 0.19877562 -0.31860465
000040 da 0e 33 bd b7 2e 5f 3e e5 e4 50 be 2f 62 96 bc
       -0.043715335 0.21795164 -0.20399816 -0.018357364
000050 15 7f bf bb fc ea e7 bd d8 42 6b be f3 11 8f be
       -0.005844007 -0.113241166 -0.22974718 -0.27943382
000060 5d 57 b9 be ab 86 4c be 65 93 e8 3e 36 f1 1e be
       -0.36199465 -0.19973247 0.45424953 -0.15521702
000070 8e e2 7f be cf bd 78 3d 66 74 2c 3e fc 74 63 3e
       -0.24988768 0.06072789 0.16841277 0.22212595
000080 bb 2d b6 3e f8 5a 81 3e 8e bb b8 be 21 68 8b 3d
       0.35581765 0.25264716 -0.36080593 0.068069704
000090 21 d3 93 3e 65 49 a7 bd 8d 0f 89 be cd 74 e5 3e
       0.28872016 -0.08168296 -0.26769677 0.44815674
0000a0 9a fe 5b be 4f 74 5d be a4 53 bf be ec 64 b5 3d
       -0.21483842 -0.216264 -0.373685 0.0885714
0000b0 07 2a 48 3e 93 da 4c 3d 52 b6 6a 3d b2 2f 6d be
       0.19547282 0.050013136 0.05730278 -0.23162726
0000c0 64 ff ae be 84 a4 e6 3c a6 82 d2 3e 73 3d 6c 3e
       -0.34179223 0.028154619 0.41115302 0.23070316
0000d0 a5 0f 66 be 20 58 1e bd 50 5a aa be 7b f5 2b be
       -0.22466905 -0.03865826 -0.33272028 -0.16792862
0000e0 75 09 a1 3d b7 6a 69 3e 6c 38 bd 3e a1 43 90 be
       0.07863132 0.22794615 0.3695711 -0.28176597
0000f0 28 ed a4 3e 1a 4e a9 be 95 9d 47 3e 43 53 cd 3e
       0.32212186 -0.330674 0.19493707 0.40102586

reaction_module.encoder.1.weight f4 [64]
000000 30 cc 7b 3f 00 e6 73 3f f7 48 74 3f a2 28 80 3f
       0.9835844 0.9527283 0.95423836 1.00124
000010 36 01 78 3f fa 6a 80 3f e7 f3 6a 3f fe d8 7d 3f
       0.9687685 1.0032647 0.91778415 0.9915923
000020 92 65 6e 3f 52 2b 84 3f a9 fd 8e 3f f5 a3 78 3f
       0.93123734 1.032572 1.1171161 0.9712518
000030 89 3f 6b 3f a4 17 7b 3f ed fa 79 3f 62 7a 7e 3f
       0.9189382 0.9808295 0.9764851 0.9940549
000040 3c 0e 82 3f 90 71 85 3f fb ff 7b 3f 48 3b 87 3f
       1.0160594 1.0425282 0.9843747 1.0564966
000050 3f cf 8c 3f a6 78 81 3f 9b b9 78 3f b8 44 7f 3f
       1.1000746 1.0114944 0.9715821 0.9971423
000060 96 e5 83 3f 50 37 8c 3f 2e 65 7e 3f 6f f1 86 3f
       1.0304439 1.095438 0.9937314 1.054243
000070 5a 40 83 3f a8 d1 74 3f 02 da 84 3f c2 db 78 3f
       1.0254014 0.9563241 1.0379031 0.97210324
000080 10 88 84 3f 89 40 7f 3f ff 84 8e 3f 0c 5a 81 3f
       1.0354023 0.9970785 1.1134337 1.0105605
000090 39 f6 80 3f b3 53 77 3f 78 09 7b 3f 4c f5 81 3f
       1.0075141 0.9661209 0.98061323 1.0152984
0000a0 f3 b4 84 3f 12 cd 85 3f 1f 02 80 3f 69 d9 74 3f
       1.0367721 1.0453207 1.0000647 0.9564424
0000b0 09 b9 82 3f 56 54 79 3f 01 14 80 3f b1 93 86 3f
       1.0212718 0.9739431 1.0006105 1.0513822
0000c0 33 8d 84 3f 72 93 86 3f 4d f9 7a 3f 42 ce 84 3f
       1.035559 1.0513747 0.9803665 1.0375445
0000d0 dd 4b 71 3f 2c 60 84 3f 19 b6 7d 3f 6d 00 82 3f
       0.94256383 1.0341849 0.99105984 1.015638
0000e0 60 2d 80 3f 3e ed 7f 3f 09 12 80 3f 9c 81 7e 3f
       1.0013847 0.9997138 1.0005504 0.9941652
0000f0 6e 9c 79 3f 34 6d 81 3f 75 e8 82 3f fb 87 7a 3f
       0.9750432 1.0111451 1.022719 0.9786374

reaction_module.encoder.1.bias f4 [64]
000000 a1 0e 11 bd f7 51 56 bd 35 47 6a bd b3 26 ed bb
       -0.03541434 -0.05232426 -0.057196815 -0.0072372793
000010 8a 80 51 3a 1a 63 9c 3c 81 af 67 bd cb d3 f1 bc
       0.0007991871 0.019090224 -0.056563858 -0.029519936
000020 dd 25 94 bd 6c 7e bf bb 77 f2 1f 3d f9 5b 4b bd
       -0.07233784 -0.005843928 0.039049592 -0.04964826
000030 d0 2b f4 3c 13 ef 7b 3d 8b 02 45 bd 04 9e ec 3c
       0.029806048 0.061507296 -0.04809813 0.028883941
000040 1a 6d c2 3c b5 db a9 3c 33 17 ca bc 98 f9 c4 3c
       0.023733664 0.020734647 -0.024669265 0.024044797
000050 92 e1 6f 3d c3 87 7f bc 57 71 d0 bc 5e c8 c3 3b
       0.05856473 -0.015596333 -0.02544467 0.0059748134
000060 3c ba 2d bd a1 31 a9 3d f3 9b ff bc 07 e7 2e 3d
       -0.042413935 0.08261419 -0.031202292 0.042700794
000070 46 64 43 3c 43 a5 45 bd bd dc 59 3d 55 3d dd bc
       0.0119257625 -0.04825331 0.053189028 -0.027006784
000080 6e 53 d4 bb 18 11 27 3a 35 53 39 3c 84 26 19 3b
       -0.006479672 0.00063730916 0.011311342 0.0023368904
000090 1c 48 0c bc bd 68 37 bd 7d 7e 93 bc cf e1 89 3b
       -0.008562114 -0.04477762 -0.01800465 0.0042078267
0000a0 ab bd 33 bc 7a 2c 8c bc 1c 14 d6 3c e0 78 5c bd
       -0.010970513 -0.017111052 0.026132636 -0.053826213
0000b0 40 7d d8 3b 47 02 f9 bc 0c 78 b2 bc 1f de 6a 3d
       0.006606728 -0.030396594 -0.021785758 0.057340737
0000c0 4e 81 c2 bc 42 09 94 3d 2f 22 8f ba f6 4e 91 bc
       -0.023743298 0.07228328 -0.0010920222 -0.017737847
0000d0 49 53 22 bd bd 33 e4 bb e3 57 5a bc 15 6a 26 3c
       -0.03963021 -0.0069641755 -0.013326618 0.010157128
0000e0 1f fb e8 bc f1 f7 54 bc de 33 0b 3d 6e 75 85 3c
       -0.028440056 -0.012998567 0.03398501 0.016291346
0000f0 e8 4e 6b 3d ae 6c 9b bc 54 f9 4d ba cf 84 a6 bc
       0.057448298 -0.018972721 -0.0007857282 -0.020327

reaction_module.encoder.4.weight f4 [64, 64]
000000 bf 13 af bb 3e c2 c7 3d 12 2b dd bd f1 46 d2 bc
       -0.00534293 0.09753846 -0.10799231 -0.025668593
000010 29 50 8e 3d 91 bc 99 bd 67 9a c4 bc 38 41 73 bd
       0.06948883 -0.07506669 -0.023999406 -0.05938837
000020 89 63 99 3d df b4 8d 3d 83 ea a1 3d 72 28 91 bd
       0.07489688 0.06919264 0.07906058 -0.070877925
000030 6e 18 b1 bd d0 c2 86 3d 60 01 13 3d 8d 3a 90 3b
       -0.08647238 0.06580126 0.035889983 0.004401511
000040 4d ed b2 3c f6 8f fa 3d 94 3f d7 3b eb 66 78 3d
       0.02184167 0.122344896 0.0065688584 0.060645025
000050 48 85 2f 3c 92 10 12 be 4b e5 bb bd f2 20 9c bd
       0.010712929 -0.14264134 -0.091745935 -0.07623471
000060 ce e5 d5 bd 8e ae 98 3d e3 fc 30 bd 84 89 a5 bd
       -0.104442224 0.07455169 -0.04320992 -0.0808287
000070 91 0e 1d 3e 2a b9 19 3d bf 6c 0a 3e 13 56 55 bd
       0.15337588 0.0375301 0.13518046 -0.05208404
000080 3f 93 b6 bc c1 b5 71 3d ea 68 2c bd 31 40 83 bd
       -0.02228701 0.059011225 -0.04209224 -0.06408728
000090 d6 75 e2 3b 17 41 e0 bc f7 04 c7 bd ab d5 bc 3d
       0.00691102 -0.027374787 -0.09717744 0.092204414
0000a0 c1 d5 f1 3d 31 82 3a bc 81 bd b4 3c a3 b2 0a be
       0.118083484 -0.011383579 0.022063019 -0.13544707
0000b0 5f 2b b0 bc 73 b3 35 3d c8 c7 7c 3d d1 31 2d bd
       -0.021505056 0.04436059 0.061713964 -0.042283837
0000c0 6c fe 84 bd 3a e0 0d 3e 58 61 c6 bd bb db f8 3d
       -0.064938396 0.13855067 -0.096865356 0.12151285
0000d0 a1 53 11 bd 05 70 7a bd da 49 32 ba 1a 5b c3 3c
       -0.035480145 -0.061141986 -0.0006801166 0.023847152
0000e0 63 42 64 bd 0a af e8 3d 1a d2 65 3c d8 a0 95 3d
       -0.055727374 0.11361511 0.014027143 0.07306069
0000f0 58 e9 f3 3d b5 30 91 bd 9d 08 9d bd a5 13 de 3d
       0.11909741 -0.07089368 -0.076676585 0.10843591
000100 ac 3b bd 3d e8 b9 e0 bd 1e b4 2e bd 84 9a 2c be
       0.09239897 -0.10972959 -0.042652242 -0.16855818
000110 8e be ff bd c4 26 82 3d f8 9a 76 3d 29 75 1f 3d
       -0.12487517 0.0635505 0.060206383 0.038930092
000120 20 b4 82 bd 9f fb 30 3d 38 90 2b 3d da 9c c5 bd
       -0.06382012 0.043208715 0.041885585 -0.09649058
000130 b3 da 9c bc 21 99 89 3c af 49 08 3e 0b 4c 31 be
       -0.019147253 0.01679665 0.13309358 -0.17314164
000140 71 75 dc 3d b9 b2 4f bd 11 30 02 be 1e 75 86 bc
       0.10764588 -0.050707553 -0.12713648 -0.016413268
000150 a9 71 35 3e 99 9a 0c 3e 3c 3e 0c 3e 9e bf 98 3d
       0.17719139 0.1373085 0.13695616 0.07458423
000160 25 3d 8f 3d 69 0d 26 bd ab cc 82 bd cb 9f b9 3d
       0.06994084 -0.040540133 -0.063866936 0.09063681
000170 dc 89 2e 3c 3e 81 ce bd dc a7 44 bd c5 7e 21 3d
       0.010652985 -0.10083245 -0.048011646 0.039427537
000180 4b f8 9f 3d f5 ec fe 39 b4 2f 93 bd 2a a7 9e 3d
       0.0781103 0.00048623202 -0.07186833 0.07746728
000190 0a f7 06 be 69 a6 0d be f1 c5 f3 3c 82 6a c6 bc
       -0.13180175 -0.13833012 0.029757472 -0.024220709
0001a0 01 2d 03 3e 5c 4c 30 3e ae d5 2f 3d 90 56 d5 3c
       0.12810136 0.17216629 0.04292839 0.026042253
0001b0 37 48 89 3d d9 77 4d 3d c1 41 c1 bd bf 17 85 3d
       0.06703227 0.050163124 -0.0943637 0.0649867
0001c0 0a a0 3a 3d ba 0f 43 3e 1f c0 c6 3c c9 41 8b bd
       0.04556278 0.19048968 0.024261532 -0.06799657
0001d0 43 1b f7 bc 8e 97 b5 3c 8b 7f f8 bc 22 32 01 3e
       -0.030164367 0.022166993 -0.030334255 0.1261678
0001e0 84 14 21 3e e8 07 b9 3d 3e e2 2d bd 0e 68 8f bd
       0.15730482 0.09034711 -0.04245209 -0.07002269
0001f0 8f 2f ff 3c 5f 1e 44 bd c7 99 8e bd 9b 22 f4 bd
       0.031150607 -0.047880527 -0.069629245 -0.11920663
000200 5a 8d e8 3c b7 70 b5 bd 9c 70 86 bd ae 94 69 bd
       0.028387714 -0.08859389 -0.06564447 -0.057026558
000210 74 c3 44 3d ca 84 2c be a0 4f 17 3e b7 b6 3f 3d
       0.04803796 -0.1684753 0.14776468 0.04680511
000220 35 a0 28 bd fc b3 9f 3d c9 f8 e5 bd 20 ec 3b 3d
       -0.04116841 0.07798001 -0.11229093 0.045879483
000230 21 26 90 3d 98 ad a7 bd a2 d1 e1 3d 9f d8 81 bd
       0.070385225 -0.08187407 0.110263124 -0.06340145
000240 e6 40 16 bd 42 59 db bc 4e 7a 5e 3d 69 24 94 3c
       -0.036682986 -0.02677596 0.054315858 0.018083768
000250 13 f0 00 bc 3c fa 12 3e b0 ba 2d 3e a4 c5 2e bd
       -0.007869738 0.1435327 0.16965747 -0.042668954
000260 fd b0 07 be 03 51 89 bb 31 c3 d9 bd 0a 72 5a 3d
       -0.1325111 -0.0041905656 -0.10632933 0.053331412
000270 e1 d3 11 3d 8e 81 72 bc 52 a9 7d bd 69 f6 76 3d
       0.035602454 -0.014801396 -0.061929055 0.06029359
000280 d5 9b 22 3e 61 6c 8c 3d fb e9 d0 3c 11 f7 b6 3d
       0.15879758 0.06856609 0.025502196 0.08933843
000290 6d e2 ee 3d b6 69 f4 bc f7 7d 03 bd 93 5c 2c 3d
       0.11664281 -0.029835563 -0.03210255 0.042080473
0002a0 7f 35 70 bd 84 88 21 bd ff 6e a4 3c 8d 5f d7 bd
       -0.058644768 -0.039436832 0.020072458 -0.10516272
0002b0 75 11 b6 3d a4 9c 94 3d c3 f2 0b 3d 98 94 7a 3e
       0.088900484 0.07256439 0.034167062 0.24470747
0002c0 e8 b8 c8 3d b9 86 26 3d 97 22 90 3c 65 60 38 be
       0.09800893 0.040655825 0.017594619 -0.18005522
0002d0 ba 7a bf bc 32 b5 46 bc 68 d8 ea bd bd 04 aa bd
       -0.02337395 -0.012128161 -0.114670575 -0.08301685
0002e0 cb 70 b3 bd 3a 41 da bd 9d 05 ef bd 85 f2 30 be
       -0.08761748 -0.10656972 -0.116709925 -0.17280014
0002f0 b8 78 36 bd 20 c2 b8 3d b1 a9 80 3d 7c bc 62 3c
       -0.04454872 0.090214014 0.06282366 0.0138388835
000300 54 9f 81 bd af 58 a8 3d f6 ba c5 bd a0 f1 c5 bd
       -0.063292176 0.0822004 -0.096548006 -0.09665227
000310 35 c8 80 3d f0 98 07 be a5 fe 7a 3d ad 6a f0 3d
       0.062881865 -0.13241935 0.061278004 0.11739097
000320 d6 31 76 bc bb cb e5 3c 54 f8 99 bd 0e a6 da bc
       -0.01502653 0.028051248 -0.07518068 -0.02669051
000330 d3 6a 4a 3d e3 3f 8c 3d a8 ba d2 3d 0b 9a f8 3d
       0.04941828 0.06848123 0.10289508 0.12138756
000340 6e 8e b1 3c c4 28 09 3d 24 c2 68 bd 2a 50 51 bd
       0.021674361 0.033486143 -0.056825772 -0.05110184
000350 25 5b c2 3c 26 73 34 be bf ed eb 3d 0a 76 a9 3b
       0.023725102 -0.1762205 0.11519956 0.005171542
000360 bf da a5 bd 50 60 6d 3d 19 24 22 be 95 c3 ba bd
       -0.08098363 0.05795318 -0.15834083 -0.091193356
000370 7f 96 d5 3d bc 24 eb bd 7b 7d e5 bd a4 6f 7c bc
       0.104290955 -0.11481616 -0.11205574 -0.015407477
000380 14 8c 93 3d da 37 26 3e fe 34 26 3e 74 cc d1 bc
       0.07204452 0.16232243 0.16231152 -0.025610186
000390 aa 08 15 be ff 03 56 3d 4d 34 c5 3c ee d6 07 bd
       -0.14554086 0.052249905 0.02407279 -0.033163957
0003a0 81 bc a9 3d 2c 9e cc bc 5c bb 32 bc b0 ba b3 3d
       0.082879074 -0.024977766 -0.010908928 0.08775842
0003b0 a1 22 d0 bc 22 c2 80 3c 15 ef 18 be c2 6c 4e bd
       -0.025407137 0.01571757 -0.14934953 -0.05039669
0003c0 fc 00 01 3d 7c 86 57 3d 0f ad fa 3c c3 99 4e 3c
       0.03149508 0.05261849 0.030600099 0.012609902
0003d0 aa 07 af bd e1 8c 32 3d 8d 52 08 be 93 e9 86 3c
       -0.08546384 0.043591384 -0.1331274 0.016468799
0003e0 ad 55 8b 3d 7d e4 f3 3d e3 23 e6 3c 19 4c da bc
       0.06803451 0.11908815 0.028093284 -0.026647614
0003f0 a3 75 c4 bd 8c 1b a9 bd 1a 97 39 be 51 01 fc bc
       -0.0959275 -0.08257207 -0.18124047 -0.030762346

reaction_module.encoder.4.bias f4 [64]
000000 c9 1f 5c 3b 65 5f d7 bd dd 6b fa 3d 70 12 9b 3d
       0.0033588281 -0.10516242 0.122276045 0.07571876
000010 68 96 c9 bd 25 05 f3 ba 04 c8 a2 3d 0e ba b3 bd
       -0.09843141 -0.0018540962 0.07948306 -0.087757215
000020 80 17 d6 bd b7 d8 6a 3d 07 67 6b 3c 65 1e 8e 3d
       -0.10453701 0.05733558 0.014367825 0.06939391
000030 58 0c 00 bd 75 64 cc 3c 49 bd b4 3d 22 24 10 bc
       -0.031261772 0.024950245 0.08825166 -0.008797677
000040 dc b5 43 bd af d4 da bd 92 d7 a1 bb e2 5e c4 3d
       -0.047780856 -0.106850974 -0.004939028 0.0958841
000050 72 5f e8 bd 31 f8 35 bc 9b 24 bc 3d 66 27 bd bc
       -0.1134633 -0.011106537 0.091866694 -0.023090076
000060 0f d1 56 bd 1e de 1d bd 46 0a 57 bd 50 c8 9a 3c
       -0.052445468 -0.038541906 -0.052500032 0.018894345
000070 48 0c fd bd d3 24 d4 3c 72 b4 52 bc f0 09 c7 bc
       -0.12355858 0.025896465 -0.012860404 -0.02429673
000080 00 6e 17 3d 56 46 92 3d 20 f5 cf bd d4 c3 e1 bd
       0.03697014 0.07142322 -0.10154176 -0.110236794
000090 52 ab bd bd 43 eb a7 bd 49 69 f4 bc 9f 80 b3 3d
       -0.092611924 -0.081991695 -0.02983536 0.08764767
0000a0 4a 29 d0 bd 00 53 a0 bd 33 f4 81 bd 38 6a fa bc
       -0.10164125 -0.07828331 -0.063454054 -0.030568227
0000b0 7e 30 06 bd be d4 86 bd a4 23 c3 3b f0 76 30 3d
       -0.03276109 -0.06583546 0.0059551764 0.043082178
0000c0 8e 11 fa bc d8 1c 0f 3d 40 ce 07 3d 60 9a 06 3e
       -0.030525949 0.034939617 0.03315568 0.13144827
0000d0 1e 16 d9 bb 0a 5b a9 3d f0 be 9f 3d de 34 49 3d
       -0.006624951 0.082693174 0.0780009 0.049122684
0000e0 b1 e1 38 3d 7f 98 b3 bd ef af 8b bd 00 57 74 3d
       0.04513711 -0.08769321 -0.06820666 0.059653282
0000f0 6c 77 59 3d 51 b4 d6 3d 57 93 0b bb 29 42 33 bd
       0.053092405 0.104836114 -0.0021297538 -0.043764267

reaction_module.encoder.5.weight f4 [64]
000000 c3 67 85 3f 96 b3 84 3f 97 f3 81 3f b2 d5 87 3f
       1.042229 1.0367305 1.0152463 1.061209
000010 bd f5 7c 3f ff 92 81 3f 35 d8 7f 3f f0 af 84 3f
       0.98812467 1.0122985 0.9993928 1.0366192
000020 ba 08 80 3f 38 8a 78 3f 37 ba 7e 3f 88 6d 80 3f
       1.0002663 0.97085905 0.9950289 1.0033426
000030 81 91 84 3f fe 28 81 3f c7 7f 8e 3f fc c4 8a 3f
       1.0356904 1.0090635 1.1132745 1.0841365
000040 25 70 82 3f 3a 7d 7e 3f 7e d9 7e 3f c2 76 81 3f
       1.0190474 0.9940983 0.99550617 1.0114367
000050 8b 07 81 3f f8 cd 7f 3f 71 df 7c 3f 34 44 84 3f
       1.0080427 0.9992366 0.98778445 1.0333314
000060 90 2e 85 3f 8d 45 76 3f 23 b1 80 3f 01 ae 7f 3f
       1.0404835 0.96199876 1.0054058 0.99874884
000070 53 84 82 3f e7 e7 80 3f cf 8b 83 3f 71 a6 81 3f
       1.0196632 1.0070771 1.0277041 1.0128919
000080 1d ee 84 3f c5 e9 7d 3f 43 e0 7d 3f 69 fe 7e 3f
       1.0385166 0.9918483 0.9917032 0.9960695
000090 4e 3d 80 3f c8 82 81 3f 7f eb 82 3f 6d 63 7e 3f
       1.0018709 1.0118036 1.0228118 0.9937046
0000a0 51 05 81 3f cf 36 81 3f 5c 0a 8f 3f 28 1e 86 3f
       1.0079747 1.0094851 1.1175036 1.0477953
0000b0 51 b1 70 3f e1 4f 80 3f 26 d4 7a 3f d9 52 7a 3f
       0.94020563 1.0024377 0.9797996 0.97782665
0000c0 82 d5 81 3f a2 a3 7d 3f 15 aa 75 3f 52 16 81 3f
       1.0143282 0.9907781 0.9596265 1.0084937
0000d0 27 78 7e 3f 9f 90 78 3f ed 73 80 3f 58 b0 8d 3f
       0.9940209 0.97095674 1.0035378 1.1069441
0000e0 d5 e4 77 3f 7b 6a 7f 3f 50 c6 82 3f b6 4f 7e 3f
       0.96833545 0.9977185 1.021677 0.9934038
0000f0 3c cb 7e 3f a9 9f 77 3f 75 76 82 3f 78 37 7f 3f
       0.9952886 0.96728 1.01924 0.99694014

reaction_module.encoder.5.bias f4 [64]
000000 4c 9a 33 3d 2f 4c e7 3c 88 01 1c 3c cb ad dc ba
       0.04384832 0.02823457 0.009521849 -0.0016836462
000010 c2 11 99 bc b9 da 8c b8 a4 6b 5a 3c 1e df 08 3d
       -0.018685225 -6.7164605e-05 0.013331328 0.033415906
000020 8a 9a ca bc 63 d6 fe 3b af 12 08 3c 2b 0c d1 3c
       -0.024731893 0.0077770217 0.008305236 0.025518497
000030 0c b3 8e 3c 53 9f 8c 3b f8 fc 17 3d 70 1b 5d 3d
       0.01741936 0.004291454 0.037106484 0.053981245
000040 bb 22 3d bc 22 04 42 3c 27 15 1d 3d 16 f7 b1 3c
       -0.011543925 0.011841806 0.03835025 0.021724265
000050 00 25 e1 3a ab 44 85 bb b3 ee ff ba d5 c2 0f 3c
       0.0017177165 -0.0040670238 -0.0019526094 0.008774479
000060 de c6 2e bd 53 2b 98 bc bb 21 db bb d8 41 b4 3b
       -0.042670123 -0.018575346 -0.0066873706 0.0055010132
000070 bd e4 0f bd 1a fa b0 bc 59 d5 b8 3c cb 4b 1b bc
       -0.03513025 -0.021603633 0.02256267 -0.00947852
000080 85 6a 60 3d 14 16 a3 3a 80 52 fb bc 3d 35 ef bc
       0.054789085 0.0012442493 -0.030678988 -0.02920019
000090 56 12 b9 b9 52 6a c5 3a 78 fd 14 3d d3 57 53 bc
       -0.0003529961 0.0015061593 0.03637454 -0.012899357
0000a0 ac 35 2f bc 13 0c 01 bc 4b c9 16 3d b4 0f 1b 3d
       -0.010693949 -0.007876414 0.03681306 0.037856773
0000b0 0f ef af bc 90 09 bd 3c 2f a9 32 3b 6b 87 55 3b
       -0.021476297 0.023075849 0.0027261486 0.0032581936
0000c0 14 05 86 3b f9 b9 05 bd d9 68 35 bc 35 8c 86 3c
       0.004089961 -0.03264806 -0.011072361 0.016424278
0000d0 fe 3e f4 b9 48 2c 4b bc bc 0f 11 bd 31 d9 54 3c
       -0.0004658624 -0.012400694 -0.035415396 0.012991236
0000e0 8c 7a 9e bc 26 15 85 bc 2e fe 58 3c 84 2c 07 3c
       -0.019345544 -0.016245436 0.013244195 0.008250359
0000f0 15 71 09 3c a0 2a e0 bb 9e e8 c1 3b 7d 05 08 bd
       0.008388777 -0.006841019 0.0059176227 -0.03320836

reaction_module.residual_mlp.0.weight f4 [64, 65]
000000 89 64 80 3d 0c ba cd 3c 29 be 72 3d 09 5b ca bc
       0.062691756 0.025113128 0.059263382 -0.024701612
000010 7c 9a 88 bc 52 89 1d bc 8c 54 aa 3d 41 50 22 be
       -0.016675226 -0.009615259 0.08316907 -0.15850927
000020 48 2a fd bb 3a 99 a0 3d 8e 9f 00 3d f1 70 ba 3d
       -0.0077259876 0.07841726 0.031402163 0.09103573
000030 70 26 89 bd d9 ae a0 bd 83 08 15 be 02 dc 0f be
       -0.066967845 -0.078458495 -0.14554028 -0.1404877
000040 66 60 18 bd 6e 46 2f 3d e1 4b de 3c 31 a7 97 bd
       -0.037201308 0.042791776 0.027135791 -0.07404936
000050 27 6b 04 3e 99 ad 3f 3d 4d ef fc 3c 19 2e 8f bd
       0.129315 0.046796415 0.030875826 -0.06991214
000060 a3 25 dc 3d 41 2f d4 bd 29 fe ec 3d fc cc c4 bd
       0.10749366 -0.103605755 0.11571915 -0.0960941
000070 70 67 44 3d 43 a6 21 bd b4 00 be 3c 44 5d a9 bd
       0.04795021 -0.0394652 0.023193695 -0.08269742
000080 d9 8b 21 bd a9 f0 62 bd 9b e3 d5 bd 82 36 6c bd
       -0.03944001 -0.055405293 -0.10443803 -0.05766917
000090 17 22 89 bd 8b c2 e9 3c 0f 7f 85 3d b3 89 ea 38
       -0.06695955 0.028535148 0.06518375 0.00011183638
0000a0 92 2c 33 3e 7c 41 84 bc 7d b4 37 be e2 7e 3b bd
       0.17497471 -0.016144507 -0.17939945 -0.0457753
0000b0 d5 5b 42 bd 0c 0a c3 3d 50 8d b9 3d c2 74 29 3d
       -0.04745086 0.09523401 0.09060156 0.041371115
0000c0 25 2d d2 bd a6 23 32 bd f5 b1 25 bd 1c dd 01 be
       -0.10262517 -0.04349103 -0.040452916 -0.12682003
0000d0 71 d3 a7 3c 3f bd 68 3d 1b 6c 8c 3d 14 27 85 bb
       0.020486565 0.056821104 0.06856557 -0.0040634964
0000e0 91 be 04 bd bc f3 92 bd b9 26 89 bd b4 c3 b8 3d
       -0.0324083 -0.07175395 -0.06696839 0.090217024
0000f0 e3 87 7b bd 1f 0b 72 bb 6e de 9b bd ce b9 0c bd
       -0.06140889 -0.0036932898 -0.076107845 -0.034356885
000100 f6 1a 9d 3d 8b bc 0c be 9e e8 d4 3d 13 03 cd bd
       0.07671158 -0.13743798 0.10395931 -0.10010352
000110 dd 42 bd bb 7f e3 cd 3d d1 c7 5a 3d 74 49 15 bd
       -0.005775793 0.10053157 0.053413216 -0.036447003
000120 a2 16 e6 bd c2 fb 13 bd 6a a9 94 3c 71 21 c9 bd
       -0.112347856 -0.036128767 0.01814719 -0.098208316
000130 68 30 8a 3d 9d c7 d4 bd fe 01 f3 3c ac 4a 85 bd
       0.06747514 -0.10389636 0.029664036 -0.06508383
000140 43 8b 0f be b8 f5 ff 3d 61 86 ad 3d f4 55 0f bd
       -0.14017968 0.12498039 0.08472896 -0.03499408
000150 a7 77 e0 bd 2b 56 20 bc af a2 ad 3d cf 00 af 3d
       -0.10960322 -0.009786169 0.08478295 0.08545076
000160 84 75 6d 3a d3 5f ee bc 94 d0 e4 bd cf 32 e3 3d
       0.0009058344 -0.029098427 -0.111725956 0.11093675
000170 8e 07 98 3d 10 75 c8 3d c3 f5 2d bd 35 f5 07 3d
       0.07423316 0.09787953 -0.042470705 0.033192832
000180 28 87 94 bc dc 56 1a 3d 5c 2b 34 3d 9f f1 03 be
       -0.018130854 0.03768049 0.043986663 -0.1288514
000190 1d ff 3e 3d db f1 0f 3d 11 cf 5e bd 6d 90 ab 3d
       0.046630014 0.03514276 -0.054396693 0.083771564
0001a0 2b f4 df 3d 8c 6d b4 3d 59 2e 3c 3c fa 49 e6 bc
       0.10935243 0.08809957 0.0114856595 -0.028111447
0001b0 b2 d7 ec bd 1c 15 c9 3c e1 07 97 3c 79 99 c5 3d
       -0.11564578 0.024546199 0.018436374 0.09648413
0001c0 f4 43 bb 3d f7 67 35 bc e3 37 91 bd cb ca 76 3d
       0.091438204 -0.01107215 -0.07090738 0.060251992
0001d0 9a fb 89 3d ea 6a 5e bd 98 5a cf bd 62 cd 05 3c
       0.06737442 -0.05430118 -0.10124701 0.008166643
0001e0 d3 03 05 3b 11 bd f7 bd fc 43 69 3c 21 3d d3 3c
       0.002029647 -0.120966084 0.0142374 0.025785984
0001f0 8e 2c 8d bd d7 bf af bd 32 25 8a bd 4b b9 eb 3d
       -0.06893264 -0.085815124 -0.06745376 0.11509951
000200 70 b7 f2 3d 99 17 d4 3d 84 68 96 3b 5e 9e 3f 3d
       0.11851394 0.103560634 0.004590096 0.04678189
000210 75 5d 43 3e 55 11 86 3d d2 af 69 bd 2e 69 06 3d
       0.1907862 0.065462746 -0.05705244 0.03281515
000220 87 c1 30 bd 16 9d 59 bc 5a 0b a9 bd 96 9e 00 ba
       -0.043153312 -0.013282081 -0.08254118 -0.00049064436
000230 a0 e6 69 3c cd 2c 86 bd b4 3a 8a 3d 7d a0 e7 3d
       0.014276177 -0.06551514 0.06749478 0.113099076
000240 3c 44 e1 bd a9 be 02 3c 4b e0 c2 bd 37 3d 36 bd
       -0.10999343 0.007980027 -0.09515437 -0.044491973
000250 23 80 dc 3c 65 6b df 3b 73 17 9c 3d 26 18 61 3c
       0.02691657 0.0068182223 0.0762166 0.013738668
000260 7d 5c ef 3d 38 83 3e bd a4 a8 d8 3c 7c 72 9a 3d
       0.116875626 -0.04651186 0.026447602 0.075413674
000270 8c ac 08 3e 28 e3 ad 3c f8 50 9b 3d 50 41 c5 3c
       0.13347071 0.02122648 0.07583803 0.024078995
000280 d0 6f bd 3d c9 88 15 bd 5d 68 4c 3d 59 6a 00 3e
       0.09249842 -0.0365074 0.049904216 0.12540568
000290 b4 01 b0 3b ae 98 4e bd 66 4b ed 3d 4d 46 93 3d
       0.005371297 -0.050438575 0.11586647 0.07191143
0002a0 06 c3 e6 bd 96 ce 47 3d ce 66 cc bd 3e ed 89 bd
       -0.112676665 0.048781 -0.09980546 -0.067347035
0002b0 b8 06 26 3e ef 6e 8f 3d de 5a 90 bb 24 07 bd 3d
       0.162135 0.07003581 -0.0044053635 0.092298776
0002c0 40 8f 1a 3e 43 a3 f2 3d aa 95 aa bd ed 42 89 bd
       0.15093708 0.11847546 -0.083293274 -0.06702218
0002d0 45 d1 1e 3d 2c a5 ae 3d 25 e3 c9 3b d7 5d 84 3d
       0.038773794 0.08527598 0.006161111 0.06463211
0002e0 0e ea 5a 3d 7b 53 a2 bd 45 1e 2f bd d3 60 2a 3e
       0.05344587 -0.07926079 -0.042753477 0.16638498
0002f0 12 8a dd 3c dd 0b a5 3d 54 02 ca bd da 15 79 bc
       0.027043376 0.08058903 -0.09863725 -0.015202964
000300 d0 0e d0 3d b2 2e ae bc d1 e8 8d 3d 01 cb e0 bd
       0.10159075 -0.0212625 0.06929172 -0.1097622
000310 54 0a bc 3d 9c 16 aa bc f2 26 9c ba eb fa a1 bd
       0.091816574 -0.020762734 -0.0011913462 -0.07909187
000320 f6 f5 fa bc c0 05 b9 bd 91 34 b7 bd 48 ef 11 bd
       -0.030634861 -0.090343 -0.08945573 -0.035628587
000330 d2 bb 8a bd dd 64 e0 3d 46 e4 3d 3c e0 6b c0 3d
       -0.06774105 0.10956738 0.011590069 0.093955755
000340 25 4f e4 bb f6 3d 13 3d a7 e7 f7 3d 60 5f 85 bd
       -0.0069674426 0.035947762 0.12104731 -0.06512332
000350 80 5f 30 bd 35 cd f1 3d 43 37 17 bc c6 9a bc bc
       -0.043059826 0.11806718 -0.009229484 -0.02302302
000360 37 b3 74 3b d6 40 40 bd 0e 13 34 3c 97 21 7e bd
       0.0037338266 -0.046936832 0.010990871 -0.062043753
000370 fd c0 9c 3c 09 f1 02 bd ee 22 9f bc f8 7d 78 bd
       0.019134993 -0.03196815 -0.019425835 -0.06066701
000380 e5 65 78 3c b6 07 93 3d 65 fa c9 bd d4 1b a3 bd
       0.015161012 0.07179205 -0.09862212 -0.07964292
000390 fe c0 9f bd 51 ef a7 3d 91 ea 83 3d 15 9a ef bd
       -0.07800482 0.08199943 0.06441224 -0.11699311
0003a0 d4 ff 87 3c a4 10 f4 3c 4c be be bd 9c c1 a8 3c
       0.01660148 0.029793091 -0.0931364 0.020600133
0003b0 3a 7c 07 3e 58 a4 a7 3d 11 bc 77 3d 6c c3 6a ba
       0.13230982 0.08185643 0.06048209 -0.0008955512
0003c0 2f fc 77 bd 1d 86 86 bd df c9 62 3c 88 a6 03 3c
       -0.060543235 -0.06568549 0.013842075 0.00803531
0003d0 d7 50 e7 3d ca 03 13 be 96 8d e1 3c 3f a6 3c bd
       0.11294716 -0.14356914 0.027533334 -0.046056982
0003e0 cd 19 b6 bc b0 35 e0 3d fc f8 94 3c 8f 65 29 bd
       -0.0222291 0.1094774 0.018185131 -0.04135662
0003f0 60 c8 82 bd 2e 3e 08 be 76 b2 b0 bd c3 ac 8d 3d
       -0.06385875 -0.1330497 -0.08627789 0.06917717

reaction_module.residual_mlp.0.bias f4 [64]
000000 00 92 08 be e2 da 9f bd 69 f4 51 bd f6 37 a2 3d
       -0.13336945 -0.078054205 -0.05125848 0.0792083
000010 a4 0c 3a 3d 7d 28 0b be 7b e1 ea 3d 1f 87 28 bd
       0.04542221 -0.13589664 0.11468788 -0.041144487
000020 77 2c 99 ba da e7 2e 3d 98 7c b3 bd e5 72 36 3c
       -0.0011686225 0.04270158 -0.08763999 0.011135791
000030 2e 7f 4d bd 54 9d bc bc b1 4e 66 bc 7f 98 f1 3d
       -0.050170116 -0.023024239 -0.014056847 0.117966644
000040 a9 98 69 bd 73 89 cf bd 7b 9e 50 3d 3b 66 f8 3c
       -0.057030354 -0.10133638 0.05093239 0.030322185
000050 31 c5 f2 bc 7b fe 0d 3d 23 ab 11 3e 2c 9a bb bc
       -0.029635044 0.03466652 0.1422544 -0.022900663
000060 ff 6c d4 bd e3 54 d8 bd 47 db 43 3d 7a b9 46 3d
       -0.10372352 -0.10563066 0.04781654 0.048516728
000070 36 d4 e5 3c e2 8e d2 bd f6 3f b1 bd d2 45 c2 bd
       0.028055292 -0.10281159 -0.08654778 -0.094859734
000080 92 02 ac 3d 06 2f bd bb 1e 69 a0 bd 4a f9 d2 bd
       0.08398928 -0.005773428 -0.078325495 -0.10301454
000090 bd d9 cd 3d 74 d3 26 3c 28 a6 07 3e a7 a2 c9 bd
       0.10051296 0.01018225 0.13246977 -0.098454766
0000a0 a9 6a 13 be 1d 4d 96 3b 16 3a 28 3d ba b4 cb 3d
       -0.14396156 0.0045868293 0.04107102 0.0994658
0000b0 92 38 eb 3d 15 2c 1b 3d 69 01 bd 3d 46 7e 9a bd
       0.11485399 0.037883837 0.092287846 -0.07543616
0000c0 f8 83 14 3e 56 c4 0d bd 5c 1c 6e 3d 7c f6 43 3d
       0.14503467 -0.03461107 0.058132514 0.047842488
0000d0 ab ac 8a bd 4d a2 19 bc 50 79 9f 3c b1 43 d6 3d
       -0.06771215 -0.009377074 0.019467026 0.1046213
0000e0 24 21 bb 3d 06 30 37 3d 7f c2 5f bd 6b 2f 7d 3d
       0.091371804 0.044723533 -0.054628845 0.0618128
0000f0 ac 5b fa 3d dc 70 49 bd e1 c8 a6 3d 4c c8 18 3d
       0.12224516 -0.049179897 0.08143783 0.037300393

reaction_module.residual_mlp.1.weight f4 [64]
000000 4b fc 86 3f 59 ce 7b 3f bc 8b 7c 3f 9c 68 75 3f
       1.0545744 0.98361737 0.9865072 0.95862746
000010 01 cc 85 3f 57 2b 86 3f 56 f8 7c 3f 6b b6 76 3f
       1.0452882 1.0481976 0.9881643 0.963721
000020 62 92 87 3f b9 91 74 3f c8 72 7a 3f 33 b3 7c 3f
       1.0591547 0.95534855 0.9783139 0.98710936
000030 c4 79 73 3f 96 dd 86 3f 8d e0 7f 3f c6 da 83 3f
       0.95107675 1.0536373 0.9995201 1.0301139
000040 4b 09 84 3f 58 0a 7c 3f 03 64 70 3f b0 8d 80 3f
       1.0315336 0.98453283 0.93902606 1.004324
000050 88 3e 7b 3f 6f 47 73 3f f3 d7 80 3f 73 15 74 3f
       0.9814229 0.95030874 1.0065902 0.9534523
000060 2d f8 81 3f 6d 21 88 3f c3 50 87 3f 85 e3 82 3f
       1.0153862 1.0635201 1.0571522 1.0225683
000070 d1 db 7d 3f 1d 26 72 3f dc ed 72 3f 02 12 77 3f
       0.9916354 0.94589406 0.94894195 0.9651185
000080 60 f4 7c 3f 52 79 81 3f ae 9a 82 3f bb 9a 89 3f
       0.98810387 1.0115149 1.0203454 1.0750345
000090 b7 c2 81 3f 4a b5 82 3f 03 0a 70 3f 59 73 83 3f
       1.0137547 1.0211575 0.93765277 1.0269576
0000a0 d8 65 82 3f 59 4e 81 3f 5e 5e 7f 3f e0 e3 7d 3f
       1.018733 1.0102035 0.9975337 0.99175835
0000b0 7a 52 80 3f c0 c5 89 3f 3a 8b 87 3f 01 be 7e 3f
       1.002517 1.0763474 1.0589364 0.9950867
0000c0 2a 21 80 3f 07 a6 80 3f 54 df 82 3f be 9b 75 3f
       1.0010121 1.0050668 1.0224404 0.9594077
0000d0 8f e3 8a 3f 10 42 76 3f ea 86 7a 3f 01 65 79 3f
       1.0850695 0.96194553 0.9786211 0.97419745
0000e0 39 7b 6e 3f a1 13 7e 3f 75 66 79 3f 3f 2e 83 3f
       0.9315677 0.992487 0.9742196 1.0248488
0000f0 08 45 7d 3f 01 11 81 3f c5 f2 82 3f af 55 7d 3f
       0.9893346 1.0083314 1.0230337 0.9895887

reaction_module.residual_mlp.1.bias f4 [64]
000000 9a ee 2b 3c e7 5c f4 bc 05 71 6c bc d6 85 ab ba
       0.010493899 -0.029829456 -0.014431243 -0.0013086151
000010 43 36 24 3d 1e 7a 60 bc 83 b9 11 bc 85 1b 82 bc
       0.04009081 -0.01370099 -0.008894327 -0.015882263
000020 94 52 7c 3c 4f 8a 8e bc 5c 36 91 bc 36 c5 87 bb
       0.0154005475 -0.017399935 -0.017726116 -0.0041433824
000030 2c 68 ea 3b 18 25 20 3c 05 f3 ee 38 39 04 ac 3c
       0.0071535315 0.009774469 0.0001139399 0.020998107
000040 37 df 36 bc c0 d8 95 bb 7f 5e 1e bd 2a da 8c 3c
       -0.011161617 -0.0045729578 -0.038664337 0.017193872
000050 81 bb ca bc 5e 26 59 bc 78 05 11 3b fc fd 17 bc
       -0.024747612 -0.013253776 0.0022128504 -0.009276863
000060 69 67 8f bc 48 04 0e 3c d3 5e db bc 95 1e b0 bb
       -0.017505364 0.008668013 -0.026778614 -0.0053747394
000070 00 a6 47 bb aa c9 07 bd 78 e3 89 bc 31 05 ae bc
       -0.0030463934 -0.033151306 -0.016832098 -0.02124271
000080 28 88 ab bc d6 bc 28 bc 87 44 55 bc ba 5c dd 3b
       -0.020938948 -0.010298928 -0.0130168265 0.0067554386
000090 65 e1 0e 3c 1b d3 b4 3b 12 5e 13 bc c5 39 e4 bc
       0.00872073 0.00551833 -0.008994596 -0.027859578
0000a0 2c 89 b3 bc bc 4c 82 3c 83 2b ce bc 64 5f 8a 3b
       -0.021915995 0.01590573 -0.025167232 0.004222797
0000b0 66 fb ce bc 4c d1 af bb 96 ec 35 3d 30 fa 7f bc
       -0.02526636 -0.0053655263 0.04441508 -0.015623614
0000c0 1e a9 a6 3c fb 16 a9 bb 62 79 32 3a 4a 54 b6 bc
       0.020344313 -0.00516021 0.00068082486 -0.022256989
0000d0 13 80 06 bd d9 4d 20 bc b4 9e bf bb 66 4b ad bc
       -0.032836985 -0.009784185 -0.0058477763 -0.021154117
0000e0 d7 d9 2c bd 60 9f 39 bc 8e 96 4d 38 cf c1 2c 3c
       -0.042199936 -0.011329502 4.9016024e-05 0.010544254
0000f0 93 d4 e6 3a c8 e3 48 bc 7d 4c d4 bc 75 36 08 3d
       0.001761096 -0.0122613385 -0.025915379 0.03325506
