generalizability/epidemiology/checkpoints_v2/checkpoint_epoch_10.pt (torch, 492712 bytes, 94 tensors)

graph_laplacian.laplacian f4 [200, 200]
-0.008130083 -0.008130082 -0.0 -0.0 -0.008130082 -0.008130082 -0.008130082 -0.0
-0.008130082 -0.008130082 -0.008130082 -0.008130082 -0.008130082 -0.0 -0.008130082 -0.008130082
-0.0 -0.008130082 -0.0 -0.0 -0.0 -0.008130081 -0.008130082 -0.008130081
-0.008130082 -0.008130082 -0.008130082 -0.008130082 -0.0 -0.008130081 -0.008130082 -0.008130082
-0.0 -0.008130082 -0.008130082 -0.008130082 -0.008130082 -0.0 -0.008130082 -0.008130082
-0.008130083 -0.008130082 -0.0 -0.008130082 -0.0 -0.008130082 -0.008130082 -0.008130082
-0.008130082 -0.008130082 -0.008130082 -0.008130082 -0.0 -0.0 -0.008130082 -0.008130083
-0.0 -0.0 -0.008130082 -0.008130082 -0.008130082 -0.008130082 -0.008130082 -0.0
-0.008130082 -0.0 -0.008130081 -0.0 -0.0 -0.0 -0.008130082 -0.008130082
-0.008130082 -0.008130082 -0.008130082 -0.008130083 -0.008130082 -0.008130081 -0.008130082 -0.008130082
-0.008130082 -0.008130083 -0.008130082 -0.008130082 -0.0 -0.0 -0.008130082 -0.0
-0.0 -0.0 -0.008130082 -0.008130083 -0.0 -0.008130082 -0.008130082 -0.008130082
-0.008130082 -0.0 -0.0 -0.008130082 -0.008130082 -0.008130082 -0.0 -0.0
-0.008130082 -0.0 -0.008130082 -0.0 -0.008130082 -0.008130082 -0.008130082 -0.008130082
-0.008130082 -0.0 -0.0 -0.0 -0.008130082 -0.0 -0.0 -0.008130081
-0.008130083 -0.008130083 -0.0 -0.008130082 -0.008130082 -0.008130082 -0.008130082 -0.0
-0.0 -0.008130082 -0.0 -0.008130082 -0.0 -0.008130082 -0.008130082 -0.0
-0.008130082 -0.008130082 -0.0 -0.0 -0.0 -0.0 -0.0 -0.008130082
-0.008130082 -0.008130081 -0.008130082 -0.0 -0.0 -0.008130083 -0.0 -0.008130082
-0.008130082 -0.0 -0.0 -0.0 -0.008130082 -0.0 -0.008130083 -0.008130082
-0.0 -0.008130082 -0.0 -0.008130082 -0.0 -0.0 -0.0 -0.0
-0.008130083 -0.0 -0.008130082 -0.0 -0.0 -0.0 -0.0 -0.008130082
-0.008130081 -0.008130082 -0.008130082 -0.0 -0.008130082 -0.008130081 -0.008130082 -0.008130082
-0.0 -0.008130082 -0.0 -0.0 -0.008130082 -0.008130083 -0.008130082 -0.008130082
-0.008130082 -0.0 -0.008130083 -0.0 -0.0 -0.0 -0.0 -0.008130082
-0.009708739 -0.009708738 -0.0 -0.0 -0.009708738 -0.0 -0.009708738 -0.0
-0.009708738 -0.009708738 -0.009708738 -0.009708738 -0.009708738 -0.009708738 -0.009708738 -0.0
-0.0 -0.009708738 -0.0 -0.0 -0.0 -0.009708737 -0.009708738 -0.009708737
-0.009708738 -0.009708738 -0.0 -0.009708738 -0.0 -0.009708737 -0.0 -0.009708738
-0.0 -0.0 -0.009708738 -0.009708738 -0.0 -0.0 -0.009708738 -0.009708738
-0.009708739 -0.009708738 -0.0 -0.009708738 -0.0 -0.009708738 -0.009708738 -0.009708738
-0.009708738 -0.009708738 -0.009708738 -0.0 -0.0 -0.0 -0.009708738 -0.009708739
00000000: 0a34 05bc 0934 05bc 0000 0080 0000 0080
00000010: 0934 05bc 0934 05bc 0934 05bc 0000 0080
00000020: 0934 05bc 0934 05bc 0934 05bc 0934 05bc
00000030: 0934 05bc 0000 0080 0934 05bc 0934 05bc
00000040: 0000 0080 0934 05bc 0000 0080 0000 0080
00000050: 0000 0080 0834 05bc 0934 05bc 0834 05bc
00000060: 0934 05bc 0934 05bc 0934 05bc 0934 05bc
00000070: 0000 0080 0834 05bc 0934 05bc 0934 05bc
00000080: 0000 0080 0934 05bc 0934 05bc 0934 05bc
00000090: 0934 05bc 0000 0080 0934 05bc 0934 05bc
000000a0: 0a34 05bc 0934 05bc 0000 0080 0934 05bc
000000b0: 0000 0080 0934 05bc 0934 05bc 0934 05bc
000000c0: 0934 05bc 0934 05bc 0934 05bc 0934 05bc
000000d0: 0000 0080 0000 0080 0934 05bc 0a34 05bc
000000e0: 0000 0080 0000 0080 0934 05bc 0934 05bc
000000f0: 0934 05bc 0934 05bc 0934 05bc 0000 0080
00000100: 0934 05bc 0000 0080 0834 05bc 0000 0080
00000110: 0000 0080 0000 0080 0934 05bc 0934 05bc
00000120: 0934 05bc 0934 05bc 0934 05bc 0a34 05bc
00000130: 0934 05bc 0834 05bc 0934 05bc 0934 05bc
00000140: 0934 05bc 0a34 05bc 0934 05bc 0934 05bc
00000150: 0000 0080 0000 0080 0934 05bc 0000 0080
00000160: 0000 0080 0000 0080 0934 05bc 0a34 05bc
00000170: 0000 0080 0934 05bc 0934 05bc 0934 05bc
00000180: 0934 05bc 0000 0080 0000 0080 0934 05bc
00000190: 0934 05bc 0934 05bc 0000 0080 0000 0080
000001a0: 0934 05bc 0000 0080 0934 05bc 0000 0080
000001b0: 0934 05bc 0934 05bc 0934 05bc 0934 05bc
000001c0: 0934 05bc 0000 0080 0000 0080 0000 0080
000001d0: 0934 05bc 0000 0080 0000 0080 0834 05bc
000001e0: 0a34 05bc 0a34 05bc 0000 0080 0934 05bc
000001f0: 0934 05bc 0934 05bc 0934 05bc 0000 0080
00000200: 0000 0080 0934 05bc 0000 0080 0934 05bc
00000210: 0000 0080 0934 05bc 0934 05bc 0000 0080
00000220: 0934 05bc 0934 05bc 0000 0080 0000 0080
00000230: 0000 0080 0000 0080 0000 0080 0934 05bc
00000240: 0934 05bc 0834 05bc 0934 05bc 0000 0080
00000250: 0000 0080 0a34 05bc 0000 0080 0934 05bc
00000260: 0934 05bc 0000 0080 0000 0080 0000 0080
00000270: 0934 05bc 0000 0080 0a34 05bc 0934 05bc
00000280: 0000 0080 0934 05bc 0000 0080 0934 05bc
00000290: 0000 0080 0000 0080 0000 0080 0000 0080
000002a0: 0a34 05bc 0000 0080 0934 05bc 0000 0080
000002b0: 0000 0080 0000 0080 0000 0080 0934 05bc
000002c0: 0834 05bc 0934 05bc 0934 05bc 0000 0080
000002d0: 0934 05bc 0834 05bc 0934 05bc 0934 05bc
000002e0: 0000 0080 0934 05bc 0000 0080 0000 0080
000002f0: 0934 05bc 0a34 05bc 0934 05bc 0934 05bc
00000300: 0934 05bc 0000 0080 0a34 05bc 0000 0080
00000310: 0000 0080 0000 0080 0000 0080 0934 05bc
00000320: 6711 1fbc 6611 1fbc 0000 0080 0000 0080
00000330: 6611 1fbc 0000 0080 6611 1fbc 0000 0080
00000340: 6611 1fbc 6611 1fbc 6611 1fbc 6611 1fbc
00000350: 6611 1fbc 6611 1fbc 6611 1fbc 0000 0080
00000360: 0000 0080 6611 1fbc 0000 0080 0000 0080
00000370: 0000 0080 6511 1fbc 6611 1fbc 6511 1fbc
00000380: 6611 1fbc 6611 1fbc 0000 0080 6611 1fbc
00000390: 0000 0080 6511 1fbc 0000 0080 6611 1fbc
000003a0: 0000 0080 0000 0080 6611 1fbc 6611 1fbc
000003b0: 0000 0080 0000 0080 6611 1fbc 6611 1fbc
000003c0: 6711 1fbc 6611 1fbc 0000 0080 6611 1fbc
000003d0: 0000 0080 6611 1fbc 6611 1fbc 6611 1fbc
000003e0: 6611 1fbc 6611 1fbc 6611 1fbc 0000 0080
000003f0: 0000 0080 0000 0080 6611 1fbc 6711 1fbc

reaction_module.encoder.0.weight f4 [64, 5]
0.32888436 0.369603 -0.09656342 0.3962571 -0.11679013 0.08121116 -0.21373574 0.24637733
0.36241588 -0.33630818 0.35696718 0.056098994 0.29188263 0.046898745 0.2470792 -0.071218766
0.33997375 0.07502604 -0.20761119 0.14570867 -0.16272973 -0.038344726 -0.144376 0.24927315
-0.35189164 -0.20570943 -0.1357786 -0.26899093 0.018456364 -0.446625 0.34979597 -0.39562282
0.31305224 0.046445712 -0.17494975 0.26755905 0.068799816 0.34834698 0.038391296 -0.1530724
0.08460517 -0.13851188 0.15441799 0.35852128 0.22911729 -0.18732224 0.27677977 0.08827745
0.22609629 -0.31528038 -0.42886323 -0.1776341 -0.32708323 0.38903275 0.16832563 0.17048797
0.12781735 -0.028976733 0.31559122 -0.36607558 0.04222688 -0.29592636 0.1401368 -0.1593507
0.119560376 -0.023481414 0.40893704 -0.17281528 -0.17630202 -0.30058515 0.38282144 0.14014986
0.41162005 -0.40377286 -0.49982077 -0.32913142 -0.26851177 0.17926213 0.16129254 0.3755906
-0.21835198 -0.2736883 0.28024638 -0.15581003 0.27209187 -0.07855669 0.26722497 -0.33425617
-0.18810794 0.20591605 0.10373745 -0.085714914 0.2603695 0.2993543 -0.33077908 -0.1826598
0.45362163 -0.11487124 -0.115746476 -0.48020974 -0.27048078 0.1068703 -0.09274451 -0.33800766
-0.011427869 -0.31190664 -0.40875855 -0.2434826 -0.41398308 -0.31149012 0.4460429 0.07680535
0.13134292 -0.39223084 -0.34651774 -0.15069398 0.033187985 -0.4127817 -0.21655923 -0.27005526
-0.0375048 -0.155583 -0.016878713 -0.30985245 -0.33778492 -0.20214276 -0.092906356 -0.3238745
0.39461792 -0.073194414 0.35516924 0.10072735 -0.42045242 0.29124707 -0.100888394 -0.19505017
-0.41339737 -0.4615079 0.11845438 -0.15924743 0.20285186 -0.31843925 0.35543168 -0.3271988
-0.11377881 0.09081387 0.21656236 0.3452234 0.3833919 -0.36030662 0.14374387 -0.15658753
-0.016438505 -0.2831836 0.46198323 -0.32952294 0.2293235 0.15029952 0.15187746 -0.2700725
0.3954237 0.08445941 0.033644103 -0.41573086 0.21221924 -0.06755376 -0.21516731 0.38718545
0.11838787 -0.18763094 -0.26720202 -0.053716797 0.26097468 -0.16911902 -0.2654957 -0.12539804
-0.30644038 0.19433622 0.3562601 -0.39056683 0.09293211 0.1976718 0.061192114 -0.1668654
0.2647485 0.2311909 0.16698733 -0.07682438 -0.119890295 0.013078778 -0.057378557 -0.10263832
0.2917566 0.37562263 -0.047160935 -0.105304204 0.0018129854 -0.032451242 0.100766025 0.14178333
-0.38921547 -0.13560827 0.38926357 0.16430843 -0.04828589 -0.29156187 -0.29986358 -0.40860307
-0.18846534 0.103487246 0.29666084 0.21286152 -0.35344747 -0.237928 -0.08081085 0.4075108
0.029391492 -0.1381744 0.15683822 -0.20311002 -0.26782334 0.35202143 -0.16523618 -0.086365804
-0.46905327 0.3012111 0.34946737 0.17991544 -0.29708886 -0.48048759 -0.36974153 0.31763735
0.20924999 0.37178305 0.25076106 0.14888759 -0.011743703 -0.31418145 -0.40419698 -0.4513513
0.20941883 -0.19708697 -0.05837685 -0.2497394 -0.040788703 -0.30569166 -0.2816945 0.20129262
-0.09197528 0.25009584 -0.11052641 -0.2724437 0.002676532 -0.1242633 -0.04939669 -0.42925426
00000000: 8863 a83e 9b3c bd3e 0bc3 c5bd 36e2 ca3e
00000010: aa2f efbd 0952 a63d 8bdd 5abe 574a 7c3e
00000020: 938e b93e 9630 acbe 67c4 b63e 0fc8 653d
00000030: a471 953e e618 403d 5402 7d3e 25db 91bd
00000040: 0a11 ae3e 41a7 993d 0798 54be a734 153e
00000050: 9fa2 26be 5c0f 1dbd 4dd7 13be 7641 7f3e
00000060: 242b b4be 7ea5 52be 8c09 0bbe 2eb9 89be
00000070: cd31 973c 08ac e4be 7518 b33e 138f cabe
00000080: 6248 a03e dc3d 3e3d 0726 33be 80fd 883e
00000090: ebe6 8c3d 895a b23e 3140 1d3d 03bf 1cbe
000000a0: 7a45 ad3d 0fd6 0dbe c01f 1e3e 1a90 b73e
000000b0: b99d 6a3e 67d1 3fbe 14b6 8d3e cfca b43d
000000c0: c985 673e 6e6c a1be f693 dbbe b7e5 35be
000000d0: 7477 a7be 4d2f c73e 8e5d 2c3e 6694 2e3e
000000e0: 8de2 023e 9d60 edbc 2c95 a13e 426e bbbe
000000f0: 18f6 2c3d a983 97be 0580 0f3e d42c 23be
00000100: 12dc f43d 185c c0bc 3260 d13e 7df6 30be
00000110: 8488 34be 4ce6 99be 2c01 c43e 7283 0f3e
00000120: ddbf d23e 51bb cebe 82e8 ffbe ea83 a8be
00000130: 607a 89be 7e90 373e df29 253e 694d c03e
00000140: a997 5fbe df20 8cbe 747c 8f3e aa8c 1fbe
00000150: a04f 8b3e 54e2 a0bd b6d1 883e a023 abbe
00000160: 5e9f 40be a8db 523e 4d74 d43d 4d8b afbd
00000170: 274f 853e f844 993e e05b a9be 2c0b 3bbe
00000180: 1841 e83e 9d41 ebbd 7d0c edbd 0dde f5be
00000190: 757c 8abe d1de da3d d5f0 bdbd 570f adbe
000001a0: f53b 3bbc 3ab2 9fbe cd48 d1be 8153 79be
000001b0: 97f5 d3be a27b 9fbe bc5f e43e 204c 9d3d
000001c0: c27e 063e 7bd2 c8be c66a b1be 864f 1abe
000001d0: 20f0 073d 1f58 d3be b4c1 5dbe af44 8abe
000001e0: a29e 19bd 2651 1fbe 3a45 8abc fba4 9ebe
000001f0: 25f2 acbe 83fe 4ebe b045 bebd e1d2 a5be
00000200: 5c0b ca3e f4e6 95bd bed8 b53e 244a ce3d
00000210: 8a45 d7be 561e 953e 939e cebd 3bbb 47be
00000220: d2a8 d3be c34a ecbe 3698 f23d c211 23be
00000230: 66b8 4f3e 780a a3be 24fb b53e 9a86 a7be
00000240: dd04 e9bd 9ffc b93d 86c2 5d3e 1fc1 b03e
00000250: f14b c43e 1c7a b8be 9831 133e 7b58 20be
00000260: 0baa 86bc 71fd 90be 1189 ec3e 3bb7 a8be
00000270: c8d3 6a3e 1ee8 193e c485 1b3e f146 8abe
00000280: fa74 ca3e 0ef9 ac3d 66ce 093d adda d4be
00000290: 0050 593e a059 8abd d254 5cbe 2c3d c63e
000002a0: 5775 f23d 5322 40be b4ce 88be 2506 5cbd
000002b0: 799e 853e 892d 2dbe 0def 87be 5868 00be
000002c0: c1e5 9cbe 1300 473e b967 b63e 60f8 c7be
000002d0: 3153 be3d 7a6a 4a3e 95a4 7a3d c3de 2abe
000002e0: 1e8d 873e 4fbd 6c3e bafe 2a3e 1a56 9dbd
000002f0: 0b89 f5bd 5f48 563c c705 6bbd 0a34 d2bd
00000300: 1f61 953e 9c51 c03e d32b 41bd bba9 d7bd
00000310: b2a1 ed3a 98eb 04bd 6b5e ce3d a62f 113e
00000320: 4047 c7be e5dc 0abe 8e4d c73e 7840 283e
00000330: 6dc7 45bd 9947 95be b887 99be 6c34 d1be
00000340: 0ffd 40be 1ff1 d33d eee3 973e 5ff8 593e
00000350: 11f7 b4be 66a3 73be 2980 a5bd 41a5 d03e
00000360: 6dc6 f03c 977d 0dbe 339a 203e 13fc 4fbe
00000370: 2420 89be 273c b43e ac33 29be 8ee0 b0bd
00000380: c027 f0be 5738 9a3e 63ed b23e c13b 383e
00000390: 081c 98be 7802 f6be c34e bdbe 5da1 a23e
000003a0: a145 563e 595a be3e c163 803e fd75 183e
000003b0: a968 40bc 64dc a0be e8f2 cebe 8517 e7be
000003c0: e471 563e 2bd1 49be 901c 6fbd afbb 7fbe
000003d0: 0e12 27bd 9e83 9cbe 433a 90be a71f 4e3e
000003e0: 895d bcbd 900c 803e ac5b e2bd be7d 8bbe
000003f0: c168 2f3b c27d febd 2f54 4abd 37c7 dbbe

reaction_module.encoder.0.bias f4 [64]
-0.34383377 -0.129134 0.32062396 0.22815652 -0.26133236 -0.3007835 -0.30011058 -0.46615666
-0.36581537 -0.12779015 0.34686795 0.05002526 -0.29673097 -0.30831605 0.21299872 -0.34722862
-0.050183874 0.2307635 -0.2217455 -0.035971478 -0.008520876 -0.11173801 -0.22787318 -0.35866615
-0.38339725 -0.20574006 0.45615435 -0.20057568 -0.29417273 0.0726446 0.14900775 0.23468754
0.33732653 0.26058993 -0.39456847 0.040778883 0.30432972 -0.07539273 -0.28397197 0.4415684
-0.18303403 -0.23297344 -0.3850744 0.016262025 0.1977006 0.06657611 0.08853772 -0.2618642
-0.38651982 0.03751853 0.40953133 0.2701387 -0.2699474 -0.06314188 -0.32530278 -0.21560536
0.06391084 0.23030575 0.37111866 -0.38876158 0.33570194 -0.310566 0.18523318 0.40229613
00000000: fb0a b0be b43b 04be d328 a43e dda1 693e
00000010: 5bcd 85be 4b00 9abe 18a8 99be 16ac eebe
00000020: 274c bbbe 6cdb 02be ad98 b13e 49e7 4c3d
00000030: 1fed 97be 9adb 9dbe 561c 5a3e f3c7 b1be
00000040: 9b8d 4dbd 444d 6c3e 4111 63be d456 13bd
00000050: 259b 0bbc e6d6 e4bd 9657 69be 17a3 b7be
00000060: a54c c4be 86ad 52be 108d e93e b663 4dbe
00000070: cf9d 96be b1c6 943d 7d95 183e ee51 703e
00000080: 10b6 ac3e 0b6c 853e e104 cabe c207 273d
00000090: 1bd1 9b3e 8167 9abd c664 91be 4115 e23e
000000a0: 466d 3bbe 9790 6ebe 7928 c5be f037 853c
000000b0: 0772 4a3e 0e59 883d 4453 b53d 1013 86be
000000c0: ede5 c5be 08ad 193d 17ae d13e 9f4f 8a3e
000000d0: 8c36 8abe 8850 81bd 168e a6be a7c7 5cbe
000000e0: b0e3 823d 45d5 6b3e 4403 be3e c20b c7be
000000f0: 20e1 ab3e 8202 9fbe c4ad 3d3e c2f9 cd3e

reaction_module.encoder.1.weight f4 [64]
1.0013278 0.96474755 0.97322446 0.9946957 0.94622993 0.984251 0.93615055 1.0073429
0.9604906 1.027277 1.0428331 0.9752437 0.96632934 0.9748812 0.99007314 0.984844
1.006127 1.0216618 0.99295837 1.0334883 1.0433127 1.0251946 0.98331964 0.99717724
1.0209218 0.998529 1.0114952 1.0549961 1.012218 0.9716874 1.0292966 0.9888778
0.9957405 1.0074695 1.0463566 0.97400147 1.00934 0.9863753 0.99917763 1.0138943
0.999923 1.052383 0.9660668 0.96597844 1.0036234 0.99119455 0.985097 0.9967361
0.99926597 1.0216235 0.9791477 1.0209677 0.95938796 1.0084674 0.99205077 0.99815017
0.98925215 0.98779976 0.9818999 1.0043452 1.003288 1.0112121 1.0257933 0.9928239
00000000: 822b 803f b2f9 763f 3d25 793f 61a4 7e3f
00000010: 203c 723f e0f7 7b3f 90a7 6f3f 9df0 803f
00000020: b6e2 753f d07d 833f 8e7b 853f 92a9 793f
00000030: 5c61 773f d091 793f 6f75 7d3f bd1e 7c3f
00000040: c5c8 803f d0c5 823f 8532 7e3f 5849 843f
00000050: 458b 853f 9439 833f d6ba 7b3f 0247 7f3f
00000060: 91ad 823f 999f 7f3f ad78 813f 1d0a 873f
00000070: 5c90 813f 81c0 783f febf 833f 1827 7d3f
00000080: d9e8 7e3f c3f4 803f 03ef 853f 2958 793f
00000090: 0e32 813f 1783 7c3f 1bca 7f3f 4ac7 813f
000000a0: f4fa 7f3f 7cb4 863f 2750 773f 5d4a 773f
000000b0: bb76 803f edbe 7d3f 512f 7c3f 192a 7f3f
000000c0: e5cf 7f3f 8fc4 823f 6ca9 7a3f 12af 823f
000000d0: 739a 753f 7615 813f 0af7 7d3f c586 7f3f
000000e0: a13f 7d3f 72e0 7c3f cb5d 7b3f 628e 803f
000000f0: be6b 803f 666f 813f 324d 833f b529 7e3f

reaction_module.encoder.1.bias f4 [64]
-0.015945708 -0.033093244 -0.02947687 -0.0065806364 -0.013319752 0.022305343 -0.034157265 -0.016011044
-0.038276907 -0.0050197225 0.026043834 -0.030014195 -4.3340166e-05 0.051924948 -0.019474978 -0.003476827
0.011305174 0.01912616 -0.011737188 0.021453395 0.015281049 -0.007732879 -0.0042865304 -0.0042493697
-0.023382088 0.026459938 -0.015083779 0.01692039 0.01065955 -0.032374095 0.033133566 -0.010701429
-0.018827626 0.0023329742 -0.011456141 -0.009638568 0.001904711 -0.02184369 -0.0031960804 0.0033694888
-0.0022665625 0.0064820633 0.018323546 -0.03167833 0.0032722119 -0.019308772 -0.009627623 0.035231896
-0.005258682 0.0405941 0.012721353 -0.0038248838 -0.027763689 -0.0048388825 0.0015039226 0.0023073114
-0.021352135 -0.013541073 0.011220448 -0.00374165 0.046540126 0.0047554076 0.006106795 -0.0049669384
00000000: 93a0 82bc c88c 07bd 7a79 f1bc 61a2 d7bb
00000010: 173b 5abc b2b9 b63c 7de8 0bbd 9829 83bc
00000020: 3fc8 1cbd 7c7c a4bb e159 d53c 54e0 f5bc
00000030: 26c8 35b8 41af 543d fd89 9fbc 7adb 63bb
00000040: 5639 393c 77ae 9c3c 564d 40bc 08bf af3c
00000050: 5d5d 7a3c 1764 fdbb 0676 8cbb 4c3e 8bbb
00000060: cb8b bfbc 83c2 d83c f421 77bc a19c 8a3c
00000070: 65a5 2e3c b39a 04bd 10b7 073d 0c55 2fbc
00000080: 653c 9abc d0e4 183b 8ab2 3bbc 16eb 1dbc
00000090: 7fa7 f93a 8af1 b2bc 5575 51bb a4d2 5c3b
000000a0: 9c8a 14bb 7d67 d43b 431b 963c 23c1 01bd
000000b0: 9b72 563b 6e2d 9ebc 2dbd 1dbc 524f 103d
000000c0: 0651 acbb 0046 263d 396d 503c e7aa 7abb
000000d0: ad70 e3bc 7d8f 9ebb 451f c53a 4336 173b
000000e0: acea aebc 60db 5dbc f8d5 373c 7836 75bb
000000f0: dca0 3e3d 40d3 9b3b 821b c83b b3c1 a2bb

reaction_module.encoder.4.weight f4 [64, 64]
-0.020937074 0.09494019 -0.103986174 -0.033237673 0.068167895 -0.055439677 -0.033402976 -0.06553591
0.050869133 0.04832869 0.055217188 -0.07817116 -0.105198085 0.029625112 0.045940537 -0.06802885
-0.019692458 0.10906874 0.00019896725 0.035662472 -0.0065159807 -0.12285264 -0.116956085 -0.062421206
-0.08479487 0.039700437 -0.030545883 -0.075019546 0.14057 0.03388903 0.10673729 -0.04964496
-0.037944295 0.0617244 -0.058579285 -0.08326829 0.0062692086 -0.04446913 -0.11659479 0.08839836
0.10423661 -0.01394515 -0.0044381153 -0.12809163 -0.022154093 0.04315892 0.052535586 -0.038518533
-0.059208527 0.08955976 -0.08812412 0.1011315 -0.048818037 -0.037258204 -0.041265775 0.008594846
-0.03162348 0.10142236 0.012735525 0.08388905 0.12977515 -0.08060343 -0.08861956 0.108163446
0.10597697 -0.110690504 -0.02372325 -0.13003294 -0.12253036 0.04662 0.034941684 0.064232856
-0.043609783 0.096180886 0.039037436 -0.0871497 -0.026863173 0.016555626 0.099217094 -0.12051449
0.0906895 -0.043300826 -0.10673084 -0.013567435 0.16836071 0.14580464 0.11152473 0.06491193
0.0749148 -0.03264029 -0.0638016 0.10629855 -0.036496863 -0.092436686 -0.030632677 0.051600453
0.0719683 -0.012601708 -0.085042015 0.05993148 -0.08409994 -0.12471402 0.060576864 -0.013701048
0.13374151 0.16848406 0.012812265 0.015556863 0.070489705 0.046434738 -0.04458209 0.04585976
0.016441835 0.16307326 0.009911604 -0.048902046 -0.0407804 -0.023799753 0.007725953 0.09886992
0.14491911 0.07513494 -0.05705553 -0.09773525 0.017044034 -0.045443203 -0.03440885 -0.11036756
0.005874393 -0.10099864 -0.07314486 -0.08908572 0.08048713 -0.14090113 0.121001914 0.01142137
-0.035229996 0.06684137 -0.035993703 0.060844958 0.07703022 -0.089154385 0.105537504 0.007587746
0.006053986 0.010818754 0.036738805 0.004363267 -0.006153727 0.11701301 0.14273182 -0.017499045
-0.14073882 -0.01132963 -0.09545383 0.107286096 -0.013078887 -0.018315498 -0.051137015 0.047205314
0.13430314 0.047464017 0.056066867 0.11036861 0.10177736 -0.052724205 -0.03998705 0.055286873
-0.028256463 0.057847053 -0.025563572 -0.09913468 0.08312447 0.07030905 0.018872768 0.16573027
0.07887941 0.091917634 0.019876314 -0.14051186 -0.06361929 -0.01763938 -0.13339803 -0.06372056
-0.10021384 -0.11275793 -0.07128025 -0.14252056 -0.038581796 0.051483493 0.05894079 -0.028560795
-0.039259776 0.060715448 -0.08933285 -0.0723484 0.078246936 -0.11476318 0.030269176 0.13176338
0.0063553974 0.06195345 -0.106598675 -0.023592057 0.033254534 0.06217493 0.042473715 0.12263977
-0.060292922 -0.012079439 -0.049361356 -0.06823356 -0.00174398 -0.1200241 0.08812476 0.01809076
-0.056502156 0.05765585 -0.15324003 -0.05819893 0.02679051 -0.12103467 -0.110032186 -0.028000517
0.06394719 0.10905285 0.11276534 -0.08665482 -0.10574767 0.07397959 0.049913846 -0.024926256
0.05512546 -0.08535158 -0.044194296 0.082417734 -0.02767936 -0.011837786 -0.114769995 -0.059815597
0.008178644 -0.056693554 -0.021996967 0.019317118 -0.10491268 0.019821297 -0.109793246 -0.0439589
0.051848263 0.080477 -0.03188553 -0.036889747 -0.11721099 -0.07256088 -0.14423858 -0.037905887
00000000: 3a84 abbc 0170 c23d b4f6 d4bd 3a24 08bd
00000010: 9c9b 8b3d b714 63bd 8fd1 08bd b137 86bd
00000020: 275c 503d 4ef4 453d 6b2b 623d 3318 a0bd
00000030: 1872 d7bd 5db0 f23c 252c 3c3d b652 8bbd
00000040: 1452 a1bc 6e5f df3d dda1 5039 d012 123d
00000050: 0284 d5bb 2a9a fbbd ac86 efbd 61ad 7fbd
00000060: efa8 adbd ed9c 223d 5c3b fabc d9a3 99bd
00000070: 95f1 0f3e 39cf 0a3d 1599 da3d 8358 4bbd
00000080: 7a6b 1bbd b9d2 7c3d d5f0 6fbd 9188 aabd
00000090: ef6d cd3b 4325 36bd 40c9 eebd 330a b53d
000000a0: 017a d53d 337a 64bc 9c6d 91bb 742a 03be
000000b0: 807c b5bc 68c7 303d 8e2f 573d 9cc5 1dbd
000000c0: a484 72bd 1c6b b73d 6b7a b4bd 081e cf3d
000000d0: 6cf5 47bd 0f9c 18bd 4d06 29bd 66d1 0c3c
000000e0: 9f87 01bd 87b6 cf3d aaa8 503c 06ce ab3d
000000f0: c7e3 043e 6913 a5bd 2c7e b5bd cc84 dd3d
00000100: 740a d93d b4b1 e2bd 4357 c2bc 5b27 05be
00000110: 33f1 fabd 9df4 3e3d 031f 0f3d 848c 833d
00000120: 2ca0 32bd 7cfa c43d b8e5 1f3d 8b7b b2bd
00000130: 2810 dcbc aa9f 873c 5532 cb3d 4dd0 f6bd
00000140: 6bbb b93d 355c 31bd b395 dabd f249 5ebc
00000150: c066 2c3e d04d 153e 1467 e43d 8cf0 843d
00000160: ee6c 993d d3b1 05bd 6aaa 82bd 0eb3 d93d
00000170: bc7d 15bd 724f bdbd 61f1 fabc ff5a 533d
00000180: 1e64 933d 6577 4ebc 822a aebd b67a 753d
00000190: 973c acbd 106a ffbd 721f 783d 5c7a 60bc
000001a0: 89f3 083e 1687 2c3e 89ea 513c 36e2 7e3c
000001b0: e85c 903d 5a32 3e3d b69b 36bd 72d7 3b3d
000001c0: 07b1 863c adfc 263e 4864 223c 834d 48bd
000001d0: 5909 27bd b3f7 c2bc fe29 fd3b 507c ca3d
000001e0: ad65 143e 59e0 993d 0fb3 69bd 6b29 c8bd
000001f0: ee9f 8b3c a722 3abd 4bf0 0cbd 6308 e2bd
00000200: fb7d c03b 60d8 cebd f9cc 95bd 9372 b6bd
00000210: 70d6 a43d 6348 10be dacf f73d b320 3b3c
00000220: 544d 10bd 21e4 883d 226e 13bd 9038 793d
00000230: 05c2 9d3d 9396 b6bd 0c24 d83d a0a2 f83b
00000240: 8460 c63b 2541 313c 6e7b 163d bdf9 8e3b
00000250: 34a5 c9bb 84a4 ef3d 4a28 123e 285a 8fbc
00000260: d61d 10be ea9f 39bc 4c7d c3bd d0b8 db3d
00000270: d448 56bc 620a 96bc 0c75 51bd 5c5a 413d
00000280: c386 093e a169 423d 5fa6 653d f008 e23d
00000290: a670 d03d 56f5 57bd 76c9 23bd 7d74 623d
000002a0: 197a e7bc 08f1 6c3d b26a d1bc 2007 cbbd
000002b0: 2a3d aa3d 31fe 8f3d 109b 9a3c 32b5 293e
000002c0: 878b a13d 503f bc3d a7d3 a23c 57e2 0fbe
000002d0: d54a 82bd 7680 90bc 7e99 08be ed7f 82bd
000002e0: ea3c cdbd a1ed e6bd 61fb 91bd e9f0 11be
000002f0: f207 1ebd 5be0 523d e66b 713d 54f8 e9bc
00000300: dcce 20bd c3b0 783d 24f4 b6bd 662b 94bd
00000310: ee3f a03d f508 ebbd 10f7 f73c fbec 063e
00000320: f040 d03b e7c2 7d3d 6850 dabd 2144 c1bc
00000330: e835 083d 24ab 7e3d ebf8 2d3d 8f2a fb3d
00000340: b6f5 76bd d7e8 45bc 222f 4abd 09be 8bbd
00000350: 4296 e4ba 32cf f5bd c17a b43d 1333 943c
00000360: ce6e 67bd 8a28 6c3d f4ea 1cbe 0062 6ebd
00000370: c677 db3c 06e1 f7bd 8e58 e1bd 5761 e5bc
00000380: bff6 823d 1a57 df3d 84f1 e63d 1578 b1bd
00000390: 3c92 d8bd 9c82 973d 7672 4c3d 2632 ccbc
000003a0: 3ccb 613d cfcc aebd 1405 35bd a1ca a83d
000003b0: d3bf e2bc 46f3 41bc 880c ebbd 3301 75bd
000003c0: b8ff 053c 8037 68bd fc32 b4bc ef3e 9e3c
000003d0: 76dc d6bd 4660 a23c 48db e0bd 3f0e 34bd
000003e0: d85e 543d 20d1 a43d 679a 02bd b419 17bd
000003f0: 510c f0bd cc9a 94bd 47b3 13be 3443 1bbd

reaction_module.encoder.4.bias f4 [64]
-0.011837108 -0.0925088 0.10675762 0.07316416 -0.08693912 0.005490763 0.08726433 -0.08722557
-0.10700355 0.0632196 0.0010274887 0.05435137 -0.051844858 0.02297987 0.07331964 -0.012173202
-0.041212745 -0.12677231 -0.00956598 0.088456444 -0.1154277 -0.008876371 0.10139531 -0.02854399
-0.05338736 -0.040922377 -0.0539212 0.02040403 -0.1334562 0.034353692 -0.016577357 -0.02794316
0.02105266 0.07394156 -0.098259665 -0.09728936 -0.094997026 -0.07524528 -0.046211056 0.0952352
-0.10360959 -0.085202895 -0.07785745 -0.04476588 -0.018374147 -0.06409881 0.00448779 0.05080974
-0.015831117 0.046822827 0.031313688 0.13396634 -0.0024482608 0.0913871 0.07842024 0.041292027
0.050364815 -0.08358085 -0.06993359 0.064450994 0.0477857 0.10798798 -0.011431685 -0.016964879
00000000: 6ef0 41bc 4175 bdbd bda3 da3d 17d7 953d
00000010: 230d b2bd dceb b33b a4b7 b23d 52a3 b2bd
00000020: ad24 dbbd 4779 813d cdac 863a 8b9f 5e3d
00000030: 465b 54bd 4840 bc3c 9b28 963d 1c72 47bc
00000040: b2ce 28bd 9ad0 01be a1ba 1cbc a728 b53d
00000050: 5c65 ecbd 336e 11bc 58a8 cf3d 16d5 e9bc
00000060: b4ac 5abd 399e 27bd 7adc 5cbd 5a26 a73c
00000070: bea8 08be 75b6 0c3d 3dcd 87bc 0ee9 e4bc
00000080: a176 ac3c ac6e 973d 5d3c c9bd a53f c7bd
00000090: cd8d c2bd 331a 9abd ce47 3dbd ac0a c33d
000000a0: 4431 d4bd db7e aebd ba73 9fbd 6d5c 37bd
000000b0: 6185 96bc 3d46 83bd 500e 933b e01d 503d
000000c0: 42b0 81bc 4bc9 3f3d c842 003d 792e 093e
000000d0: 0073 20bb 2929 bb3d ca9a a03d d421 293d
000000e0: 564b 4e3d 702c abbd 5839 8fbd e2fe 833d
000000f0: f0ba 433d cd28 dd3d f64b 3bbc eef9 8abc

reaction_module.encoder.5.weight f4 [64]
1.0139527 1.0242245 1.0075784 1.0294577 0.989598 0.98672193 1.0033768 1.0228894
0.9904344 0.9681954 0.99528414 1.003744 0.99671596 0.99158245 0.9888898 1.017371
1.0330515 0.97936815 1.0095365 1.0054531 1.016259 1.0191201 1.0021498 1.0035964
1.0251666 0.9757403 1.0139632 0.9969344 1.0026492 0.9678205 1.017101 1.0045199
1.0239545 1.0021843 0.9872375 0.9869889 1.0058105 1.0274022 1.0160584 1.0107601
0.99997497 0.9955478 1.0545586 1.0265667 0.9678668 1.0117692 0.99245805 0.989023
1.0037673 0.9854283 0.987804 1.0001367 1.003664 0.9729674 1.0103747 1.0111823
0.9747405 0.9864421 1.0155494 1.000946 0.9976276 0.98258656 1.0263063 0.99229026
00000000: 34c9 813f ca19 833f 54f8 803f 45c5 833f
00000010: 4b56 7d3f cf99 7c3f a76e 803f 0aee 823f
00000020: 1c8d 7d3f a7db 773f f1ca 7e3f af7a 803f
00000030: c728 7f3f 59d8 7d3f e227 7d3f 3739 823f
00000040: 083b 843f dfb7 7a3f 7e38 813f b0b2 803f
00000050: c614 823f 8772 823f 7246 803f d975 803f
00000060: a938 833f 1eca 793f 8cc9 813f 1837 7f3f
00000070: cf56 803f 16c3 773f 5e30 823f 1c94 803f
00000080: f110 833f 9347 803f 99bb 7c3f 4eab 7c3f
00000090: 66be 803f ea81 833f 340e 823f 9660 813f
000000a0: 5cfe 7f3f 38dc 7e3f c7fb 863f 8a66 833f
000000b0: 1ec6 773f a781 813f bb11 7e3f 9c30 7d3f
000000c0: 727b 803f 0745 7c3f b9e0 7c3f 7b04 803f
000000d0: 1078 803f 6414 793f f553 813f 6c6e 813f
000000e0: 9888 793f 7887 7c3f 86fd 813f 001f 803f
000000f0: 8664 7f3f cb8a 7b3f 015e 833f bc06 7e3f

reaction_module.encoder.5.bias f4 [64]
0.01275508 0.029274259 0.006541708 -0.028387384 -0.011618774 -0.0064764638 0.007173187 0.026383534
-0.0036197559 0.00014675365 0.0004962281 0.014095156 -0.0058431183 -0.0029121658 -0.007092462 0.0242165
-0.0014173634 -0.01557775 0.012086166 0.011513251 0.002134379 0.0015443983 0.0056788335 0.0035432621
-0.025180696 -0.00040706486 -0.0019825136 0.001973322 -0.02095665 -0.01047894 0.014556123 -0.0111092245
0.026259588 0.0026978697 -0.02180306 0.007007326 -0.0047656144 0.015285124 0.017779041 -0.004031526
-0.007299581 -0.010958526 0.018606443 0.02101057 -0.01795708 0.026785802 0.004128965 0.009439268
0.012307057 -0.015589017 0.001007891 0.011477473 0.0016952825 -0.016934805 -0.03028987 -0.014999803
-0.016677963 -0.005497311 0.012116466 0.008270357 0.0024472286 -0.0049829264 0.0043697315 0.00027680484
00000000: affa 503c 92d0 ef3c d35b d63b a98c e8bc
00000010: ac5c 3ebc 8438 d4bb 0e0d eb3b 4822 d83c
00000020: 6d39 6dbb e2e1 1939 4e15 023a 5fef 663c
00000030: a177 bfbb 09da 3ebb e267 e8bb ae61 c63c
00000040: d3c6 b9ba d239 7fbc 0e05 463c 13a2 3c3c
00000050: f0e0 0b3b 686d ca3a 8215 ba3b 1336 683b
00000060: bf47 cebc 526b d5b9 0fed 01bb d952 013b
00000070: 48ad abbc dcaf 2bbc ce7c 6e3c 7703 36bc
00000080: 591e d73c bece 303b 559c b2bc b69d e53b
00000090: df28 9cbb 756e 7a3c 5aa5 913c e41a 84bb
000000a0: 5331 efbb 648b 33bc 8a6c 983c 5c1e ac3c
000000b0: ba1a 93bc e66d db3c 454c 873b 29a7 1a3c
000000c0: 8aa3 493c 1469 7fbc 361b 843a 030c 3c3c
000000d0: 3e34 de3a dcba 8abc 7622 f8bc bcc1 75bc
000000e0: 39a0 88bc c922 b4bb 2484 463c 6480 073c
000000f0: af61 203b d147 a3bb f72f 8f3b 1e20 9139

reaction_module.residual_mlp.0.weight f4 [64, 65]
0.06471438 -0.0011098066 0.088240445 -0.050048783 -0.04336593 0.0038443354 0.060633343 -0.14558634
-0.025352277 0.06891883 0.029650917 0.08350123 -0.04835338 -0.081962764 -0.10059508 -0.077462375
-0.04726659 0.062452916 0.040278822 -0.06914699 0.13589625 0.06697784 0.029116789 -0.07273036
0.10291301 -0.077433676 0.117944926 -0.078181155 0.04875195 -0.045163218 0.047922768 -0.10270978
-0.03588381 -0.050299406 -0.07162003 -0.058747467 -0.06659623 0.037027907 0.071592025 0.000741249
0.16587132 -0.034104906 -0.122007534 -0.028454537 -0.042677596 0.08597414 0.114884995 0.04824406
-0.11050199 -0.042723943 -0.036456063 -0.12718605 0.019487636 0.082495205 0.07050573 0.013309732
-0.018294942 -0.048744287 -0.05502664 0.093898155 -0.06882088 0.011445899 -0.09373691 -0.031889953
0.048147157 -0.12808657 0.071914986 -0.081542045 -0.021402396 0.07694324 0.09056463 -0.033307683
-0.10540662 -0.07448692 -0.006238131 -0.09142769 0.0665723 -0.10837289 0.03771993 0.009552258
-0.056269836 0.12063279 0.07457805 -0.025554622 -0.10488367 -0.020682141 0.06809293 0.08730619
-0.015117217 -0.03173898 -0.11300233 0.09671999 0.095075965 0.091979526 -0.045958944 0.071555175
-0.015424196 0.04768976 0.05698389 -0.11855072 0.04493462 0.032187816 -0.055466868 0.08913242
0.11738436 0.0740482 0.0070951646 -0.049321234 -0.10323426 0.028800476 0.010561262 0.1082908
0.108784616 -0.0073403046 -0.074022986 0.052146487 0.08593831 -0.04596869 -0.06735341 -0.00017430456
0.030791715 -0.116511784 0.033336136 0.04298714 -0.060534906 -0.07572983 -0.051080562 0.104086936
0.11154983 0.073100105 -0.004017826 0.045641672 0.1595302 0.031899687 -0.060910247 0.047606155
-0.039629925 0.00010870634 -0.09360907 -0.0005994339 0.015923852 -0.05859688 0.081246726 0.119348824
-0.09378495 0.010637884 -0.09486804 -0.044220228 0.03894533 0.014007178 0.050814122 -0.03189473
0.13059089 -0.054309957 0.010414352 0.053789616 0.09510817 0.019267607 0.07375812 0.019785747
0.09188282 -0.014670552 0.040233083 0.14167695 -0.019422526 -0.06804426 0.12205489 0.06048683
-0.109554246 0.0363899 -0.1128815 -0.069495164 0.10554741 0.07582417 -0.009000445 0.081774816
0.13127123 0.10465642 -0.09222842 -0.059523173 0.030648408 0.10535261 0.019625163 0.06263319
0.055226084 -0.06253141 -0.0496846 0.14970979 0.03182634 0.095186345 -0.09909234 0.0004504753
0.09210981 -0.023509052 0.09265245 -0.09588924 0.09238965 -0.023002047 -0.013597878 -0.07926156
-0.041470833 -0.09285761 -0.09412197 -0.032945674 -0.069523826 0.098877214 0.0042898376 0.10299963
-0.011448177 0.031114409 0.1366991 -0.066643156 -0.032434303 0.11995338 -0.020211501 -0.021020878
0.01579769 -0.058991566 0.008779747 -0.060174923 0.0226476 -0.01736777 -0.026606612 -0.035790157
0.022939978 0.07377576 -0.11323033 -0.07032616 -0.104349114 0.07097186 0.085185885 -0.13340029
0.03019693 0.031909443 -0.07311348 0.031055076 0.12560318 0.10635931 0.062360357 -0.007168076
-0.045667853 -0.045465507 0.015075058 -0.006172702 0.10050523 -0.13951176 0.007822769 -0.07035971
-0.020102765 0.104845434 0.009513377 -0.03382917 -0.052677114 -0.13137724 -0.10160591 0.057404865
00000000: f988 843d ee76 91ba 68b7 b43d f4ff 4cbd
00000010: 79a0 31bd 3ff1 7b3b ab5a 783d 9614 15be
00000020: 94af cfbc 5125 8d3d 7be6 f23c b102 ab3d
00000030: 320e 46bd 18dc a7bd cb04 cebd 98a4 9ebd
00000040: 9d9a 41bd a1ce 7f3d 68fb 243d f09c 8dbd
00000050: 6328 0b3e ae2b 893d 5586 ee3c a8f3 94bd
00000060: 0ec4 d23d 8c95 9ebd 1c8d f13d 711d a0bd
00000070: 20b0 473d 11fd 38bd aa4a 443d 8159 d2bd
00000080: e7fa 12bd c006 4ebd 86ad 92bd 2fa1 70bd
00000090: 9b63 88bd 93aa 173d d79e 923d 6150 423a
000000a0: 2cda 293e 96b1 0bbd 16df f9bd 7d19 e9bc
000000b0: b4ce 2ebd 3613 b03d d348 eb3d 909b 453d
000000c0: de4e e2bd 4dff 2ebd f452 15bd 0f3d 02be
000000d0: 89a4 9f3c 3ff3 a83d 4f65 903d 1011 5a3c
000000e0: 46df 95bc 17a8 47bd 9d63 61bd ad4d c03d
000000f0: f6f1 8cbd 9487 3b3c 23f9 bfbd 0a9f 02bd
00000100: f435 453d 2029 03be 2a48 933d 84ff a6bd
00000110: 1454 afbc 6b94 9d3d f379 b93d a36d 08bd
00000120: 6ddf d7bd 998c 98bd 3c69 ccbb 713e bbbd
00000130: 0f57 883d 9bf2 ddbd 3780 1a3d 1381 1c3c
00000140: 337b 66bd 530e f73d 60bc 983d ed57 d1bc
00000150: 40cd d6bd 986d a9bc 4e74 8b3d 96cd b23d
00000160: 34ae 77bc bc00 02bd c46d e7bd 2115 c63d
00000170: 30b7 c23d c35f bc3d 723f 3cbd 858b 923d
00000180: c4b5 7cbc 5656 433d f067 693d b8ca f2bd
00000190: 5d0d 383d 5fd7 033d 3a31 63bd 0f8b b63d
000001a0: 3667 f03d 95a6 973d 8e7e e83b 1005 4abd
000001b0: 7c6c d3bd faee eb3c 2509 2d3c 91c7 dd3d
000001c0: 78ca de3d f086 f0bb 5d99 97bd 8e97 553d
000001d0: 6d00 b03d aa49 3cbd 96f0 89bd 86c5 36b9
000001e0: e83e fc3c bb9d eebd 798b 083d 4913 303d
000001f0: 73f3 77bd 3e18 9bbd da39 51bd 882b d53d
00000200: 3d74 e43d 82b5 953d f8a7 83bb c3f2 3a3d
00000210: e25b 233e 3fa9 023d 067d 79bd acfe 423d
00000220: fd52 22bd 46f9 e338 1db6 bfbd 5423 1dba
00000230: bd72 823c 4803 70bd af64 a63d 286d f43d
00000240: 5312 c0bd 854a 2e3c 2d4a c2bd 4520 35bd
00000250: 2385 1f3d 5d7e 653c 7822 503d 0ca4 02bd
00000260: 9eb9 053e 1e74 5ebd f5a0 2a3c 8052 5c3d
00000270: 12c8 c23d 1ad7 9d3c 7f0e 973d b815 a23c
00000280: 0f2d bc3d c15c 70bc 72cb 243d c313 113e
00000290: fd1b 9fbc ca5a 8bbd eaf7 f93d 0ac1 773d
000002a0: fa5d e0bd 930d 153d 6a2e e7bd 7b53 8ebd
000002b0: 3e29 d83d b449 9b3d 9a76 13bc 8e79 a73d
000002c0: f76b 063e 1b56 d63d 41e2 bcbd 92ce 73bd
000002d0: 5f12 fb3c 1cc3 d73d f3c4 a03c d445 803d
000002e0: bf34 623d 7810 80bd 1482 4bbd 864d 193e
000002f0: 565c 023d 0ff1 c23d edf0 cabd c52d ec39
00000300: 11a4 bc3d 0e96 c0bc 91c0 bd3d 9461 c4bd
00000310: c936 bd3d ca6e bcbc a2c9 5ebc e353 a2bd
00000320: 52dd 29bd 212c bebd 05c3 c0bd 0bf2 06bd
00000330: 8262 8ebd 2380 ca3d c491 8c3b 78f1 d23d
00000340: 2291 3bbc a5e3 fe3c d9fa 0b3e 357c 88bd
00000350: d5d9 04bd 1eaa f53d 9792 a5bc fa33 acbc
00000360: 286a 813c 24a1 71bd eed8 0f3c fb79 76bd
00000370: 7687 b93c db46 8ebc 1cf6 d9bc b398 12bd
00000380: 9fec bb3c bf17 973d 4ee5 e7bd 2907 90bd
00000390: fdb4 d5bd b259 913d f075 ae3d 169a 08be
000003a0: 8d5f f73c 7ab3 023d 85bc 95bd 3767 fe3c
000003b0: 1f9e 003e e9d2 d93d 936d 7f3d 2ee2 eabb
000003c0: 370e 3bbd 0a3a 3abd 60fd 763c 6144 cabb
000003d0: b0d5 cd3d 2cdc 0ebe 122b 003c c018 90bd
000003e0: 8eae a4bc 34b9 d63d ffdd 1b3c 7590 0abd
000003f0: f5c3 57bd c187 06be c216 d0bd 5d21 6b3d

reaction_module.residual_mlp.0.bias f4 [64]
-0.12640962 -0.06714693 -0.05056734 0.075926475 0.03009109 -0.09715144 0.111307375 -0.049834915
-0.014550064 0.040540796 -0.09715556 0.0066639897 -0.044841886 -0.024669375 -0.016087266 0.102256805
-0.06783371 -0.093048014 0.050156232 0.044757374 -0.017094448 0.03364108 0.13556989 -0.030850556
-0.12569535 -0.1099821 0.016375264 0.02628658 0.029695919 -0.10801723 -0.083820745 -0.091572985
0.07058276 0.01694961 -0.08445039 -0.12634243 0.081508785 -0.001380827 0.13465112 -0.109444834
-0.10135574 0.034102507 0.072096474 0.09392559 0.10766417 0.07015581 0.07377354 -0.087816074
0.13721995 -0.06078245 0.08025755 0.047490347 -0.08304828 -0.015412011 0.02069607 0.102257565
0.09007201 0.04188374 -0.08099891 0.050445717 0.10819919 -0.074242644 0.07415745 0.035219457
00000000: 8671 01be 5484 89bd b31f 4fbd 577f 9b3d
00000010: 9781 f63c 56f7 c6bd 1ff5 e33d b21f 4cbd
00000020: 6463 6ebc 1b0e 263d 7ff9 c6bd 995d da3b
00000030: 20ac 37bd 6e17 cabc 71c9 83bc 046c d13d
00000040: 66ec 8abd f58f bebd 9f70 4d3d 8253 373d
00000050: a809 8cbc 3bcb 093d d5d2 0a3e 4eba fcbc
00000060: 48b6 00be 4c3e e1bd 6b25 863c f456 d73c
00000070: db44 f33c 2338 ddbd 36aa abbd 9e8a bbbd
00000080: b28d 903d e9d9 8a3c 53f4 acbd e95f 01be
00000090: 14ee a63d defc b4ba fce1 093e 9d24 e0bd
000000a0: 9993 cfbd 12af 0b3d 51a7 933d 0f5c c03d
000000b0: 087f dc3d d9ad 8f3d 9516 973d ead8 b3bd
000000c0: 6383 0c3e 05f7 78bd 125e a43d 3d85 423d
000000d0: 3715 aabd a982 7cbc ce8a a93c 6a6c d13d
000000e0: ad77 b83d 498e 2b3d c2e2 a5bd 2ba0 4e3d
000000f0: 8997 dd3d 870c 98bd dcdf 973d 4742 103d

reaction_module.residual_mlp.1.weight f4 [64]
1.051397 0.9770965 1.0069634 0.9790073 1.0351918 0.99191254 0.99911577 0.98242337
1.0322775 0.9839261 0.9893364 1.0099748 0.9815164 1.0397435 1.0300379 1.0169053
1.0025493 0.9537406 0.97165227 1.002753 0.985553 0.9802214 1.0014969 0.9778416
0.9826458 1.026112 1.0190723 0.9957965 1.0095445 0.9795533 0.9821456 0.97866046
0.98033315 1.0109408 1.0233115 1.0299753 0.9944014 0.9960139 0.97969913 1.0283166
0.9691816 0.9965692 0.99255306 0.99970865 0.99237746 1.0600387 1.014033 0.9883927
1.0091573 1.0113685 1.0145934 0.9890153 1.0461208 0.9969144 1.01618 0.9974456
0.96086264 1.0069563 0.9828948 1.0151674 0.9868618 0.9751094 1.0032222 0.972026
00000000: 2d94 863f ff22 7a3f 2de4 803f 39a0 7a3f
00000010: 2a81 843f fbed 7d3f 0dc6 7f3f 1980 7b3f
00000020: ab21 843f 95e2 7b3f 2645 7d3f db46 813f
00000030: a944 7b3f 5116 853f 48d8 833f f429 823f
00000040: 8953 803f 5828 743f 34be 783f 365a 803f
00000050: 344d 7c3f caef 7a3f 0d31 803f d453 7a3f
00000060: ad8e 7b3f a357 833f f670 823f 85ec 7e3f
00000070: c138 813f 01c4 7a3f e56d 7b3f 7e89 7a3f
00000080: 1df7 7a3f 8266 813f dffb 823f 3bd6 833f
00000090: 1791 7e3f c4fa 7e3f 90cd 7a3f e19f 833f
000000a0: 491c 783f 291f 7f3f f517 7e3f e8ec 7f3f
000000b0: 730c 7e3f 59af 873f d5cb 813f 4e07 7d3f
000000c0: 112c 813f 8674 813f 32de 813f 1b30 7d3f
000000d0: 49e7 853f c835 7f3f 3012 823f 9858 7f3f
000000e0: 18fb 753f f2e3 803f fe9e 7b3f 01f1 813f
000000f0: faa2 7c3f c5a0 793f 9669 803f b2d6 783f

reaction_module.residual_mlp.1.bias f4 [64]
-0.004375288 -0.027953168 0.0075149657 0.011366876 0.025464773 -0.01833045 0.0065035876 -0.0009778341
0.0011916723 -0.006223665 -0.014941009 0.013157642 0.007159193 0.0064711864 0.02283802 0.021238068
-0.009138144 -0.009793528 -0.0121824 0.020990547 -0.020281224 0.015905587 0.011753441 0.003424179
-0.020844452 0.015483103 -0.040408146 -0.023831578 0.016188385 -0.010757665 0.007938885 -0.015681205
-0.0134810675 -0.0032341215 -0.0155822765 -0.011517498 0.009223228 0.0003752914 0.0072409273 -0.00851127
-0.018461432 0.022294862 -0.016349 0.006848584 -0.01899157 0.004591811 0.021277389 -0.018263377
0.015553981 -0.0085328 0.0033237864 0.00083907234 -0.0118577145 -0.016628552 0.023560487 0.0012876753
-0.009148684 0.012046723 -0.015031071 0.011821358 0.003138154 -0.018173479 -0.02757618 0.016801376
00000000: 935e 8fbb 0bfe e4bc 1a40 f63b 223c 3a3c
00000010: 809b d03c bd29 96bc 0c1c d53b ab2a 80ba
00000020: e331 9c3a e3ef cbbb 22cb 74bc 2793 573c
00000030: aa97 ea3b 3f0c d43b cd16 bb3c 75fb ad3c
00000040: 27b8 15bc 0975 20bc b098 47bc 5ef4 ab3c
00000050: cf24 a6bc 6f4c 823c 8191 403c 3168 603b
00000060: fcc1 aabc d7ac 7d3c 0383 25bd 713a c3bc
00000070: 819d 843c eb40 30bc 1912 023c df75 80bc
00000080: b2df 5cbc 8ef3 53bb ce4c 7fbc e3b3 3cbc
00000090: 061d 173c c2c2 c439 4d45 ed3b db72 0bbc
000000a0: 6e3c 97bc b7a3 b63c 57ee 85bc 166a e03b
000000b0: 3694 9bbc e776 963b eb4d ae3c 149d 95bc
000000c0: 20d6 7e3c 28cd 0bbc e2d3 593b 31f5 5b3a
000000d0: dc46 42bc 9a38 88bc ec01 c13c 37c7 a83a
000000e0: 5de4 15bc 9e5f 453c e244 76bc 5fae 413c
000000f0: 7da9 4d3b 8ce0 94bc 71e7 e1bc 0aa3 893c

reaction_module.residual_mlp.4.weight f4 [64, 64]
0.012552699 0.047245566 0.10025708 -0.12622392 0.08142769 -0.13210185 0.023252891 0.116771206
-0.15658921 -0.06988556 -0.07239037 0.033196256 -0.05252688 -0.1395918 0.04225241 -0.0025880393
-0.053836413 -0.0141971065 0.064051315 -0.013230698 -0.07371177 0.12030148 0.045416042 -0.037798904
0.11759476 -0.015684748 0.03732419 0.074514195 0.011233812 0.12046991 0.019587917 0.09884523
0.038020253 0.022984015 0.034182932 -0.09833666 0.13943394 -0.017363047 0.06269852 -0.083742745
-0.065710835 0.03897521 -0.102972165 0.03858546 0.10271972 -0.15826121 0.023517987 -0.008562938
0.10371359 -0.06483472 -0.17190386 -0.070483424 0.041624673 -0.11507055 -0.060163986 0.024553137
0.025425712 -0.04796867 -0.06462719 0.103500955 -0.06101208 -0.12800924 -0.0701013 0.078724965
-0.033280022 -0.08276319 -0.100593016 -0.025371177 0.090408996 0.048186097 -0.043302912 -0.113466606
-0.04510957 0.015652282 0.09901604 0.051916618 -0.0007479607 0.065263316 -0.043872613 0.018234087
0.051953014 -0.03707029 0.033050172 0.009390461 0.030694881 -0.04100635 0.07127142 -0.089116365
0.08101796 -0.10133746 -0.077479064 -0.073402084 -0.03855775 -0.030423699 -0.11843366 0.08350296
0.02609412 0.12049009 -0.077300206 -0.08422977 0.024537014 0.10774247 0.07742094 0.029327484
0.0154938055 0.07053571 -0.051117897 -0.12719637 -0.14133346 -0.09703712 0.03453515 0.1226464
0.0779989 -0.07323704 0.029109066 0.10604414 -0.02607528 -0.019531773 -0.08014024 -0.010155049
0.080110185 -0.035780754 -0.007260688 0.05451162 -0.04775662 -0.060601972 0.013047337 0.09003562
0.041058134 -0.0098131085 -0.057743296 0.088283494 -0.0044834744 -0.04678397 -0.08925236 -0.057590798
-0.110742256 0.02799703 0.09827472 -0.017736275 0.075463496 -0.0066078603 -0.032265127 -0.12137056
-0.09736634 0.099015184 0.059170224 0.13135374 -0.033579443 0.05177928 -0.03675378 0.118584566
-0.09641657 -0.037631996 -0.11696779 -0.003472566 -0.07026281 -0.09254429 0.039328575 0.10757215
0.09049855 0.10571315 -0.010688359 0.018321099 -0.11539517 0.08253833 0.017439838 0.097086556
-0.09883569 0.008286266 -0.062502265 -0.09357595 -0.06925055 0.059631884 0.06638308 0.05046965
-0.057460785 0.05903884 0.14075531 0.008236171 -0.061753698 -0.09275728 0.08731968 -0.03398065
-0.093859665 0.057280328 0.019624604 -0.053926043 -0.13673311 0.008257749 -0.022945782 -0.0117534585
-0.08107267 0.10516336 0.08729796 0.08388157 0.06613868 0.01751655 0.14357303 0.018307097
0.031091448 0.06828527 -0.1356884 0.10661153 -0.037487064 -0.11525503 0.10867025 -0.07737225
0.057117037 -0.1123586 -0.015391983 -0.14439777 0.101093784 0.06406127 0.12345185 0.041852124
-0.051328275 -0.013646907 0.06356746 -0.09998057 -0.08003673 -0.015624119 -0.060938105 -0.01820735
0.13540356 0.034563098 -0.13532811 -0.09723732 0.12587628 -0.030585459 -0.03909506 0.036835264
-0.04073478 -0.0021090906 -0.01740313 0.0845252 0.06381093 0.014391884 0.058398284 -0.056404527
-0.10001439 -0.027690003 -0.13603197 -0.10411505 -0.09864261 -0.049314138 -0.055565007 0.043439295
0.052633397 0.093971185 -0.13049857 0.13077109 0.054524187 0.08190453 0.022817833 0.0045954236
00000000: d6a9 4d3c 9184 413d 9553 cd3d d840 01be
00000010: 90c3 a63d b545 07be d97c be3c be25 ef3d
00000020: ec58 20be 2920 8fbd 6741 94bd ccf8 073d
00000030: 6d26 57bd 27f1 0ebe dd10 2d3d 189c 29bb
00000040: 9283 5cbd fb9a 68bc 562d 833d 92c5 58bc
00000050: 32f6 96bd 9f60 f63d 2c06 3a3d 06d3 1abd
00000060: 86d5 f03d 4d7d 80bc 40e1 183d e69a 983d
00000070: 060e 383c eeb8 f63d d776 a03c 5e6f ca3d
00000080: 20bb 1b3d f948 bc3c 6703 0c3d bb64 c9bd
00000090: c5c7 0e3e f33c 8ebc 1568 803d 5181 abbd
000000a0: 6793 86bd 78a4 1f3d 12e3 d2bd ca0b 1e3d
000000b0: b75e d23d 3a0f 22be cba8 c03c 914b 0cbc
000000c0: ca67 d43d 11c8 84bd 9107 30be 9d59 90bd
000000d0: a27e 2a3d 1caa ebbd 836e 76bd a923 c93c
000000e0: 9549 d03c cc7a 44bd 435b 84bd 4ff8 d33d
000000f0: cee7 79bd db14 03be 4591 8fbd 8e3a a13d
00000100: a250 08bd bf7f a9bd b603 cebd 37d7 cfbc
00000110: 5a28 b93d c95e 453d 655e 31bd 2e61 e8bd
00000120: d0c4 38bd 3739 803c ecc8 ca3d 85a6 543d
00000130: cb12 44ba c6a8 853d c5b3 33bd a75f 953c
00000140: afcc 543d 04d7 17bd 9e5f 073d 73da 193c
00000150: d573 fb3c 46f6 27bd c0f6 913d a482 b6bd
00000160: bfec a53d 048a cfbd 58ad 9ebd d553 96bd
00000170: bbee 1dbd 1f3b f9bc 598d f2bd 9a03 ab3d
00000180: 56c3 d53c 82c3 f63d 924f 9ebd a880 acbd
00000190: d901 c93c 16a8 dc3d df8e 9e3d 3140 f03c
000001a0: bbd9 7d3c 0775 903d 0061 51bd c43f 02be
000001b0: b8b9 10be 66bb c6bd bb74 0d3d 092e fb3d
000001c0: e3bd 9f3d 4dfd 95bd 2376 ee3c ac2d d93d
000001d0: d39b d5bc 1901 a0bc 9120 a4bd 5d61 26bc
000001e0: cf10 a43d d78e 12bd 11eb edbb 9447 5f3d
000001f0: 729c 43bd c639 78bd 7fc4 553c 9864 b83d
00000200: 932c 283d 29c7 20bc 3c84 6cbd facd b43d
00000210: 1cea 92bb 8ca0 3fbd f1c9 b6bd 54e4 6bbd
00000220: d6cc e2bd 075a e53c 4244 c93d aa4b 91bc
00000230: 9b8c 9a3d c086 d8bb 7028 04bd 2191 f8bd
00000240: 0168 c7bd 79c8 ca3d 7a5c 723d 9881 063e
00000250: 998a 09bd 8316 543d 228b 16bd 77dc f23d
00000260: 0d76 c5bd 0224 1abd cf8c efbd fd93 63bb
00000270: f3e5 8fbd dc87 bdbd 0017 213d ca4e dc3d
00000280: 4e57 b93d 2380 d83d 3a1e 2fbc 2116 963c
00000290: 4e54 ecbd db09 a93d fedd 8e3c 51d5 c63d
000002a0: 5e6a cabd 1ec3 073c 3001 80bd bfa4 bfbd
000002b0: 3bd3 8dbd 9040 743d daf3 873d 44b9 4e3d
000002c0: 005c 6bbd b6d2 713d 2922 103e 01f1 063c
000002d0: 72f1 7cbd 87f7 bdbd a9d4 b23d 4b2f 0bbd
000002e0: 7f39 c0bd c79e 6a3d c7c3 a03c 8ee1 5cbd
000002f0: c403 0cbe 824b 073c cbf8 bbbc 9491 40bc
00000300: 6e09 a6bd e35f d73d 46c9 b23d 1aca ab3d
00000310: b773 873d de7e 8f3c cf04 133e c4f8 953c
00000320: 7eb3 fe3c 26d9 8b3d e6f1 0abe 2557 da3d
00000330: 098c 19bd d40a ecbd 828e de3d 5875 9ebd
00000340: 8ef3 693d 441c e6bd a82e 7cbc 02dd 13be
00000350: 420a cf3d 8e32 833d 53d4 fc3d 226d 2b3d
00000360: 993d 52bd 4797 5fbc a82f 823d 9dc2 ccbd
00000370: 4cea a3bd 4efc 7fbc 3c9a 79bd 9527 95bc
00000380: 3ba7 0a3e 0992 0d3d 7493 0abe 5c24 c7bd
00000390: b6e5 003e 5b8e fabc 2422 20bd 93e0 163d
000003a0: 83d9 26bd ab38 0abb 0291 8ebc 8c1b ad3d
000003b0: 4eaf 823d f0cb 6b3c 0a33 6f3d 6f08 67bd
000003c0: 58d4 ccbd 25d6 e2bc f74b 0bbe 453a d5bd
000003d0: 2305 cabd 9ffd 49bd 2298 63bd 67ed 313d
000003e0: 1e96 573d f773 c03d 6ba1 05be dbe8 053e
000003f0: c154 5f3d 90bd a73d 77ec ba3c 3595 963b

reaction_module.residual_mlp.4.bias f4 [64]
0.07386768 0.032305937 0.08904642 -0.021250276 -0.019201482 -0.08317326 0.06733456 -0.0392877
-0.0033810576 0.1130674 -0.020545129 -0.059640434 -0.06312398 0.07427672 0.016861135 -0.048280835
0.10745407 0.07285125 -0.03194828 0.031876877 -0.106397636 -0.06586022 -0.056255855 0.070095845
-0.031423118 0.073741004 -0.1191818 0.075250074 -0.13217086 -0.030687511 0.1424803 -0.03505714
-0.0287875 0.05027119 -0.048406392 0.007866657 -0.046113133 0.028169071 -0.08632352 -0.06826095
-0.057009704 0.0045247935 0.0957835 0.04043891 -0.102924384 0.06099844 0.11434083 0.13019067
0.04792049 0.07397922 0.070115775 0.100789085 -0.0033817254 0.00819728 0.10345911 -0.046965666
0.07482498 0.086805 0.032134436 -0.09333122 0.07355644 0.050563563 0.010063953 0.060934525
00000000: f047 973d 3b53 043d f85d b63d 0f15 aebc
00000010: 6d4c 9dbc be56 aabd b4e6 893d 24ec 20bd
00000020: bc94 5dbb e28f e73d 424e a8bc 8749 74bd
00000030: 2547 81bd 651e 983d 5d20 8a3c 20c2 45bd
00000040: e110 dc3d 0933 953d 33dc 02bd 5491 023d
00000050: 01e7 d9bd b9e1 86bd 8a6c 66bd 698e 8f3d
00000060: 87b5 00bd 8605 973d 9615 f4bd b61c 9a3d
00000070: cc57 07be 6064 fbbc 5be6 113e 1398 0fbd
00000080: c3d3 ebbc 2ae9 4d3d c845 46bd 27e3 003c
00000090: 20e1 3cbd d3c2 e63c 63ca b0bd 66cc 8bbd
000000a0: 0283 69bd b844 943b 242a c43d 45a3 253d
000000b0: 05ca d2bd 80d9 793d 862b ea3d b450 053e
000000c0: 4748 443d 6b82 973d dc98 8f3d 826a ce3d
000000d0: f09f 5dbb e24d 063c 5fe2 d33d 125f 40bd
000000e0: d73d 993d d2c6 b13d 669f 033d 7024 bfbd
000000f0: c2a4 963d bd1b 4f3d 47e3 243c 7b96 793d

reaction_module.residual_mlp.5.weight f4 [64]
1.0468059 1.0102298 1.0013692 1.0466627 1.0454578 0.9850839 1.0086157 1.0144156
1.0010599 1.0591199 0.98560923 1.0009805 1.0117859 1.0534712 1.022037 1.0136493
1.0432405 1.0366101 0.9737665 1.0522114 1.0090799 1.0537742 0.99206895 1.0134621
1.0194743 1.0245761 0.98460144 1.0225805 0.9927254 0.9832737 1.0480406 0.9600634
1.0471867 1.0061866 1.0518886 1.0194994 1.0023892 0.984407 0.98999465 0.9862561
1.0130111 1.0463625 1.0019758 1.0244484 0.9990517 0.96183634 1.0481418 1.0322582
1.0562394 1.0508552 0.99530673 1.0024931 1.008252 1.0385082 1.0226777 0.97823286
1.0071915 1.04365 0.9963961 0.9796357 1.0212812 0.9978199 0.97932637 1.0657085
00000000: bcfd 853f 364f 813f de2c 803f 0bf9 853f
00000010: 90d1 853f 752e 7c3f 521a 813f 5fd8 813f
00000020: bb22 803f 3e91 873f e350 7c3f 2120 803f
00000030: 3382 813f 25d8 863f 1cd2 823f 43bf 813f
00000040: e888 853f a4af 843f c348 793f ddae 863f
00000050: 8829 813f 13e2 863f 3bf8 7d3f 20b9 813f
00000060: 227e 823f 4f25 833f d70e 7c3f ebe3 823f
00000070: 4023 7e3f d3b7 7b3f 3226 863f b7c6 753f
00000080: 370a 863f b9ca 803f 49a4 863f f57e 823f
00000090: 4a4e 803f 1902 7c3f 4a70 7d3f 487b 7c3f
000000a0: 59aa 813f 35ef 853f be40 803f 2021 833f
000000b0: dac1 7f3f e83a 763f 8329 863f 0921 843f
000000c0: da32 873f 6c82 863f 6ccc 7e3f b251 803f
000000d0: 670e 813f d6ed 843f 1ae7 823f 786d 7a3f
000000e0: a7eb 803f 5396 853f d113 7f3f 68c9 7a3f
000000f0: 58b9 823f 2071 7f3f 22b5 7a3f 2369 883f

reaction_module.residual_mlp.5.bias f4 [64]
0.045234684 0.019858355 -0.023460425 0.04130528 0.04712795 -0.016563594 0.01874826 0.031261805
0.02053699 0.04757319 -0.0053134453 0.029825455 0.02639427 0.051273476 -0.0024224676 0.0022007802
0.043371733 0.046438415 -0.01614843 0.048496578 0.04247192 0.04586542 -0.019980378 0.0008971132
0.03560818 0.0060451827 -0.022436768 -0.01383669 -0.018494522 -0.00900878 0.046047445 -0.012131912
0.05098543 0.052609507 0.043083735 -0.01740224 -0.024680732 -0.01466201 -0.038455673 -0.025579453
0.020277748 0.04598656 -0.02736992 -0.026196435 -0.008584119 -0.015693543 0.00795748 0.042023048
0.04937699 0.04815887 -0.021135977 0.008299087 -0.016317515 0.04752069 -0.010739527 -0.031467404
0.015577683 -0.009381291 -0.012799743 -0.01605768 0.032887757 0.019935565 -0.02418393 0.053776912
00000000: 0148 393d fdad a23c 1430 c0bc ba2f 293d
00000010: 3d09 413d 60b0 87bc f395 993c 610c 003d
00000020: 313d a83c 1bdc 423d 691c aebb 8354 f43c
00000030: cc38 d83c 2304 523d 43c2 1ebb f73a 103b
00000040: 8fa6 313d 3536 3e3d b649 84bc 59a4 463d
00000050: 09f7 2d3d 61dd 3b3d e4ad a3bc 3f2c 6b3a
00000060: e2d9 113d ab16 c63b 50cd b7bc 49b3 62bc
00000070: d381 97bc 9099 13bc 3f9c 3c3d edc4 46bc
00000080: 19d6 503d 117d 573d 9278 303d 248f 8ebc
00000090: 3f2f cabc ed38 70bc b283 1dbd 008c d1bc
000000a0: 851d a63c 675c 3c3d e236 e0bc e899 d6bc
000000b0: 68a4 0cbc bf8f 80bc 1760 023c 5c20 2c3d
000000c0: 873f 4a3d 3c42 453d 5b25 adbc e5f8 073c
000000d0: 4fac 85bc 0ea5 423d d7f4 2fbc f7e3 00bd
000000e0: 8a39 7f3c fdb3 19bc 03b6 51bc 658b 83bc
000000f0: 50b5 063d e94f a33c 611d c6bc 2e45 5c3d
