generalizability/epidemiology/checkpoints_v2/checkpoint_epoch_20.pt (torch, 492712 bytes, 94 tensors)

graph_laplacian.laplacian f4 [200, 200]
0	0xbc05340a	-0.008130083
1	0xbc053409	-0.008130082
2	0x80000000	-0.0
3	0x80000000	-0.0
4	0xbc053409	-0.008130082
5	0xbc053409	-0.008130082
6	0xbc053409	-0.008130082
7	0x80000000	-0.0
8	0xbc053409	-0.008130082
9	0xbc053409	-0.008130082
10	0xbc053409	-0.008130082
11	0xbc053409	-0.008130082
12	0xbc053409	-0.008130082
13	0x80000000	-0.0
14	0xbc053409	-0.008130082
15	0xbc053409	-0.008130082
16	0x80000000	-0.0
17	0xbc053409	-0.008130082
18	0x80000000	-0.0
19	0x80000000	-0.0
20	0x80000000	-0.0
21	0xbc053408	-0.008130081
22	0xbc053409	-0.008130082
23	0xbc053408	-0.008130081
24	0xbc053409	-0.008130082
25	0xbc053409	-0.008130082
26	0xbc053409	-0.008130082
27	0xbc053409	-0.008130082
28	0x80000000	-0.0
29	0xbc053408	-0.008130081
30	0xbc053409	-0.008130082
31	0xbc053409	-0.008130082
32	0x80000000	-0.0
33	0xbc053409	-0.008130082
34	0xbc053409	-0.008130082
35	0xbc053409	-0.008130082
36	0xbc053409	-0.008130082
37	0x80000000	-0.0
38	0xbc053409	-0.008130082
39	0xbc053409	-0.008130082
40	0xbc05340a	-0.008130083
41	0xbc053409	-0.008130082
42	0x80000000	-0.0
43	0xbc053409	-0.008130082
44	0x80000000	-0.0
45	0xbc053409	-0.008130082
46	0xbc053409	-0.008130082
47	0xbc053409	-0.008130082
48	0xbc053409	-0.008130082
49	0xbc053409	-0.008130082
50	0xbc053409	-0.008130082
51	0xbc053409	-0.008130082
52	0x80000000	-0.0
53	0x80000000	-0.0
54	0xbc053409	-0.008130082
55	0xbc05340a	-0.008130083
56	0x80000000	-0.0
57	0x80000000	-0.0
58	0xbc053409	-0.008130082
59	0xbc053409	-0.008130082
60	0xbc053409	-0.008130082
61	0xbc053409	-0.008130082
62	0xbc053409	-0.008130082
63	0x80000000	-0.0
64	0xbc053409	-0.008130082
65	0x80000000	-0.0
66	0xbc053408	-0.008130081
67	0x80000000	-0.0
68	0x80000000	-0.0
69	0x80000000	-0.0
70	0xbc053409	-0.008130082
71	0xbc053409	-0.008130082
72	0xbc053409	-0.008130082
73	0xbc053409	-0.008130082
74	0xbc053409	-0.008130082
75	0xbc05340a	-0.008130083
76	0xbc053409	-0.008130082
77	0xbc053408	-0.008130081
78	0xbc053409	-0.008130082
79	0xbc053409	-0.008130082
80	0xbc053409	-0.008130082
81	0xbc05340a	-0.008130083
82	0xbc053409	-0.008130082
83	0xbc053409	-0.008130082
84	0x80000000	-0.0
85	0x80000000	-0.0
86	0xbc053409	-0.008130082
87	0x80000000	-0.0
88	0x80000000	-0.0
89	0x80000000	-0.0
90	0xbc053409	-0.008130082
91	0xbc05340a	-0.008130083
92	0x80000000	-0.0
93	0xbc053409	-0.008130082
94	0xbc053409	-0.008130082
95	0xbc053409	-0.008130082
96	0xbc053409	-0.008130082
97	0x80000000	-0.0
98	0x80000000	-0.0
99	0xbc053409	-0.008130082
100	0xbc053409	-0.008130082
101	0xbc053409	-0.008130082
102	0x80000000	-0.0
103	0x80000000	-0.0
104	0xbc053409	-0.008130082
105	0x80000000	-0.0
106	0xbc053409	-0.008130082
107	0x80000000	-0.0
108	0xbc053409	-0.008130082
109	0xbc053409	-0.008130082
110	0xbc053409	-0.008130082
111	0xbc053409	-0.008130082
112	0xbc053409	-0.008130082
113	0x80000000	-0.0
114	0x80000000	-0.0
115	0x80000000	-0.0
116	0xbc053409	-0.008130082
117	0x80000000	-0.0
118	0x80000000	-0.0
119	0xbc053408	-0.008130081
120	0xbc05340a	-0.008130083
121	0xbc05340a	-0.008130083
122	0x80000000	-0.0
123	0xbc053409	-0.008130082
124	0xbc053409	-0.008130082
125	0xbc053409	-0.008130082
126	0xbc053409	-0.008130082
127	0x80000000	-0.0
128	0x80000000	-0.0
129	0xbc053409	-0.008130082
130	0x80000000	-0.0
131	0xbc053409	-0.008130082
132	0x80000000	-0.0
133	0xbc053409	-0.008130082
134	0xbc053409	-0.008130082
135	0x80000000	-0.0
136	0xbc053409	-0.008130082
137	0xbc053409	-0.008130082
138	0x80000000	-0.0
139	0x80000000	-0.0
140	0x80000000	-0.0
141	0x80000000	-0.0
142	0x80000000	-0.0
143	0xbc053409	-0.008130082
144	0xbc053409	-0.008130082
145	0xbc053408	-0.008130081
146	0xbc053409	-0.008130082
147	0x80000000	-0.0
148	0x80000000	-0.0
149	0xbc05340a	-0.008130083
150	0x80000000	-0.0
151	0xbc053409	-0.008130082
152	0xbc053409	-0.008130082
153	0x80000000	-0.0
154	0x80000000	-0.0
155	0x80000000	-0.0
156	0xbc053409	-0.008130082
157	0x80000000	-0.0
158	0xbc05340a	-0.008130083
159	0xbc053409	-0.008130082
160	0x80000000	-0.0
161	0xbc053409	-0.008130082
162	0x80000000	-0.0
163	0xbc053409	-0.008130082
164	0x80000000	-0.0
165	0x80000000	-0.0
166	0x80000000	-0.0
167	0x80000000	-0.0
168	0xbc05340a	-0.008130083
169	0x80000000	-0.0
170	0xbc053409	-0.008130082
171	0x80000000	-0.0
172	0x80000000	-0.0
173	0x80000000	-0.0
174	0x80000000	-0.0
175	0xbc053409	-0.008130082
176	0xbc053408	-0.008130081
177	0xbc053409	-0.008130082
178	0xbc053409	-0.008130082
179	0x80000000	-0.0
180	0xbc053409	-0.008130082
181	0xbc053408	-0.008130081
182	0xbc053409	-0.008130082
183	0xbc053409	-0.008130082
184	0x80000000	-0.0
185	0xbc053409	-0.008130082
186	0x80000000	-0.0
187	0x80000000	-0.0
188	0xbc053409	-0.008130082
189	0xbc05340a	-0.008130083
190	0xbc053409	-0.008130082
191	0xbc053409	-0.008130082
192	0xbc053409	-0.008130082
193	0x80000000	-0.0
194	0xbc05340a	-0.008130083
195	0x80000000	-0.0
196	0x80000000	-0.0
197	0x80000000	-0.0
198	0x80000000	-0.0
199	0xbc053409	-0.008130082
200	0xbc1f1167	-0.009708739
201	0xbc1f1166	-0.009708738
202	0x80000000	-0.0
203	0x80000000	-0.0
204	0xbc1f1166	-0.009708738
205	0x80000000	-0.0
206	0xbc1f1166	-0.009708738
207	0x80000000	-0.0
208	0xbc1f1166	-0.009708738
209	0xbc1f1166	-0.009708738
210	0xbc1f1166	-0.009708738
211	0xbc1f1166	-0.009708738
212	0xbc1f1166	-0.009708738
213	0xbc1f1166	-0.009708738
214	0xbc1f1166	-0.009708738
215	0x80000000	-0.0
216	0x80000000	-0.0
217	0xbc1f1166	-0.009708738
218	0x80000000	-0.0
219	0x80000000	-0.0
220	0x80000000	-0.0
221	0xbc1f1165	-0.009708737
222	0xbc1f1166	-0.009708738
223	0xbc1f1165	-0.009708737
224	0xbc1f1166	-0.009708738
225	0xbc1f1166	-0.009708738
226	0x80000000	-0.0
227	0xbc1f1166	-0.009708738
228	0x80000000	-0.0
229	0xbc1f1165	-0.009708737
230	0x80000000	-0.0
231	0xbc1f1166	-0.009708738
232	0x80000000	-0.0
233	0x80000000	-0.0
234	0xbc1f1166	-0.009708738
235	0xbc1f1166	-0.009708738
236	0x80000000	-0.0
237	0x80000000	-0.0
238	0xbc1f1166	-0.009708738
239	0xbc1f1166	-0.009708738
240	0xbc1f1167	-0.009708739
241	0xbc1f1166	-0.009708738
242	0x80000000	-0.0
243	0xbc1f1166	-0.009708738
244	0x80000000	-0.0
245	0xbc1f1166	-0.009708738
246	0xbc1f1166	-0.009708738
247	0xbc1f1166	-0.009708738
248	0xbc1f1166	-0.009708738
249	0xbc1f1166	-0.009708738
250	0xbc1f1166	-0.009708738
251	0x80000000	-0.0
252	0x80000000	-0.0
253	0x80000000	-0.0
254	0xbc1f1166	-0.009708738
255	0xbc1f1167	-0.009708739

reaction_module.encoder.0.weight f4 [64, 5]
0	0x3ea30c9d	0.3184556
1	0x3eb73272	0.35780674
2	0xbde085d9	-0.109630294
3	0x3ec68429	0.38772705
4	0xbe0e8936	-0.1391953
5	0x3d8a78d3	0.06761327
6	0xbe663d55	-0.22484334
7	0x3e6f05c5	0.23342045
8	0x3eb4c446	0.35305995
9	0xbebadb6c	-0.3649553
10	0x3eae97af	0.341001
11	0x3d46fc51	0.04858047
12	0x3e8f832a	0.28029758
13	0x3cbcc7fc	0.023044579
14	0x3e868de2	0.26280123
15	0xbd59490c	-0.05304818
16	0x3eb468ca	0.35236198
17	0x3db3e685	0.087842025
18	0xbe4f2559	-0.20229091
19	0x3e58ba80	0.21164894
20	0xbdb86c3d	-0.0900502
21	0x3a4d4f27	0.0007831924
22	0xbddc55a7	-0.107585244
23	0x3e894859	0.2681301
24	0xbec768d5	-0.38947168
25	0xbe1cd394	-0.15315086
26	0xbd7ff4d3	-0.062489342
27	0xbe6a48d6	-0.22879347
28	0x3c97cdea	0.018530805
29	0xbee6a5ea	-0.45048457
30	0x3eb0fef4	0.34569514
31	0xbecc87cd	-0.39947358
32	0x3e9796c7	0.2960722
33	0x3d0903ce	0.033450894
34	0xbe56680f	-0.20938133
35	0x3e85260c	0.2600559
36	0x3d62d0fd	0.055375088
37	0x3eaa22fe	0.33229822
38	0x3cf8883a	0.030338395
39	0xbe3a99e8	-0.18222773
40	0x3d525986	0.051354907
41	0xbe194458	-0.14967477
42	0x3e02d2bc	0.12775701
43	0x3ea6e3e9	0.32595757
44	0x3e62150e	0.22078344
45	0xbe3e4d9b	-0.18584292
46	0x3e8ac23f	0.27101323
47	0x3da2e906	0.07954602
48	0x3e6c32f4	0.23066312
49	0xbeb5334d	-0.35390702
50	0xbee0d2db	-0.4391087
51	0xbe4d5cd7	-0.20054947
52	0xbea64003	-0.32470712
53	0x3ecd5219	0.40101698
54	0x3e6e4e87	0.23272143
55	0x3e31f362	0.17378
56	0x3de8bf09	0.11364562
57	0xbd29e409	-0.041477237
58	0x3e9d26dc	0.3069371
59	0xbed859eb	-0.42256102
60	0x3dcf1a73	0.10112467
61	0xbe722ea5	-0.23650606
62	0x3e26c5e0	0.16286421
63	0xbdfe2e78	-0.12411207
64	0x3e0d1df1	0.13780953
65	0xbc2e4edf	-0.0106389215
66	0x3ed1a33d	0.40944853
67	0xbe33057e	-0.17482564
68	0xbe288c2f	-0.16459726
69	0xbeb9cc14	-0.36288512
70	0x3ebe97da	0.3722523
71	0x3dee68ac	0.11641058
72	0x3ecd5c09	0.4010928
73	0xbed4deea	-0.4157632
74	0xbf0bac9c	-0.54560256
75	0xbe9c1177	-0.30482075
76	0xbe53b2cd	-0.20673676
77	0x3e5e67e9	0.21719326
78	0x3e52bbb2	0.20579413
79	0x3eb95cb5	0.36203542
80	0xbe4e6b0f	-0.20158027
81	0xbe6d03b6	-0.23145947
82	0x3ea033e6	0.31289595
83	0xbe09aed2	-0.13445595
84	0x3e8be231	0.27321008
85	0xbd8182fe	-0.06323813
86	0x3e8ecc32	0.27890164
87	0xbea6e636	-0.32597512
88	0xbe37353c	-0.17891401
89	0x3e8ace42	0.27110487
90	0x3dc11d32	0.09429397
91	0xbdc6c98f	-0.09706413
92	0x3e7ab1f8	0.24481952
93	0x3e95b587	0.29240057
94	0xbebf3b26	-0.37349814
95	0xbe2f169a	-0.17098466
96	0x3ee7940b	0.45230135
97	0xbdf7d6fd	-0.12101553
98	0xbdd93653	-0.10606065
99	0xbf0d131c	-0.55107284
100	0xbe6ea608	-0.23305523
101	0x3e3c3fb6	0.18383679
102	0xbd9fab79	-0.07796378
103	0xbe982ded	-0.2972254
104	0x3d10c57f	0.035344597
105	0xbe933a48	-0.28755403
106	0xbec6aaf5	-0.38802305
107	0xbe58dcd9	-0.21177997
108	0xbec8fcbb	-0.39255318
109	0xbe9c5120	-0.30530643
110	0x3edc327b	0.43007264
111	0x3d5fcc60	0.054638267
112	0x3de3635f	0.11102938
113	0xbecf27c1	-0.40460017
114	0xbed70ed9	-0.42003515
115	0xbdef4930	-0.11683881
116	0x3d86e3c4	0.065864116
117	0xbec0c83a	-0.3765276
118	0xbe483af5	-0.1955374
119	0xbe888d27	-0.2667019
120	0xbd1153b8	-0.03548023
121	0xbe0f2d46	-0.13982114
122	0xbc69000e	-0.014221204
123	0xbe99ac27	-0.30014154
124	0xbebd17bd	-0.36932173
125	0xbe11ebb1	-0.14250065
126	0xbd15135d	-0.03639542
127	0xbe8d5c56	-0.2760951
128	0x3ef119fb	0.47090134
129	0x3b411ebb	0.002946778
130	0x3eb276a5	0.34856144
131	0x3dacc64f	0.08436262
132	0xbedb6cd1	-0.42856458
133	0x3e8ff4dd	0.28116503
134	0xbda886df	-0.082288496
135	0xbe39e4b2	-0.18153647
136	0xbece2aa6	-0.40266913
137	0xbedd1ef6	-0.43187684
138	0x3e286c53	0.16447572
139	0xbe4b877c	-0.19875902
140	0x3e53d906	0.20688257
141	0xbea3a3e2	-0.3196097
142	0x3eb47e9f	0.35252854
143	0xbeae9070	-0.34094572
144	0xbe1395f3	-0.1441267
145	0x3d933238	0.07187313
146	0x3e4d29f5	0.20035537
147	0x3ea954ac	0.33072412
148	0x3ebdeb62	0.37093645
149	0xbec7cabc	-0.39021862
150	0x3e29057f	0.16506003
151	0xbdea8a15	-0.11452118
152	0x3c3a9ddb	0.011390175
153	0xbe7bc093	-0.2458518
154	0x3f00d648	0.5032697
155	0xbeabeae9	-0.3357766
156	0x3e5f583b	0.21811001
157	0x3e117de1	0.14208175
158	0x3e111dbc	0.14171499
159	0xbe9864cb	-0.297644
160	0x3ed2b323	0.41152295
161	0x3dd55630	0.104168296
162	0x3d5168ff	0.051125523
163	0xbed466e1	-0.4148474
164	0x3e81d45d	0.25357333
165	0xbd8fd6db	-0.07023402
166	0xbe594ee0	-0.21221495
167	0x3ec7d140	0.39026833
168	0x3defd5b0	0.117106795
169	0xbe1b061b	-0.15139048
170	0xbe83f656	-0.25773877
171	0xbc37b4c9	-0.011212536
172	0x3e95f4ad	0.29288235
173	0xbe303be3	-0.17210345
174	0xbe8351e6	-0.2564842
175	0xbddeaa19	-0.10872287
176	0xbe9462d5	-0.28981653
177	0x3e59bd33	0.2126358
178	0x3ec379cb	0.38178858
179	0xbec54b74	-0.3853413
180	0x3db98789	0.090590544
181	0x3e499e17	0.19689213
182	0x3d7afb6f	0.061274942
183	0xbe35d612	-0.17757443
184	0x3e96e9f0	0.29475355
185	0x3e62eafb	0.2215995
186	0x3e190281	0.14942361
187	0xbdc43845	-0.09581045
188	0xbe029724	-0.12752968
189	0xb5934956	-1.0973697e-06
190	0xbd8ab793	-0.06773295
191	0xbde51b63	-0.11186864
192	0x3e8d2316	0.2756583
193	0x3ebd067c	0.3691901
194	0xbda96a76	-0.08272259
195	0xbdcf1559	-0.101114936
196	0x39e9a21c	0.00044562004
197	0xbcea83d7	-0.02862732
198	0x3dcc8c84	0.09987739
199	0x3e2da36c	0.16956872
200	0xbed41718	-0.4142387
201	0xbe0c6e64	-0.13713986
202	0x3ec7b0f3	0.3900219
203	0x3e1b4a76	0.15165123
204	0xbd451103	-0.048111927
205	0xbe81e1e5	-0.25367656
206	0xbe85fd9e	-0.26170057
207	0xbeb4b958	-0.35297656
208	0xbe356989	-0.1771604
209	0x3d84b36e	0.06479536
210	0x3e9ada78	0.30244803
211	0x3e683ff4	0.22680646
212	0xbeb58d64	-0.35459435
213	0xbe60b563	-0.21944194
214	0xbdb2f9d4	-0.08739057
215	0x3ecdcec2	0.40196806
216	0xbc1d263b	-0.009591634
217	0xbe1a046c	-0.1504075
218	0x3e06ce77	0.13164698
219	0xbe8c2997	-0.2737548
220	0xbe7411a7	-0.23834859
221	0x3ec67d11	0.38767293
222	0xbe167454	-0.14692813
223	0xbd6f4101	-0.058411602
224	0xbefe4c77	-0.49667713
225	0x3e96994d	0.29413834
226	0x3eacac17	0.33725044
227	0x3e3071c0	0.17230892
228	0xbe95c34b	-0.2925056
229	0xbf03d782	-0.51500714
230	0xbec9d557	-0.39420578
231	0x3ea49adf	0.32149407
232	0x3e4fb9df	0.20285748
233	0x3eafc931	0.34333184
234	0x3eaeb402	0.3412171
235	0x3e233944	0.15939814
236	0xbbe3e794	-0.0069550965
237	0xbe83931d	-0.25698176
238	0xbeef84b8	-0.46780944
239	0xbefd84ba	-0.49515325
240	0x3e55dab9	0.20884217
241	0xbe3e05eb	-0.18556945
242	0xbd76a2fa	-0.06021402
243	0xbe893951	-0.2680154
244	0xbd8550b0	-0.065095305
245	0xbe859750	-0.26092005
246	0xbe67fcb5	-0.22654994
247	0x3e756b7a	0.2396678
248	0xbd2b7ffd	-0.041870106
249	0x3e944fdc	0.28967178
250	0xbdd478f5	-0.10374633
251	0xbe8f148a	-0.27945358
252	0xbb040feb	-0.002015109
253	0xbe26cd4b	-0.1628925
254	0xbd158679	-0.036505196
255	0xbede0ef3	-0.4337078

reaction_module.encoder.0.bias f4 [64]
0	0xbeb11dfd	-0.34593192
1	0xbe065129	-0.13116898
2	0x3ea0e7b1	0.31426767
3	0x3e5da58f	0.21645187
4	0xbe67709d	-0.22601552
5	0xbe76b086	-0.24090776
6	0xbe9ace97	-0.3023574
7	0xbef0006a	-0.46875316
8	0xbec81297	-0.39076683
9	0xbdf439df	-0.119251005
10	0x3ea6ae58	0.3255489
11	0x3d80a175	0.062807955
12	0xbe69a3c6	-0.22816381
13	0xbe8efae8	-0.279258
14	0x3e4f14a9	0.20222725
15	0xbea83e55	-0.32860056
16	0xbd2a4abd	-0.041575182
17	0x3e665821	0.22494556
18	0xbe551ed9	-0.20812549
19	0xbcc31f7e	-0.023818728
20	0xbc0f4734	-0.0087450035
21	0xbdee2f9d	-0.11630175
22	0xbe64d42c	-0.22346562
23	0xbea11e86	-0.314686
24	0xbeba7bff	-0.36422727
25	0xbe41b386	-0.18916139
26	0x3ee53d15	0.44773164
27	0xbe31cee7	-0.17364083
28	0xbe871d7a	-0.26389676
29	0x3d8ed7e0	0.06974769
30	0x3e29ceea	0.16582838
31	0x3e67691c	0.2259869
32	0x3eacf58e	0.33781093
33	0x3e80245f	0.2502775
34	0xbebd67e1	-0.36993316
35	0x3d572d18	0.05253324
36	0x3e95ad02	0.29233557
37	0xbd9785b1	-0.073985465
38	0xbe8ac984	-0.2710687
39	0x3ee094a2	0.43863398
40	0xbe5957c7	-0.2122489
41	0xbe6c0151	-0.23047377
42	0xbebd70aa	-0.37000018
43	0x3d8e4720	0.0694716
44	0x3e4b8173	0.198736
45	0x3d6ba3ea	0.057529368
46	0x3d8fa60d	0.070140935
47	0xbe6cfcb7	-0.23143278
48	0xbeb30a5d	-0.34968844
49	0x3d1084cf	0.035282906
50	0x3ecb536a	0.39712077
51	0x3e78ee72	0.2430971
52	0xbe7a39fe	-0.24436185
53	0xbd47c6d9	-0.04877362
54	0xbea9ef0e	-0.33190197
55	0xbe3a406a	-0.18188635
56	0x3d8e88ef	0.06959712
57	0x3e63ecd8	0.22258317
58	0x3ebc732d	0.36806622
59	0xbea0894b	-0.31354746
60	0x3ea4c847	0.3218405
61	0xbea39b07	-0.31954214
62	0x3e41107b	0.18853943
63	0x3ec9f6d4	0.39446127

reaction_module.encoder.1.weight f4 [64]
0	0x3f7d3752	0.9891254
1	0x3f7465eb	0.95468014
2	0x3f756ab5	0.95865947
3	0x3f81607d	1.0107571
4	0x3f751373	0.957328
5	0x3f7b2e18	0.9811721
6	0x3f6b7ae1	0.91984373
7	0x3f7df1dd	0.9919718
8	0x3f6f1740	0.9339485
9	0x3f83c61d	1.0294834
10	0x3f8b3846	1.0876548
11	0x3f7a4bbb	0.97771806
12	0x3f6bb967	0.92079777
13	0x3f79b621	0.9754353
14	0x3f7a882b	0.97864026
15	0x3f7f2a07	0.99673504
16	0x3f81f289	1.0152141
17	0x3f8595c9	1.0436336
18	0x3f7bffae	0.9843701
19	0x3f862c47	1.0482262
20	0x3f8d4dee	1.1039407
21	0x3f81dd77	1.0145711
22	0x3f793288	0.9734273
23	0x3f7d1034	0.9885285
24	0x3f839818	1.028079
25	0x3f89fd66	1.0780456
26	0x3f7fcddc	0.9992349
27	0x3f86f63f	1.0543898
28	0x3f8249fd	1.017883
29	0x3f74a979	0.95571095
30	0x3f862dac	1.0482688
31	0x3f793839	0.97351414
32	0x3f839c34	1.0282044
33	0x3f801a45	1.0008017
34	0x3f8cf250	1.1011448
35	0x3f7eda44	0.99551797
36	0x3f81d534	1.014319
37	0x3f786c71	0.9704047
38	0x3f7b85e0	0.9825115
39	0x3f81c2f9	1.0137626
40	0x3f83d112	1.0298178
41	0x3f859f5b	1.0439256
42	0x3f7a8493	0.9785854
43	0x3f745371	0.9543982
44	0x3f81efd0	1.015131
45	0x3f7afdee	0.98043716
46	0x3f7e1ab0	0.9925947
47	0x3f8319c6	1.024224
48	0x3f829233	1.0200866
49	0x3f8480e0	1.035183
50	0x3f78f47c	0.97248054
51	0x3f848174	1.0352006
52	0x3f70fd98	0.94136953
53	0x3f83ee54	1.0307107
54	0x3f8069df	1.0032309
55	0x3f80ec84	1.0072179
56	0x3f7cfbc1	0.98821646
57	0x3f7f10e5	0.99635154
58	0x3f7b6a0d	0.98208696
59	0x3f806fd8	1.0034132
60	0x3f7b3fae	0.9814404
61	0x3f817b65	1.0115782
62	0x3f82ff59	1.0234176
63	0x3f7c3b0b	0.9852759

reaction_module.encoder.1.bias f4 [64]
0	0xbcf1df27	-0.029525353
1	0xbd4e66d0	-0.05039102
2	0xbd4bd2ca	-0.04976157
3	0x3aca7f20	0.0015449263
4	0xb98413fd	-0.00025191894
5	0x3cdd0df7	0.026984198
6	0xbd4ec138	-0.050477237
7	0xbcee8d8d	-0.029120231
8	0xbd8c4c8f	-0.0685054
9	0xbc211513	-0.009831685
10	0x3cf79c16	0.030225795
11	0xbd366dd4	-0.044538334
12	0x3cd78a82	0.026311163
13	0x3d648123	0.055787217
14	0xbd1965fd	-0.03745078
15	0x3ce8584f	0.028362421
16	0x3cf24f6a	0.029578883
17	0x3ccbfdbf	0.024901269
18	0xbcccaea7	-0.024985624
19	0x3cad36df	0.021144329
20	0x3d5f9ff9	0.05459592
21	0xbc8134e0	-0.015772283
22	0xbcacad0b	-0.021078607
23	0x3bc19f24	0.0059088636
24	0xbd0a56f4	-0.03377433
25	0x3daf36cd	0.08555374
26	0xbcd0497b	-0.025425663
27	0x3d1cafb1	0.03825349
28	0x3c2770db	0.010219778
29	0xbd525b82	-0.0513568
30	0x3d6ff80e	0.058586173
31	0xbcde851c	-0.02716308
32	0xbc006284	-0.007835988
33	0x3b297cd3	0.0025861755
34	0x3c2b3a46	0.010450905
35	0x3b41e972	0.0029588607
36	0xba94c427	-0.0011349962
37	0xbd1b92da	-0.037981845
38	0xbc825f83	-0.015914684
39	0x3ba0d1a9	0.004907806
40	0xbc31437f	-0.010819315
41	0xbc995d9a	-0.01872139
42	0x3c9dab97	0.01924686
43	0xbd6077bf	-0.0548017
44	0x3c24b5ea	0.010053137
45	0xbcf43149	-0.029808657
46	0xbca11776	-0.019664507
47	0x3d35f313	0.044421267
48	0xbcc8a418	-0.024492308
49	0x3d92e089	0.07171733
50	0xbc3a183b	-0.011358316
51	0xbb9a1af2	-0.004702919
52	0xbd26b4d5	-0.0406998
53	0xbbbef41e	-0.005827441
54	0xba4e623f	-0.0007872916
55	0x3c34536f	0.01100622
56	0xbcd0dd4b	-0.025496146
57	0xbc2e6ac8	-0.010645576
58	0x3ca16969	0.019703584
59	0x3ba662df	0.0050777043
60	0x3d57d6ee	0.052695207
61	0xbc6c2654	-0.014413435
62	0x399933ec	0.0002922112
63	0xbc4acd82	-0.012378098

reaction_module.encoder.4.weight f4 [64, 64]
0	0x3ac10001	0.0014724733
1	0x3dd2965a	0.102825835
2	0xbdc395b6	-0.095500395
3	0xbc715059	-0.014728629
4	0x3d9495aa	0.07255109
5	0xbda7d3f2	-0.08194722
6	0xbcb5db70	-0.022199363
7	0xbd4b5576	-0.04964205
8	0x3d98c8ac	0.0746015
9	0x3d97bebc	0.074094266
10	0x3d81ae78	0.063321054
11	0xbd8d1f3c	-0.06890723
12	0xbdc4b877	-0.096054964
13	0x3d811ea1	0.0630467
14	0x3d38c115	0.045106012
15	0xbbf1edd6	-0.0073830886
16	0x3c645ebf	0.013938605
17	0x3df0f6cf	0.11765825
18	0x3c6acb04	0.014330629
19	0x3d6797f6	0.056541406
20	0x3a5c88a6	0.0008412696
21	0xbe059e30	-0.13048625
22	0xbdbcd43a	-0.092201665
23	0xbdafb0a5	-0.08578614
24	0xbdd8c7a0	-0.105849504
25	0x3d92044f	0.07129728
26	0xbd1a0312	-0.037600584
27	0xbda01083	-0.07815649
28	0x3e1b291b	0.15152399
29	0x3d38ae1d	0.045087922
30	0x3e0512b7	0.1299542
31	0xbd49e938	-0.04929468
32	0xbcc7cc2e	-0.024389353
33	0x3d77b3bb	0.06047414
34	0xbd3a4f6a	-0.04548589
35	0xbd89b99f	-0.067248575
36	0x3c86f1d2	0.01647273
37	0xbc9cfec5	-0.019164452
38	0xbdc9943d	-0.09842727
39	0x3dabbf90	0.08386147
40	0x3de1feb8	0.11034912
41	0xbbe906e6	-0.007111418
42	0x3c84f883	0.01623178
43	0xbe02c321	-0.12769748
44	0xbcd3fb05	-0.025876531
45	0x3d5af203	0.053453457
46	0x3d902719	0.07038707
47	0xbd6d9d36	-0.058011256
48	0xbd9ecf3e	-0.07754372
49	0x3df8f919	0.121568866
50	0xbdcb308d	-0.0992137
51	0x3de85d73	0.11345949
52	0xbd238782	-0.039924152
53	0xbd61cea8	-0.055128723
54	0x3a3a2e99	0.00071022805
55	0x3cc3d225	0.023903916
56	0xbd58818d	-0.052857924
57	0x3de0fdb1	0.10985888
58	0x3bfbd9ce	0.0076858765
59	0x3d75c0eb	0.059998434
60	0x3df2cc03	0.118553184
61	0xbd8ae219	-0.06781406
62	0xbd9afd0e	-0.075677976
63	0x3dec2cbf	0.11531972
64	0x3dc9ae70	0.098477244
65	0xbddac8db	-0.106828414
66	0xbd086597	-0.03330001
67	0xbe19f432	-0.1503456
68	0xbe00c2ed	-0.12574358
69	0x3d62b558	0.055348724
70	0x3d509270	0.050920904
71	0x3d4bdf3a	0.049773432
72	0xbd83e331	-0.06439818
73	0x3d8db522	0.06919314
74	0x3d1b6d48	0.037946016
75	0xbdc0e725	-0.09419087
76	0xbccfee3a	-0.02538215
77	0x3caa9f02	0.020827774
78	0x3df3a6c7	0.11897045
79	0xbe26cb2a	-0.16288438
80	0x3de184ff	0.11011695
81	0xbd4e5f22	-0.050383694
82	0xbdf1fd76	-0.11815922
83	0xbc730698	-0.014833115
84	0x3e3596a2	0.17733243
85	0x3e112ccf	0.1417725
86	0x3df3cce1	0.11904312
87	0x3d8f3552	0.06992592
88	0x3d8fd3e8	0.0702284
89	0xbd109ddc	-0.035306796
90	0xbd8d7e1c	-0.06908819
91	0x3dca66fb	0.09882923
92	0xbb8dba0f	-0.0043251584
93	0xbdb566b5	-0.088574804
94	0xbd4b0f45	-0.04957511
95	0x3d49f706	0.049307846
96	0x3d929afd	0.07158468
97	0x3a3971c0	0.000707414
98	0xbd8b2dd2	-0.06795849
99	0x3d8ebaba	0.06969209
100	0xbdf6c0f1	-0.120485194
101	0xbe0a2be9	-0.13493313
102	0x3d27d1bf	0.040971514
103	0xbcb9b3dd	-0.022668773
104	0x3e1375c8	0.14400399
105	0x3e3000c9	0.171878
106	0x3c9ff680	0.01952672
107	0x3c628e56	0.013827881
108	0x3d8b8792	0.06812967
109	0x3d55c2c0	0.05218768
110	0xbd9a022f	-0.07519948
111	0x3d54b514	0.051930502
112	0x3ce8a912	0.028400932
113	0x3e3d6d3a	0.18498698
114	0x3c834691	0.01602486
115	0xbd822343	-0.06354382
116	0xbd1b699f	-0.037942525
117	0xbb9d3a08	-0.0047981776
118	0xbcdd29b0	-0.026997417
119	0x3deb8ccf	0.115014665
120	0x3e1bc2b4	0.15210992
121	0x3db273dc	0.08713505
122	0xbd566987	-0.052346732
123	0xbdb443b8	-0.08801979
124	0x3cad8aa6	0.021184277
125	0xbd682962	-0.05668009
126	0xbd8d9b71	-0.06914414
127	0xbde0c7ef	-0.10975634
128	0x3caff2dd	0.02147811
129	0xbda2a989	-0.079424925
130	0xbd80661a	-0.06269474
131	0xbd8ee0cd	-0.06976471
132	0x3d87542f	0.066078536
133	0xbe2a0d7e	-0.1660671
134	0x3e1789e6	0.14798698
135	0x3d13bc63	0.03606833
136	0xbd0dc941	-0.03461576
137	0x3da0918d	0.078402616
138	0xbdb6c896	-0.089249775
139	0x3d5dd261	0.05415571
140	0x3d99b5c1	0.0750537
141	0xbdb47b04	-0.08812526
142	0x3de3a736	0.11115877
143	0xbd478b39	-0.048716757
144	0xbcfe0abe	-0.031010982
145	0xbc824eec	-0.015906774
146	0x3d5eaed7	0.05436596
147	0x3c93f635	0.018061737
148	0xbbeff788	-0.007323209
149	0x3dfa6678	0.122265756
150	0x3e27c3e8	0.16383326
151	0xbd2907bb	-0.041267138
152	0xbe0947b5	-0.1340626
153	0x3b1bba52	0.0023762179
154	0xbdcd8945	-0.10035948
155	0x3d768f82	0.060195453
156	0x3ca3e857	0.02000825
157	0xbc8894ba	-0.01667248
158	0xbd811750	-0.06303275
159	0x3d64bf2f	0.05584639
160	0x3e13adf2	0.14421824
161	0x3d8944b5	0.06702558
162	0x3cb575d3	0.02215091
163	0x3dd50544	0.10401395
164	0x3ddeb27e	0.108738884
165	0xbd2f665a	-0.04282222
166	0xbd01f282	-0.031725414
167	0x3d2f25a2	0.0427605
168	0xbd7a4f1d	-0.061110605
169	0xbc67e9a1	-0.014154823
170	0xbbe3ee21	-0.0069558774
171	0xbdcba916	-0.0994436
172	0x3dab1974	0.08354464
173	0x3d8e871f	0.06959366
174	0x3d072989	0.032998595
175	0x3e60402a	0.21899477
176	0x3dbc6022	0.091980234
177	0x3d5afa09	0.05346111
178	0x3c7e9f84	0.015540961
179	0xbe2c8b87	-0.168501
180	0xbd0b25a4	-0.033971444
181	0xbc0e0de5	-0.008670305
182	0xbddca3c3	-0.107734226
183	0xbd714c1e	-0.05891048
184	0xbdc4703a	-0.09591718
185	0xbdcc1aeb	-0.09966072
186	0xbdca801c	-0.09887716
187	0xbe23c08e	-0.15991423
188	0xbd2b8481	-0.041874412
189	0x3d987b6c	0.07445416
190	0x3d7a7f22	0.0611564
191	0xbb8e3666	-0.004339981
192	0xbd6a3701	-0.057181362
193	0x3dafb439	0.085792966
194	0xbdbeaff8	-0.09310907
195	0xbdb1b432	-0.08676948
196	0x3d8ea793	0.06965556
197	0xbe082ef0	-0.13299155
198	0x3d737b74	0.059443906
199	0x3e004ea8	0.12530005
200	0xbc5baeb5	-0.013408353
201	0x3d45a81f	0.048256036
202	0xbda42442	-0.08014728
203	0xbc91faee	-0.017819848
204	0x3d39df17	0.04537877
205	0x3d8b0954	0.067888886
206	0x3dac20a5	0.08404664
207	0x3e054fd6	0.13018736
208	0x3bab6d35	0.0052315244
209	0x3c9ca187	0.019119991
210	0xbd38564c	-0.045004174
211	0xbd55dfe9	-0.05221549
212	0x3ca7a20b	0.02046301
213	0xbe195ca5	-0.14976747
214	0x3de42639	0.11140103
215	0x3a9b978f	0.001187073
216	0xbda2870f	-0.07935917
217	0x3d839de8	0.064266026
218	0xbe1fc514	-0.15602523
219	0xbda2f888	-0.0795756
220	0x3db4bc84	0.08825019
221	0xbdd5ec50	-0.10445464
222	0xbde7be34	-0.11315575
223	0xbc64fed9	-0.013976776
224	0x3d8154cb	0.06315001
225	0x3e2252a3	0.15851836
226	0x3e1d9243	0.15387826
227	0xbce6f24f	-0.028191714
228	0xbe0f7068	-0.14007723
229	0x3d65fdeb	0.05615036
230	0x3d10feeb	0.03539936
231	0xbcf1f357	-0.029534979
232	0x3db761fc	0.08954236
233	0xbce8cc14	-0.028417625
234	0xbcdda018	-0.027053878
235	0x3db25bad	0.08708892
236	0xbcabf07e	-0.020988699
237	0x3c5b1e8f	0.013373985
238	0xbe0e51e2	-0.13898423
239	0xbd71be05	-0.059019107
240	0x3cb1133c	0.021615617
241	0x3d177410	0.03697592
242	0x3c37c7ce	0.011217071
243	0x3c9027b2	0.017597053
244	0xbdb81ab9	-0.08989472
245	0x3d2af9d8	0.041742176
246	0xbe046b7c	-0.12931627
247	0x3bd477ea	0.0064840214
248	0x3d691b31	0.056910697
249	0x3df0e5b9	0.11762566
250	0x3c62d6ea	0.013845185
251	0xbd3bb536	-0.045827113
252	0xbde2f1d7	-0.110812835
253	0xbdaed9fe	-0.085376725
254	0xbe39971e	-0.18124053
255	0xbce135a0	-0.02749139

reaction_module.encoder.4.bias f4 [64]
0	0x3c170f34	0.009219933
1	0xbdcacc73	-0.09902277
2	0x3df0d6dd	0.11759732
3	0x3da48a97	0.080342464
4	0xbdbcd4d0	-0.09220278
5	0x3b163892	0.0022921902
6	0x3da19cb1	0.07891215
7	0xbda513ac	-0.08060393
8	0xbddca93a	-0.10774465
9	0x3d7559d2	0.059900112
10	0x3c641511	0.013921038
11	0x3d8c7f86	0.06860261
12	0xbcf66530	-0.030077547
13	0x3ca62883	0.02028299
14	0x3dac66bb	0.08418032
15	0xbbcb5bb2	-0.0062059993
16	0xbd4604e7	-0.04834452
17	0xbddd98e4	-0.10820177
18	0xbc0057bb	-0.007833417
19	0x3dc45434	0.09586373
20	0xbdeec540	-0.11658716
21	0xbc85903d	-0.01630413
22	0x3dc31366	0.09525184
23	0xbcc91529	-0.024546223
24	0xbd49ec72	-0.049297757
25	0xbd376785	-0.04477646
26	0xbd5397f7	-0.051658597
27	0x3ca6401e	0.020294245
28	0xbdfeb0ab	-0.124360405
29	0x3cd030b7	0.025413854
30	0xbc4cab11	-0.012491957
31	0xbceaf378	-0.028680548
32	0x3d325c56	0.04354509
33	0x3d966efe	0.07345389
34	0xbdd15eb8	-0.10223144
35	0xbdd4b574	-0.10386172
36	0xbdba16b1	-0.09086359
37	0xbdae6bad	-0.08516631
38	0xbcd33f9b	-0.025787165
39	0x3dadc697	0.08485144
40	0xbdcfc26b	-0.10144504
41	0xbda3dc46	-0.08000998
42	0xbd905e7a	-0.0704927
43	0xbcfa8283	-0.030579811
44	0xbceea16b	-0.029129704
45	0xbd92c541	-0.071665294
46	0x3beacfc3	0.0071658804
47	0x3d2bc844	0.041939035
48	0xbcce3b74	-0.025174834
49	0x3d14fdbb	0.03637479
50	0x3cf7a3ce	0.030229475
51	0x3e0a60ed	0.13513537
52	0xbb2dfd06	-0.0026548519
53	0x3db0c2ed	0.08630929
54	0x3da6e781	0.081496246
55	0x3d27ab06	0.040934585
56	0x3d30dd81	0.043179993
57	0xbdba2103	-0.09088328
58	0xbd8647cd	-0.06556664
59	0x3d82499b	0.063616954
60	0x3d55683d	0.052101362
61	0x3dd824cd	0.10553894
62	0xbb9d31fe	-0.0047972193
63	0xbd283b9a	-0.041072465

reaction_module.encoder.5.weight f4 [64]
0	0x3f83e70b	1.0304884
1	0x3f84b090	1.0366383
2	0x3f80ed33	1.0072387
3	0x3f86ca72	1.0530531
4	0x3f7a3ae2	0.977461
5	0x3f7e9bfc	0.99456763
6	0x3f7e813f	0.99415964
7	0x3f84396e	1.0330026
8	0x3f7f54db	0.99738854
9	0x3f759446	0.9592937
10	0x3f804f24	1.0024152
11	0x3f81cb64	1.0140195
12	0x3f8374d9	1.0270034
13	0x3f7d7d96	0.99019754
14	0x3f87837c	1.0587001
15	0x3f8538e9	1.0407993
16	0x3f838709	1.0275584
17	0x3f7cbab5	0.9872239
18	0x3f808224	1.0039716
19	0x3f818d66	1.0121276
20	0x3f814632	1.0099547
21	0x3f80faac	1.0076499
22	0x3f7eb320	0.99492073
23	0x3f815d11	1.0106527
24	0x3f833173	1.0249466
25	0x3f74b56c	0.9558933
26	0x3f81a033	1.0127014
27	0x3f7efebc	0.99607444
28	0x3f80b666	1.0055664
29	0x3f78b26d	0.97147256
30	0x3f828a12	1.0198386
31	0x3f8147d2	1.0100043
32	0x3f83a473	1.0284561
33	0x3f7fd56b	0.99935025
34	0x3f7d30df	0.98902696
35	0x3f7ba92e	0.9830502
36	0x3f80fbf3	1.0076889
37	0x3f817a68	1.011548
38	0x3f83609e	1.026386
39	0x3f804c9c	1.0023379
40	0x3f81b352	1.0132849
41	0x3f80a10c	1.0049148
42	0x3f8e4ea9	1.1117755
43	0x3f860c72	1.0472548
44	0x3f73ef90	0.9528742
45	0x3f7fa83a	0.9986607
46	0x3f7d7bb8	0.99016905
47	0x3f7b4243	0.9814798
48	0x3f81c770	1.0138988
49	0x3f7ce359	0.98784405
50	0x3f7b0dc9	0.9806791
51	0x3f8130ac	1.0092978
52	0x3f7fa42a	0.9985987
53	0x3f780a8c	0.96891093
54	0x3f7f2165	0.9966033
55	0x3f87ba67	1.060376
56	0x3f787d51	0.9706622
57	0x3f7c1006	0.9846195
58	0x3f8382c8	1.0274286
59	0x3f7da592	0.99080765
60	0x3f7ff28e	0.99979484
61	0x3f78db05	0.972092
62	0x3f832349	1.0245143
63	0x3f7e5bee	0.99359024

reaction_module.encoder.5.bias f4 [64]
0	0x3d34dc07	0.044155147
1	0x3cd636dc	0.026149206
2	0x3c4d46a5	0.01252905
3	0xbb0cca90	-0.0021483041
4	0xbc86a6bc	-0.016436927
5	0xbb212e86	-0.002459438
6	0x3c2009df	0.009767978
7	0x3d1098ad	0.035301853
8	0xbcc9f6c6	-0.024653804
9	0xb88df62a	-6.7692556e-05
10	0x3c1924f2	0.009347187
11	0x3ce3791c	0.02776771
12	0x3c7425a5	0.014901553
13	0x3a55dc20	0.00081581064
14	0x3cc847c8	0.02444829
15	0x3d32f90a	0.043694533
16	0xbc2150df	-0.009845941
17	0x3c062f93	0.0081900535
18	0x3ce46eb6	0.027884822
19	0x3ca7648b	0.020433685
20	0x3b467024	0.0030279243
21	0xbbdb731d	-0.006697072
22	0x3acc04ec	0.0015565432
23	0x3a065405	0.0005124214
24	0xbd470dd8	-0.048597187
25	0xbc98478d	-0.018588806
26	0x3ae302a0	0.0017319508
27	0x3b935bd9	0.004497033
28	0xbcb2099c	-0.021733098
29	0xbc44ac36	-0.012003949
30	0x3ca5e663	0.020251459
31	0xbc56ee5c	-0.013118353
32	0x3d64d58b	0.055867713
33	0x3b8083de	0.00392197
34	0xbce93541	-0.028467776
35	0xbc936730	-0.01799354
36	0x3a8936dc	0.001046862
37	0x3b1e1c94	0.002412592
38	0x3d1cf02d	0.038314987
39	0xbc680a55	-0.01416262
40	0xbc075311	-0.008259551
41	0xbbe5f3b6	-0.007017578
42	0x3cdcf445	0.026971946
43	0x3d1698e0	0.036766887
44	0xbcc48776	-0.023990374
45	0x3c9865aa	0.018603165
46	0x3c16a550	0.009194687
47	0x3bb7f841	0.005614311
48	0x3be73645	0.00705603
49	0xbceed757	-0.029155416
50	0xbaaab16a	-0.0013022844
51	0x3c87358d	0.016505027
52	0x3b124eda	0.0022324831
53	0xbc5451a9	-0.012958922
54	0xbd1c1e3a	-0.038114764
55	0xbb095368	-0.0020954255
56	0xbc9dd9eb	-0.01926895
57	0xbc586397	-0.013207338
58	0x3c83d15d	0.016091043
59	0x3c14e8e4	0.009088729
60	0x3c12fed3	0.008971888
61	0xbb829505	-0.0039850497
62	0x3bf0dd32	0.0073505873
63	0xbce491ce	-0.027901556

reaction_module.residual_mlp.0.weight f4 [64, 65]
0	0x3d7cb520	0.06169617
1	0x3c72e048	0.014823981
2	0x3d8f31b5	0.06991903
3	0xbcf7287f	-0.030170677
4	0xbd08150a	-0.03322319
5	0x3bf6b08a	0.0075283693
6	0x3da17bf6	0.07884972
7	0xbe1be584	-0.15224272
8	0xbc83298d	-0.016011024
9	0x3d80eb6f	0.062949054
10	0x3d317ddc	0.04333292
11	0x3db42c51	0.08797515
12	0xbd68bee1	-0.05682266
13	0xbd82db37	-0.06389468
14	0xbdd3581c	-0.1031954
15	0xbde63af2	-0.11241712
16	0xbd06bebb	-0.03289674
17	0x3d46676d	0.04843848
18	0x3cfa8696	0.030581754
19	0xbd8d5a14	-0.06901947
20	0x3e07e141	0.13269521
21	0x3d64e9aa	0.055886902
22	0x3ce0faa7	0.02746327
23	0xbd9412c7	-0.07230144
24	0x3dca019d	0.09863589
25	0xbdbcd883	-0.09220984
26	0x3df8e263	0.12152555
27	0xbda2999c	-0.07939455
28	0x3d348597	0.044072714
29	0xbd4695ea	-0.048482813
30	0x3d2ebc0f	0.042659815
31	0xbdca8276	-0.09888165
32	0xbd3014a9	-0.042988453
33	0xbd5735c0	-0.052541494
34	0xbdd8a35d	-0.10578034
35	0xbd6583c1	-0.056033853
36	0xbd8b30d5	-0.06796423
37	0x3cf15d72	0.029463504
38	0x3d8b76ab	0.068097435
39	0x3bc87b41	0.0061182086
40	0x3e3dabb5	0.18522532
41	0xbc13536e	-0.008992059
42	0xbe278023	-0.16357474
43	0xbd2398e5	-0.039940733
44	0xbd67e34e	-0.05661326
45	0x3dadd2b9	0.08487458
46	0x3dc97280	0.09836292
47	0x3d36fe88	0.044676334
48	0xbde533de	-0.111915335
49	0xbd2cde8e	-0.042204432
50	0xbd24639d	-0.04013406
51	0xbe00b5b3	-0.12569313
52	0x3ca26893	0.019825255
53	0x3d6d0c16	0.057872854
54	0x3d81aa50	0.06331313
55	0x3b1e3ef5	0.0024146412
56	0xbcdce713	-0.026965654
57	0xbd56e43b	-0.05246375
58	0xbd8f579c	-0.06999132
59	0x3dcb7fea	0.09936507
60	0xbd74741c	-0.059681043
61	0xbb3f9db5	-0.0029238288
62	0xbd9f3420	-0.07773614
63	0xbd187ebe	-0.037230246
64	0x3d9aeadd	0.07564328
65	0xbe02c809	-0.1277162
66	0x3dc24010	0.09484875
67	0xbdc44123	-0.09582736
68	0xbc17fed8	-0.009277068
69	0x3db69208	0.08914572
70	0x3d8fe38c	0.07025823
71	0xbd0b3b39	-0.033992026
72	0xbdddc69c	-0.10828897
73	0xbd150be7	-0.036388304
74	0x3c1328c5	0.008981888
75	0xbdc4f882	-0.096177116
76	0x3d7680ce	0.06018143
77	0xbdc9d219	-0.09854526
78	0x3d15253d	0.036412466
79	0xbc83f016	-0.016105693
80	0xbdcecb9c	-0.10097429
81	0x3e069169	0.13141407
82	0x3db4c780	0.08827114
83	0xbcfd94ae	-0.030954685
84	0xbde3d64b	-0.111248575
85	0xbc6e32bd	-0.014538464
86	0x3db31ba1	0.08745504
87	0x3da0a835	0.07844583
88	0xbb96717f	-0.0045911665
89	0xbd04d4c4	-0.03242947
90	0xbddc270a	-0.107496336
91	0x3de517b5	0.111861624
92	0x3da47e5c	0.08031914
93	0x3dd1a1f3	0.102359675
94	0xbd3806d3	-0.044928383
95	0x3d43b8e9	0.047783766
96	0xbcdf947d	-0.027292484
97	0x3d363cfd	0.044491757
98	0x3d2c343c	0.042042002
99	0xbe043e7c	-0.12914461
100	0x3d49f36a	0.049304403
101	0x3ce9b8a6	0.02853043
102	0xbd7adb98	-0.061244577
103	0x3da6a4ea	0.081369236
104	0x3df939e0	0.12169242
105	0x3dc73226	0.09726362
106	0x3ca1f72e	0.019771185
107	0xbcfd25b7	-0.030901773
108	0xbdeaf682	-0.11472799
109	0x3c968ada	0.018376756
110	0x3bc4371c	0.005988015
111	0x3db943e8	0.09046155
112	0x3dbde678	0.09272474
113	0xbc88bbd9	-0.016691135
114	0xbd8886bf	-0.06666326
115	0x3d67ae89	0.056562934
116	0x3d86f213	0.06589141
117	0xbd789cea	-0.06069652
118	0xbdc6f533	-0.09714737
119	0x3b1c3060	0.0023832545
120	0x3ca2276a	0.019794185
121	0xbdef0116	-0.11670129
122	0x3cf60919	0.030033635
123	0x3cb02eb5	0.021506647
124	0xbd84f6ac	-0.064923614
125	0xbdb949cd	-0.090472795
126	0xbd8d7072	-0.06906213
127	0x3de345a0	0.11097264
128	0x3df13d2b	0.11779245
129	0x3dcb0bf9	0.09914393
130	0x3c65f958	0.014036499
131	0x3d3060b4	0.043060973
132	0x3e436491	0.19081332
133	0x3d8e9883	0.06962683
134	0xbd84f234	-0.06491509
135	0x3d071147	0.03297546
136	0xbd243806	-0.04009249
137	0xbbe8c150	-0.007103123
138	0xbdaf8e67	-0.08572083
139	0x3b8240be	0.003975003
140	0x3c73e103	0.01488519
141	0xbd6ca0d4	-0.057770565
142	0x3d98123c	0.07425353
143	0x3df0c62f	0.117565505
144	0xbde6851e	-0.11255859
145	0x3c0d517d	0.008625385
146	0xbdc65ed9	-0.096860595
147	0xbd2c0759	-0.041999195
148	0x3d027fc8	0.031860143
149	0x3c1805a7	0.009278691
150	0x3d9b645b	0.07587501
151	0x3bb1e272	0.0054286057
152	0x3dfc3c98	0.12316245
153	0xbd5f599f	-0.05452883
154	0x3cb465ff	0.022021292
155	0x3d8ee68d	0.06977568
156	0x3e05221a	0.1300129
157	0x3ca33170	0.019921035
158	0x3da4fcab	0.08056005
159	0x3cad3bb4	0.021146633
160	0x3db7b235	0.08969537
161	0xbd0749c0	-0.033029318
162	0x3d68951c	0.056782827
163	0x3e06f63f	0.13179873
164	0xbb436682	-0.0029815738
165	0xbd6b09b5	-0.057382304
166	0x3df74d7f	0.12075328
167	0x3d985ffc	0.074401826
168	0xbdd997e6	-0.106246755
169	0x3d5073e0	0.050891757
170	0xbdc8331d	-0.09775374
171	0xbd8111ed	-0.06302247
172	0x3e1f36e8	0.15548289
173	0x3d9b8d78	0.075953424
174	0xbca43817	-0.020046277
175	0x3dc8697a	0.09785743
176	0x3e18187a	0.14853087
177	0x3dee77b3	0.116439246
178	0xbdb422bb	-0.08795687
179	0xbd918c74	-0.071068674
180	0x3d35742a	0.044300236
181	0x3db6ef86	0.08932404
182	0x3be12bed	0.0068716914
183	0x3d7eecfd	0.06223773
184	0x3d59c017	0.053161707
185	0xbd947bec	-0.07250199
186	0xbd4a20ac	-0.049347565
187	0x3e23f276	0.1601046
188	0x3d0ba61f	0.034093972
189	0x3da10314	0.07861915
190	0xbdc39a3a	-0.09550901
191	0xbbf2d9b0	-0.0074112043
192	0x3ddd267b	0.10798355
193	0xbcc0d69b	-0.023539832
194	0x3d912df6	0.070888445
195	0xbde7f7f9	-0.11326594
196	0x3dc5669b	0.09638711
197	0xbc8cf4d1	-0.017206581
198	0xbc707077	-0.014675251
199	0xbda9bd08	-0.08288008
200	0xbd114219	-0.035463426
201	0xbdbd6714	-0.09248176
202	0xbdbf360f	-0.09336483
203	0xbd052efa	-0.032515503
204	0xbd883167	-0.06650048
205	0x3dd2e01d	0.102966525
206	0xba1bd110	-0.00059439335
207	0x3db6ccb1	0.089257605
208	0xbc3cb24e	-0.0115171205
209	0x3d15e893	0.036598753
210	0x3df5a5e9	0.119945355
211	0xbd8fff3e	-0.070311055
212	0xbd578a17	-0.052621927
213	0x3ded7a51	0.11595596
214	0xbc82f4e2	-0.01598591
215	0xbcf99f6a	-0.030471522
216	0x39e57374	0.00043764303
217	0xbd5dced4	-0.054152325
218	0x3cb1c03c	0.02169811
219	0xbd608822	-0.054817326
220	0x3c892cc2	0.016744975
221	0xbd1f7bff	-0.03893661
222	0xbca547e4	-0.020175882
223	0xbd85f4ca	-0.065408304
224	0x3cc5662a	0.024096567
225	0x3d8d5cd1	0.06902469
226	0xbde38704	-0.111097366
227	0xbdb07122	-0.08615328
228	0xbdb05a8c	-0.086110204
229	0x3dade8f1	0.08491696
230	0x3d8fac19	0.07015247
231	0xbdfb75d6	-0.12278335
232	0x3c790888	0.015199788
233	0x3cc97089	0.024589794
234	0xbdbc10d4	-0.09182897
235	0x3c92243b	0.017839542
236	0x3e03fad7	0.12888657
237	0x3da62a03	0.08113482
238	0x3d5d8470	0.05408138
239	0x3b92616b	0.0044671795
240	0xbd934a6d	-0.0719193
241	0xbd81e327	-0.06342154
242	0x3c5915b2	0.0132498015
243	0x3b01c0fb	0.0019798863
244	0x3df9206a	0.121643856
245	0xbe1cd1af	-0.15314363
246	0x3cb4df55	0.02207915
247	0xbd4bcaac	-0.04975383
248	0xbc65d44b	-0.014027665
249	0x3dd5bea3	0.10436752
250	0x3ba5df7a	0.005062041
251	0xbd0e8934	-0.034798816
252	0xbd8ddce5	-0.06926898
253	0xbe0e7ccd	-0.13914795
254	0xbdb174a6	-0.08664827
255	0x3d84b22e	0.064792976

reaction_module.residual_mlp.0.bias f4 [64]
0	0xbe02659e	-0.12734076
1	0xbd9e66af	-0.07734429
2	0xbd43c8fb	-0.04779909
3	0x3d963a10	0.07335293
4	0x3d440704	0.047858253
5	0xbe096b67	-0.13419877
6	0x3deeb7ea	0.116561726
7	0xbd24e478	-0.040256947
8	0xbbacb2da	-0.005270344
9	0x3d25253b	0.04031871
10	0xbdbb8a8a	-0.091572836
11	0x3c382a18	0.011240505
12	0xbd4140b2	-0.04718084
13	0xbccf9fd8	-0.025344774
14	0xbc85c0c4	-0.01632727
15	0x3dee0332	0.11621703
16	0xbd6e7448	-0.058216363
17	0xbdd06843	-0.10176136
18	0x3d5dd84b	0.05416135
19	0x3cf7871f	0.030215798
20	0xbcf68ee3	-0.03009743
21	0x3d12ecdc	0.035870418
22	0x3e0bc637	0.13649832
23	0xbcd168b4	-0.025562622
24	0xbddad28e	-0.10684691
25	0xbdfa05e9	-0.122081585
26	0x3d39cd18	0.04536161
27	0x3d2b8362	0.041873343
28	0x3ce626f9	0.028094755
29	0xbdcdcfd1	-0.100494035
30	0xbdaaef31	-0.083464034
31	0xbdc831bb	-0.0977511
32	0x3da8af66	0.082365796
33	0xbb8d238c	-0.004307216
34	0xbda6538b	-0.08121403
35	0xbddbae0c	-0.10726556
36	0x3dc31e3c	0.09527251
37	0x3bb0b7ff	0.005393028
38	0x3e0a647a	0.13514891
39	0xbdda3c51	-0.10656036
40	0xbe0eaa40	-0.13932133
41	0x3c3d83ed	0.011567098
42	0x3d43cf1d	0.04780494
43	0x3dcb3f5d	0.09924195
44	0x3de8d56a	0.113688305
45	0x3d23b4c5	0.039967317
46	0x3dac0742	0.08399822
47	0xbd9c7555	-0.07639567
48	0x3e12c8d8	0.14334428
49	0xbd4ca9f5	-0.04996677
50	0x3d775d45	0.060391683
51	0x3d62bf11	0.055357996
52	0xbd950027	-0.0727542
53	0xbc589445	-0.013218944
54	0x3cbe990e	0.023266342
55	0x3ddb1bdb	0.106986724
56	0x3daff901	0.085924156
57	0x3d362f8a	0.04447893
58	0xbd81e2e3	-0.06342103
59	0x3d7882bb	0.06067155
60	0x3dfa873a	0.12232824
61	0xbd72ce20	-0.059278607
62	0x3da763aa	0.08173306
63	0x3d11abd3	0.035564255

reaction_module.residual_mlp.1.weight f4 [64]
0	0x3f873a97	1.0564755
1	0x3f7b0ab4	0.98063207
2	0x3f7dfe04	0.9921572
3	0x3f7853b5	0.97002727
4	0x3f8560dd	1.0420185
5	0x3f85f4bb	1.0465311
6	0x3f7e5ed7	0.99363464
7	0x3f78b5d5	0.97152454
8	0x3f86eb0f	1.0540484
9	0x3f74ad7f	0.95577234
10	0x3f7a6091	0.978036
11	0x3f7e2b6a	0.99284995
12	0x3f76da63	0.9642698
13	0x3f85a40c	1.0440688
14	0x3f80593d	1.0027233
15	0x3f82631f	1.0186499
16	0x3f84c560	1.0372734
17	0x3f7d0e1a	0.9884964
18	0x3f72d85f	0.94861406
19	0x3f809ff1	1.004881
20	0x3f7c83c8	0.9863858
21	0x3f73fa72	0.95304024
22	0x3f7f9776	0.99840486
23	0x3f757cd1	0.9589358
24	0x3f7d66f9	0.9898525
25	0x3f86ba04	1.0525517
26	0x3f868046	1.0507896
27	0x3f823de7	1.0175141
28	0x3f7c4e7a	0.98557246
29	0x3f749f8c	0.9555595
30	0x3f74b1a5	0.95583564
31	0x3f78d006	0.9719242
32	0x3f7ccf9d	0.9875429
33	0x3f817869	1.0114871
34	0x3f822cdc	1.016994
35	0x3f8a108b	1.0786299
36	0x3f8080ca	1.0039303
37	0x3f825375	1.0181719
38	0x3f73c413	0.9522106
39	0x3f836094	1.0263848
40	0x3f82638e	1.0186632
41	0x3f8138b3	1.0095428
42	0x3f7fd2be	0.9993094
43	0x3f7eb06e	0.9948796
44	0x3f7ed8a1	0.995493
45	0x3f896e75	1.0736834
46	0x3f844569	1.0333682
47	0x3f810117	1.0078458
48	0x3f7fb66b	0.9988772
49	0x3f7e2ea5	0.99289924
50	0x3f829eb3	1.0204681
51	0x3f7aeee5	0.98020774
52	0x3f87f7f8	1.0622549
53	0x3f7a7757	0.9783835
54	0x3f7cbbb7	0.9872393
55	0x3f7b7c3b	0.98236436
56	0x3f6efe4d	0.9335678
57	0x3f7e03c8	0.9922452
58	0x3f76055a	0.96101916
59	0x3f836029	1.0263721
60	0x3f7eb188	0.9948964
61	0x3f7c8f5e	0.9865626
62	0x3f82b76a	1.0212224
63	0x3f7e2fe9	0.99291855

reaction_module.residual_mlp.1.bias f4 [64]
0	0x3c420f7a	0.01184451
1	0xbd0044e4	-0.0313157
2	0xbbbf9134	-0.005846167
3	0x3b4d1551	0.0031293223
4	0x3d293069	0.041305933
5	0xbc5e1d41	-0.013556779
6	0xbb85f85b	-0.004088444
7	0xbc1e5f45	-0.009666269
8	0x3c39e864	0.01134691
9	0xbc9081ed	-0.017640078
10	0xbc884991	-0.016636642
11	0xb8ea12a6	-0.00011161463
12	0x3c04996a	0.008093217
13	0x3c1f0395	0.009705444
14	0x3b4d7536	0.003135038
15	0x3c955e9e	0.018233594
16	0xbc11aecc	-0.0088917725
17	0xbb9c5dd2	-0.0047719264
18	0xbd011fac	-0.031524345
19	0x3c951809	0.018199937
20	0xbcbb8d2e	-0.022894468
21	0xbc0a667a	-0.008447284
22	0xbb2db431	-0.0026505108
23	0xbbcb1f85	-0.006198826
24	0xbc9c1a8d	-0.01905563
25	0xbba259cb	-0.004954552
26	0xbce30a2d	-0.027714813
27	0xbc3783ab	-0.011200826
28	0x3a0ee593	0.00054510793
29	0xbcd60353	-0.026124632
30	0xbc107129	-0.008816042
31	0xbcb47672	-0.022029135
32	0xbc933225	-0.017968247
33	0xbc2c9d7d	-0.010535595
34	0xbc6e77f9	-0.014554971
35	0x3b222f42	0.0024747406
36	0x3bac5593	0.0052592247
37	0x3b25930a	0.0025264644
38	0xbb3538f3	-0.0027652353
39	0xbcb73641	-0.022364737
40	0xbc91704e	-0.017753746
41	0x3caa8496	0.020815175
42	0xbcb1f848	-0.021724835
43	0x3c003a61	0.007826419
44	0xbca115f6	-0.019663792
45	0xbba67045	-0.0050793015
46	0x3d01ee75	0.03172155
47	0xbc7b0397	-0.01532068
48	0x3ca9c0b3	0.020721769
49	0xbc4f94cf	-0.012669756
50	0x3a7d7635	0.00096687983
51	0xbb119ef2	-0.0022219983
52	0xbcb3cef6	-0.021949273
53	0xbc0313a3	-0.008000287
54	0x3b42109e	0.0029611955
55	0xbc537dad	-0.012908381
56	0xbd181a11	-0.037134234
57	0xbc1c4339	-0.0095375115
58	0xbb9a410d	-0.0047074617
59	0x3c4a9665	0.012364958
60	0x3bb8977a	0.005633292
61	0xbca11b54	-0.019666351
62	0xbcbf5498	-0.023355767
63	0x3d0cf252	0.034410782

reaction_module.residual_mlp.4.weight f4 [64, 64]
0	0x3c2bc1af	0.0104831895
1	0x3d08ec88	0.0334287
2	0x3de71b30	0.112844825
3	0xbe0930a3	-0.1339746
4	0x3dc63912	0.09678854
5	0xbe361427	-0.17781125
6	0x3cfcfcef	0.030882327
7	0x3e075ddc	0.13219398
8	0xbe4fd9e0	-0.20297956
9	0xbd8fcb28	-0.07021171
10	0xbd968034	-0.073486716
11	0x3d2dcdcb	0.042432588
12	0xbd82d956	-0.0638911
13	0xbe1acde9	-0.15117611
14	0x3d05c0c8	0.032654554
15	0xba384830	-0.00070298
16	0xbd9e3cdb	-0.07726451
17	0xbd0a0bd6	-0.033702694
18	0x3d7e56eb	0.06209461
19	0xbbfcf248	-0.007719312
20	0xbdb7cd96	-0.08974759
21	0x3dfa863c	0.122326344
22	0x3d2445c7	0.040105607
23	0xbcc7d7ee	-0.024394955
24	0x3de159c5	0.1100345
25	0xbcd0750b	-0.025446435
26	0x3cb3819a	0.021912385
27	0x3d0f5def	0.03500169
28	0x3ca787e2	0.020450536
29	0x3df783db	0.12085696
30	0x3d21b3b1	0.039478008
31	0x3db6c09b	0.08923455
32	0x3d574730	0.052558124
33	0x3ca460f0	0.020065755
34	0x3d16471b	0.036688905
35	0xbe160bf3	-0.14652996
36	0x3e1a1a8c	0.1504919
37	0xbd583f27	-0.0527946
38	0x3d82bfb7	0.06384223
39	0xbdaca402	-0.084297195
40	0xbde59cd9	-0.11211557
41	0x3d02fe65	0.03198089
42	0xbdf2606f	-0.118347995
43	0x3d0078f8	0.031365365
44	0x3dd598e7	0.104295544
45	0xbe37854f	-0.17921947
46	0x3d00fc65	0.031490702
47	0xbc3979a2	-0.011320503
48	0x3ddb48b9	0.1070723
49	0xbd6aecac	-0.057354614
50	0xbe2df491	-0.16987826
51	0xbd33dc0a	-0.043911017
52	0x3d18e7de	0.0373305
53	0xbde3b180	-0.1111784
54	0xbd80dccb	-0.06292113
55	0x3cf8f485	0.030390033
56	0xba832836	-0.0010006491
57	0xbd35eb5c	-0.04441391
58	0xbd5da4e8	-0.054112345
59	0x3df3e31c	0.11908552
60	0xbd418103	-0.047242176
61	0xbe083328	-0.13300765
62	0xbdc0bfbf	-0.09411573
63	0x3d79ec69	0.061016474
64	0xbd29b4e9	-0.041432295
65	0xbd9c2fa3	-0.076262735
66	0xbda597c7	-0.0808559
67	0xbca7e506	-0.02049495
68	0x3dc05211	0.09390653
69	0x3d011011	0.031509463
70	0xbd10b6c9	-0.035330568
71	0xbdc9d38d	-0.09854803
72	0xbc170c04	-0.009219173
73	0x3ca1283a	0.019672502
74	0x3dc4b312	0.096044675
75	0x3d6e458a	0.058171786
76	0x3cafdc2c	0.02146729
77	0x3da89664	0.0823181
78	0xbd49f4b4	-0.049305633
79	0x3cd679e1	0.026181163
80	0x3d673b3a	0.056452967
81	0xbd0dc054	-0.034607247
82	0x3d32893c	0.04358791
83	0x3b38047b	0.0028078842
84	0x3ccb1a53	0.024792826
85	0xbd1b1a5f	-0.037866946
86	0x3d97ea92	0.074177876
87	0xbd8808ef	-0.06642329
88	0x3d8b5aad	0.068044044
89	0xbdfad7c5	-0.12248186
90	0xbd5d852e	-0.05408209
91	0xbd916b25	-0.07100514
92	0xbcef9bb1	-0.029249044
93	0xbc9eb5d9	-0.019373821
94	0xbdd1e868	-0.10249406
95	0x3dab2725	0.083570756
96	0x3d105fa4	0.03524746
97	0x3ddcc121	0.10779024
98	0xbda1f76a	-0.079085186
99	0xbddcda85	-0.10783867
100	0x3d0755dc	0.033040866
101	0x3e033ea9	0.12816872
102	0x3da2d0ef	0.07950007
103	0x3cf48cc0	0.029852271
104	0xbb77346f	-0.0037720462
105	0x3db68226	0.089115426
106	0xbd1d2661	-0.03836668
107	0xbdeec9e3	-0.116596006
108	0xbe069dbb	-0.13146107
109	0xbdc92ec0	-0.0982337
110	0x3d2b5e20	0.04183781
111	0x3e0b6095	0.13611062
112	0x3d976693	0.07392611
113	0xbdad3ab2	-0.08458461
114	0x3d130327	0.03589168
115	0x3dcd652a	0.10029061
116	0xbcfc2dae	-0.0307835
117	0xbd063821	-0.032768372
118	0xbd9c4ae0	-0.07631469
119	0xbb6ac237	-0.0035821327
120	0x3dac3eff	0.08410453
121	0xbd02788e	-0.03185325
122	0xbc208c7f	-0.009799122
123	0x3d8064bf	0.06269216
124	0xbd36d47f	-0.044636246
125	0xbda0cbab	-0.078513466
126	0x3ceaad08	0.02864696
127	0x3d893dbe	0.067012295
128	0x3d84c7b9	0.064834066
129	0x3c9dac79	0.01924728
130	0xbd712a64	-0.058878317
131	0x3dcf564c	0.10123882
132	0xbc9ec0c4	-0.019379027
133	0xbc238e2f	-0.00998263
134	0xbdb7f42b	-0.08982118
135	0xbd635655	-0.055502255
136	0xbde8532e	-0.1134399
137	0x3d0727e9	0.032997046
138	0x3db6bbe1	0.08922554
139	0xbc43f6a2	-0.011960657
140	0x3daee014	0.08538833
141	0xbc41358d	-0.011792553
142	0xbbd85bba	-0.0066027315
143	0xbdfaad17	-0.122400455
144	0xbe068e7a	-0.13140288
145	0x3dedb298	0.1160633
146	0x3d8732ee	0.06601511
147	0x3e1c0df5	0.15239699
148	0xbc4a1102	-0.012333157
149	0x3d808bda	0.062766746
150	0xbcfd0253	-0.030884897
151	0x3ddcd90f	0.10783588
152	0xbdb13e9e	-0.086545214
153	0xbd9af09b	-0.07565423
154	0xbe0c7b5f	-0.13718937
155	0x3c494537	0.0122845685
156	0xbd8445da	-0.06458636
157	0xbdbbb750	-0.091658235
158	0x3d3304ee	0.043705873
159	0x3de3b0dc	0.111177176
160	0x3da80d62	0.082056776
161	0x3e0fe88b	0.14053552
162	0xbce85d21	-0.02836472
163	0x3d8276e7	0.06370335
164	0xbdec9110	-0.11551106
165	0x3db902f3	0.09033766
166	0x3c3712d7	0.011173925
167	0x3dc2528e	0.09488402
168	0xbd580717	-0.052741136
169	0x3d8883b2	0.06665744
170	0xbcf2b44a	-0.029626984
171	0xbde37d9b	-0.11107942
172	0xbda8e166	-0.08246116
173	0x3dd3f19a	0.10348816
174	0x3d8afb8e	0.067862615
175	0x3c7f3410	0.0155763775
176	0xbd8dc6ab	-0.069226585
177	0x3d55f3e8	0.05223456
178	0x3e27aebd	0.16375251
179	0xbc77993d	-0.015112218
180	0xbd564093	-0.052307677
181	0xbdd4d5e9	-0.103923626
182	0x3db703ba	0.08936258
183	0xbd09be87	-0.033628967
184	0xbd62798f	-0.05529171
185	0x3d6aa581	0.057286743
186	0x3ba57067	0.0050488
187	0xbd71125b	-0.058855396
188	0xbe1be9d1	-0.15225913
189	0xbaf8f802	-0.001899481
190	0xbcd18242	-0.025574807
191	0xbc015928	-0.007894792
192	0xbdcdfbc7	-0.10057788
193	0x3db15e83	0.08660605
194	0x3db338e2	0.08751084
195	0x3dcbaf5c	0.099455565
196	0x3d8f4041	0.06994677
197	0xbcf77d86	-0.030211221
198	0x3e0ea119	0.13928641
199	0x3cce0f66	0.025153827
200	0x3c735c34	0.014853526
201	0x3d6ee2af	0.05832165
202	0xbe03f96f	-0.1288812
203	0x3dd21a64	0.1025894
204	0xbd040adb	-0.032236915
205	0xbdbc11c2	-0.091830745
206	0x3daf3578	0.0855512
207	0xbd9dd2ce	-0.077062234
208	0x3d7f0500	0.062260628
209	0xbdf784fa	-0.1208591
210	0xbcbb77d4	-0.022884287
211	0xbe21c7fa	-0.15798941
212	0x3dafdba1	0.08586813
213	0x3d535316	0.05159291
214	0x3dfe96be	0.124310955
215	0x3d1f14df	0.038838264
216	0xbd26b459	-0.040699337
217	0x3b957267	0.004560757
218	0x3d8e27c7	0.06941181
219	0xbdf2b46b	-0.11850818
220	0xbda39e6e	-0.079892024
221	0xbca40516	-0.020021956
222	0xbd79e9fb	-0.061014157
223	0xbcef4e2a	-0.029212076
224	0x3e0d275b	0.13784544
225	0x3c39da10	0.011343494
226	0xbe008aed	-0.12552996
227	0xbe0f3b6c	-0.13987511
228	0x3e0226d7	0.12710129
229	0xbd364c61	-0.044506434
230	0xbd18d40a	-0.03731159
231	0x3d2349e3	0.039865386
232	0xbdb2f7c3	-0.08738663
233	0xbd0c504e	-0.034256272
234	0xbd579b97	-0.052638616
235	0x3d98640a	0.07440956
236	0x3d878d44	0.06618741
237	0xbcd83e98	-0.026397035
238	0x3d7bea63	0.061502825
239	0xbd2ede78	-0.04269263
240	0xbdcbfc87	-0.09960275
241	0xbcb1c2ca	-0.021699328
242	0xbe23ba2a	-0.15988985
243	0xbdcdd090	-0.10049546
244	0xbdde64d3	-0.108590744
245	0xbd377c06	-0.044796012
246	0xbd76cec7	-0.060255792
247	0x3d325af3	0.043543767
248	0x3d72b688	0.059256107
249	0x3dc1f419	0.09470386
250	0xbdf149e6	-0.11781673
251	0x3e085868	0.13314974
252	0x3d624ccd	0.055249024
253	0x3da696af	0.08134209
254	0x3b4b41f5	0.0031014655
255	0xba8ce24d	-0.0010748595

reaction_module.residual_mlp.4.bias f4 [64]
0	0x3da20682	0.079113975
1	0x3d2db133	0.04240532
2	0x3dba6ee3	0.09103181
3	0xbcd60cdc	-0.026129179
4	0xbca23de8	-0.01980491
5	0xbdb84e39	-0.08999295
6	0x3d8a9f26	0.067686364
7	0xbcfe3741	-0.031032206
8	0xb8e38102	-0.00010848233
9	0x3deb2190	0.11481011
10	0xbc588465	-0.013215159
11	0xbd7e3c96	-0.062069498
12	0xbd991b7f	-0.074759476
13	0x3d877c62	0.06615521
14	0x3cc1dab0	0.023663849
15	0xbd4609f1	-0.048349325
16	0x3ddeabee	0.10872637
17	0x3d9fce3d	0.07803009
18	0xbcaaaa43	-0.02083314
19	0x3d176388	0.036960155
20	0xbdc699af	-0.096972816
21	0xbd8a9268	-0.06766206
22	0xbd60c2d0	-0.054873288
23	0x3d924bd7	0.071433716
24	0xbd3206fd	-0.043463696
25	0x3d820365	0.06348304
26	0xbdd70b38	-0.10500187
27	0x3d64c8ea	0.05585567
28	0xbe036c52	-0.1283429
29	0xbcd47807	-0.02593614
30	0x3e0c9b53	0.13731126
31	0xbd252e30	-0.04032725
32	0xbc8b2b53	-0.016988432
33	0x3d2a306c	0.041550085
34	0xbd554c55	-0.05207475
35	0x3be5cd1b	0.007012976
36	0xbd56ba5f	-0.05242383
37	0x3cfaf67b	0.03063511
38	0xbdb35ced	-0.087579586
39	0xbda6b3a7	-0.08139735
40	0xbd485726	-0.048911236
41	0x3bd8caf3	0.0066159903
42	0x3db8d612	0.09025206
43	0x3d2e6dbc	0.04258512
44	0xbdcf03c1	-0.10108138
45	0x3d69ff41	0.057128195
46	0x3de37435	0.11106149
47	0x3e172de3	0.14763598
48	0x3d44d859	0.048057888
49	0x3d9d51d5	0.07681624
50	0x3d91af33	0.07113495
51	0x3dd90e1e	0.10598396
52	0xbc815b86	-0.015790712
53	0x3c63670f	0.013879552
54	0x3dceea60	0.10103297
55	0xbd1f8c43	-0.038952123
56	0x3d8d0190	0.06885064
57	0x3dae16e7	0.08500462
58	0x3d143515	0.036183435
59	0xbdba8201	-0.091068275
60	0x3d8529b9	0.065020986
61	0x3d2990a8	0.04139772
62	0x3c41f1bd	0.01183742
63	0x3d808578	0.06275457
