generalizability/epidemiology/checkpoints_v2/checkpoint_epoch_30.pt (torch, 492712 bytes, 94 tensors)

graph_laplacian.laplacian f4 [200, 200]
-0.008130083 -0.008130082 -0.0 -0.0 -0.008130082 -0.008130082 -0.008130082 -0.0
-0.008130082 -0.008130082 -0.008130082 -0.008130082 -0.008130082 -0.0 -0.008130082 -0.008130082
-0.0 -0.008130082 -0.0 -0.0 -0.0 -0.008130081 -0.008130082 -0.008130081
-0.008130082 -0.008130082 -0.008130082 -0.008130082 -0.0 -0.008130081 -0.008130082 -0.008130082
-0.0 -0.008130082 -0.008130082 -0.008130082 -0.008130082 -0.0 -0.008130082 -0.008130082
-0.008130083 -0.008130082 -0.0 -0.008130082 -0.0 -0.008130082 -0.008130082 -0.008130082
-0.008130082 -0.008130082 -0.008130082 -0.008130082 -0.0 -0.0 -0.008130082 -0.008130083
-0.0 -0.0 -0.008130082 -0.008130082 -0.008130082 -0.008130082 -0.008130082 -0.0
-0.008130082 -0.0 -0.008130081 -0.0 -0.0 -0.0 -0.008130082 -0.008130082
-0.008130082 -0.008130082 -0.008130082 -0.008130083 -0.008130082 -0.008130081 -0.008130082 -0.008130082
-0.008130082 -0.008130083 -0.008130082 -0.008130082 -0.0 -0.0 -0.008130082 -0.0
-0.0 -0.0 -0.008130082 -0.008130083 -0.0 -0.008130082 -0.008130082 -0.008130082
-0.008130082 -0.0 -0.0 -0.008130082 -0.008130082 -0.008130082 -0.0 -0.0
-0.008130082 -0.0 -0.008130082 -0.0 -0.008130082 -0.008130082 -0.008130082 -0.008130082
-0.008130082 -0.0 -0.0 -0.0 -0.008130082 -0.0 -0.0 -0.008130081
-0.008130083 -0.008130083 -0.0 -0.008130082 -0.008130082 -0.008130082 -0.008130082 -0.0
-0.0 -0.008130082 -0.0 -0.008130082 -0.0 -0.008130082 -0.008130082 -0.0
-0.008130082 -0.008130082 -0.0 -0.0 -0.0 -0.0 -0.0 -0.008130082
-0.008130082 -0.008130081 -0.008130082 -0.0 -0.0 -0.008130083 -0.0 -0.008130082
-0.008130082 -0.0 -0.0 -0.0 -0.008130082 -0.0 -0.008130083 -0.008130082
-0.0 -0.008130082 -0.0 -0.008130082 -0.0 -0.0 -0.0 -0.0
-0.008130083 -0.0 -0.008130082 -0.0 -0.0 -0.0 -0.0 -0.008130082
-0.008130081 -0.008130082 -0.008130082 -0.0 -0.008130082 -0.008130081 -0.008130082 -0.008130082
-0.0 -0.008130082 -0.0 -0.0 -0.008130082 -0.008130083 -0.008130082 -0.008130082
-0.008130082 -0.0 -0.008130083 -0.0 -0.0 -0.0 -0.0 -0.008130082
-0.009708739 -0.009708738 -0.0 -0.0 -0.009708738 -0.0 -0.009708738 -0.0
-0.009708738 -0.009708738 -0.009708738 -0.009708738 -0.009708738 -0.009708738 -0.009708738 -0.0
-0.0 -0.009708738 -0.0 -0.0 -0.0 -0.009708737 -0.009708738 -0.009708737
-0.009708738 -0.009708738 -0.0 -0.009708738 -0.0 -0.009708737 -0.0 -0.009708738
-0.0 -0.0 -0.009708738 -0.009708738 -0.0 -0.0 -0.009708738 -0.009708738
-0.009708739 -0.009708738 -0.0 -0.009708738 -0.0 -0.009708738 -0.009708738 -0.009708738
-0.009708738 -0.009708738 -0.009708738 -0.0 -0.0 -0.0 -0.009708738 -0.009708739
00000000: 0a34 05bc 0934 05bc 0000 0080 0000 0080
00000010: 0934 05bc 0934 05bc 0934 05bc 0000 0080
00000020: 0934 05bc 0934 05bc 0934 05bc 0934 05bc
00000030: 0934 05bc 0000 0080 0934 05bc 0934 05bc
00000040: 0000 0080 0934 05bc 0000 0080 0000 0080
00000050: 0000 0080 0834 05bc 0934 05bc 0834 05bc
00000060: 0934 05bc 0934 05bc 0934 05bc 0934 05bc
00000070: 0000 0080 0834 05bc 0934 05bc 0934 05bc
00000080: 0000 0080 0934 05bc 0934 05bc 0934 05bc
00000090: 0934 05bc 0000 0080 0934 05bc 0934 05bc
000000a0: 0a34 05bc 0934 05bc 0000 0080 0934 05bc
000000b0: 0000 0080 0934 05bc 0934 05bc 0934 05bc
000000c0: 0934 05bc 0934 05bc 0934 05bc 0934 05bc
000000d0: 0000 0080 0000 0080 0934 05bc 0a34 05bc
000000e0: 0000 0080 0000 0080 0934 05bc 0934 05bc
000000f0: 0934 05bc 0934 05bc 0934 05bc 0000 0080
00000100: 0934 05bc 0000 0080 0834 05bc 0000 0080
00000110: 0000 0080 0000 0080 0934 05bc 0934 05bc
00000120: 0934 05bc 0934 05bc 0934 05bc 0a34 05bc
00000130: 0934 05bc 0834 05bc 0934 05bc 0934 05bc
00000140: 0934 05bc 0a34 05bc 0934 05bc 0934 05bc
00000150: 0000 0080 0000 0080 0934 05bc 0000 0080
00000160: 0000 0080 0000 0080 0934 05bc 0a34 05bc
00000170: 0000 0080 0934 05bc 0934 05bc 0934 05bc
00000180: 0934 05bc 0000 0080 0000 0080 0934 05bc
00000190: 0934 05bc 0934 05bc 0000 0080 0000 0080
000001a0: 0934 05bc 0000 0080 0934 05bc 0000 0080
000001b0: 0934 05bc 0934 05bc 0934 05bc 0934 05bc
000001c0: 0934 05bc 0000 0080 0000 0080 0000 0080
000001d0: 0934 05bc 0000 0080 0000 0080 0834 05bc
000001e0: 0a34 05bc 0a34 05bc 0000 0080 0934 05bc
000001f0: 0934 05bc 0934 05bc 0934 05bc 0000 0080
00000200: 0000 0080 0934 05bc 0000 0080 0934 05bc
00000210: 0000 0080 0934 05bc 0934 05bc 0000 0080
00000220: 0934 05bc 0934 05bc 0000 0080 0000 0080
00000230: 0000 0080 0000 0080 0000 0080 0934 05bc
00000240: 0934 05bc 0834 05bc 0934 05bc 0000 0080
00000250: 0000 0080 0a34 05bc 0000 0080 0934 05bc
00000260: 0934 05bc 0000 0080 0000 0080 0000 0080
00000270: 0934 05bc 0000 0080 0a34 05bc 0934 05bc
00000280: 0000 0080 0934 05bc 0000 0080 0934 05bc
00000290: 0000 0080 0000 0080 0000 0080 0000 0080
000002a0: 0a34 05bc 0000 0080 0934 05bc 0000 0080
000002b0: 0000 0080 0000 0080 0000 0080 0934 05bc
000002c0: 0834 05bc 0934 05bc 0934 05bc 0000 0080
000002d0: 0934 05bc 0834 05bc 0934 05bc 0934 05bc
000002e0: 0000 0080 0934 05bc 0000 0080 0000 0080
000002f0: 0934 05bc 0a34 05bc 0934 05bc 0934 05bc
00000300: 0934 05bc 0000 0080 0a34 05bc 0000 0080
00000310: 0000 0080 0000 0080 0000 0080 0934 05bc
00000320: 6711 1fbc 6611 1fbc 0000 0080 0000 0080
00000330: 6611 1fbc 0000 0080 6611 1fbc 0000 0080
00000340: 6611 1fbc 6611 1fbc 6611 1fbc 6611 1fbc
00000350: 6611 1fbc 6611 1fbc 6611 1fbc 0000 0080
00000360: 0000 0080 6611 1fbc 0000 0080 0000 0080
00000370: 0000 0080 6511 1fbc 6611 1fbc 6511 1fbc
00000380: 6611 1fbc 6611 1fbc 0000 0080 6611 1fbc
00000390: 0000 0080 6511 1fbc 0000 0080 6611 1fbc
000003a0: 0000 0080 0000 0080 6611 1fbc 6611 1fbc
000003b0: 0000 0080 0000 0080 6611 1fbc 6611 1fbc
000003c0: 6711 1fbc 6611 1fbc 0000 0080 6611 1fbc
000003d0: 0000 0080 6611 1fbc 6611 1fbc 6611 1fbc
000003e0: 6611 1fbc 6611 1fbc 6611 1fbc 0000 0080
000003f0: 0000 0080 0000 0080 6611 1fbc 6711 1fbc

reaction_module.encoder.0.weight f4 [64, 5]
0.31357637 0.35786635 -0.10726957 0.38450024 -0.13937543 0.06681432 -0.22607328 0.2324883
0.35392827 -0.36234388 0.33936107 0.04807617 0.2802818 0.020614842 0.26189497 -0.055301584
0.3471933 0.08135562 -0.20625424 0.21341397 -0.083191946 0.0068206224 -0.10645261 0.2706143
-0.38585663 -0.14975576 -0.03296678 -0.22012167 0.031910334 -0.45579475 0.34283274 -0.39955008
0.29565525 0.03245435 -0.2135559 0.25871766 0.05736134 0.33325917 0.031783756 -0.18098174
0.050846193 -0.14556308 0.1285103 0.32250473 0.22675902 -0.18274498 0.27493298 0.08418028
0.23741968 -0.3445903 -0.43772227 -0.19581369 -0.31870395 0.41178364 0.25196168 0.16848847
0.11043115 -0.04401575 0.30272114 -0.42565382 0.118776895 -0.22565056 0.16837934 -0.124248385
0.1336339 -0.0033109274 0.41111422 -0.17258851 -0.16301753 -0.36930117 0.3657341 0.109169655
0.39529124 -0.42916957 -0.55636615 -0.3066512 -0.20666306 0.21538986 0.20580272 0.35722125
-0.20538236 -0.24034663 0.30831704 -0.14105733 0.26867568 -0.056797415 0.27870885 -0.3274622
-0.17748526 0.27692944 0.09403135 -0.09774031 0.24431679 0.2949328 -0.37335268 -0.16681565
0.45670167 -0.11486099 -0.10387742 -0.55914545 -0.21183337 0.19202648 -0.07571151 -0.26591396
0.061670214 -0.26866984 -0.36890492 -0.19446753 -0.37853277 -0.30453813 0.4223461 0.05993359
0.110227056 -0.41162392 -0.43263608 -0.098586634 0.08083165 -0.37078148 -0.19016811 -0.2687915
-0.036782235 -0.13039796 -0.0017316025 -0.29296118 -0.3661067 -0.1468634 -0.04139524 -0.28701153
0.47356737 0.01183654 0.34441885 0.079254344 -0.42935544 0.27745056 -0.08779574 -0.1761757
-0.3961795 -0.42629704 0.16951546 -0.20485605 0.2083406 -0.31701633 0.35355508 -0.35031155
-0.15098211 0.0722512 0.20470223 0.3331453 0.37701303 -0.37380126 0.16075505 -0.11871492
0.006936563 -0.24578291 0.4975775 -0.33283642 0.22120135 0.14798748 0.14211743 -0.2958979
0.41733736 0.10650029 0.056381132 -0.41324022 0.24941516 -0.06792342 -0.21572948 0.38728312
0.11380961 -0.15026805 -0.25549436 -0.0071810433 0.2959816 -0.16822234 -0.25733432 -0.107900985
-0.2889044 0.20710447 0.3921925 -0.39628306 0.08821536 0.19075862 0.05741577 -0.1814848
0.29650113 0.22069807 0.1509943 -0.09522419 -0.12987897 -0.0064771036 -0.06895714 -0.11130997
0.2757538 0.36969036 -0.08551056 -0.09579065 0.002346233 -0.027045598 0.10258652 0.16574903
-0.41284668 -0.12929332 0.39057058 0.15467122 -0.048966136 -0.2255816 -0.23965001 -0.3298373
-0.16259803 0.075299144 0.31440026 0.23508684 -0.35941574 -0.21306275 -0.0894782 0.40577602
-0.008980976 -0.1455497 0.13729987 -0.28250974 -0.24288964 0.3931731 -0.14498156 -0.05791866
-0.49526426 0.29161543 0.3364189 0.17422388 -0.2930286 -0.511363 -0.39436466 0.3292594
0.20550379 0.343221 0.35289666 0.17393883 0.0203042 -0.2353985 -0.48657432 -0.5082665
0.21659958 -0.17042845 -0.06687823 -0.2682793 -0.06772595 -0.25949487 -0.23110613 0.23749849
-0.037121266 0.30138722 -0.07228346 -0.2633792 0.013851915 -0.16222176 -0.032226477 -0.44667742
00000000: 158d a03e 423a b73e 26b0 dbbd 37dd c43e
00000010: 6fb8 0ebe f2d5 883d c17f 67be 6a11 6e3e
00000020: 1636 b53e 2385 b9be bcc0 ad3e 85eb 443d
00000030: 1981 8f3e 75e0 a83c 1917 863e ea83 62bd
00000040: 52c3 b13e c69d a63d 5034 53be 3189 5a3e
00000050: 8a60 aabd 877f df3b d303 dabd f58d 8a3e
00000060: 008f c5be 9359 19be 2d08 07bd 9367 61be
00000070: 69b4 023d ee5d e9be c687 af3e d491 ccbe
00000080: 2060 973e daee 043d 66ae 5abe a476 843e
00000090: b9f3 6a3d f2a0 aa3e af2f 023d 4753 39be
000000a0: 1944 503d 7d0e 15be 3498 033e 571f a53e
000000b0: 8433 683e 8021 3bbe 04c4 8c3e b666 ac3d
000000c0: 251e 733e 246e b0be 221d e0be 6283 48be
000000d0: 2a2d a3be 4ed5 d23e 1f01 813e 3e88 2c3e
000000e0: ba29 e23d dc49 34bd 44fe 9a3e 4cef d9be
000000f0: 4d41 f33d f110 67be a26b 2c3e f075 febd
00000100: 53d7 083e 25fc 58bb 907d d23e 0bbb 30be
00000110: 11ee 26be 0b15 bdbe 8041 bb3e 5794 df3d
00000120: 9d63 ca3e 1dbc dbbe 036e 0ebf 6301 9dbe
00000130: 7b9f 53be 298f 5c3e f3bd 523e b4e5 b63e
00000140: c14f 52be 6d1d 76be bbdb 9d3e 5571 10be
00000150: dc8f 893e 68a4 68bd edb2 8e3e 20a9 a7be
00000160: b2be 35be b2c9 8d3e 8293 c03d 122c c8bd
00000170: 2e2e 7a3e 6f01 973e 1528 bfbe b9d1 2abe
00000180: cdd4 e93e 3d3c ebbd afbd d4bd 2824 0fbf
00000190: d9ea 58be 97a2 443e a30e 9bbd e025 88be
000001a0: e899 7c3d 188f 89be 1be1 bcbe 7f22 47be
000001b0: 0ccf c1be 6cec 9bbe bf3d d83e ed7c 753d
000001c0: b9be e13d 5fc0 d2be 7a82 ddbe cae7 c9bd
000001d0: 108b a53d 12d7 bdbe 6ebb 42be 0a9f 89be
000001e0: f8a8 16bd 0b87 05be f0f6 e2ba 02ff 95be
000001f0: 5672 bbbe 5c63 16be 0e8e 29bd 2df3 92be
00000200: 6c77 f23e 0cee 413c ab57 b03e 1a50 a23d
00000210: 7ad4 dbbe 000e 8e3e 41ce b3bd 6767 34be
00000220: 0ad8 cabe 9b43 dabe 7695 2d3e c9c5 51be
00000230: 3d57 553e f74f a2be 2c05 b53e 095c b3be
00000240: 0e9b 1abe 70f8 933d 769d 513e 0592 aa3e
00000250: da07 c13e e162 bfbe f99c 243e cf20 f3bd
00000260: 1c4c e33b 84ae 7bbe 7ac2 fe3e 8969 aabe
00000270: 9b82 623e 088a 173e 3b87 113e ee7f 97be
00000280: 3ead d53e d31c da3d e7ef 663d 3994 d3be
00000290: b066 7f3e 6f1b 8bbd 30e8 5cbe f949 c63e
000002a0: 0315 e93d dedf 19be 28d0 82be f54e ebbb
000002b0: e68a 973e 7a42 2cbe 53c1 83be 31fb dcbd
000002c0: 47eb 93be 3213 543e 75cd c83e 9de5 cabe
000002d0: 41aa b43d 3a56 433e cc2c 6b3d 27d7 39be
000002e0: ffce 973e adfe 613e 409e 1a3e e604 c3bd
000002f0: fefe 04be e23d d4bb 6739 8dbd 7bf6 e3bd
00000300: 9a2f 8d3e 0e48 bd3e 2920 afbd e32d c4bd
00000310: 42c3 193b bb8e ddbc e218 d23d 1dba 293e
00000320: a460 d3be 7865 04be def8 c73e 2262 1e3e
00000330: b790 48bd ddfe 66be d066 75be 6fe0 a8be
00000340: 1980 26be 7036 9a3d 12f9 a03e 9bba 703e
00000350: 5705 b8be 1f2d 5abe 5940 b7bd e0c1 cf3e
00000360: f224 13bc fb0a 15be 5698 0c3e 1ea5 90be
00000370: 10b8 78be fc4d c93e 0c76 14be 1e3c 6dbd
00000380: 4793 fdbe 9e4e 953e 193f ac3e bf67 323e
00000390: d807 96be b0e8 02bf 2aea c9be b094 a83e
000003a0: 966f 523e aaba af3e dfae b43e 051d 323e
000003b0: fe54 a63c 4e0c 71be 4520 f9be c11d 02bf
000003c0: 48cc 5d3e cc84 2ebe 74f7 88bd e85b 89be
000003d0: e7b3 8abd 83dc 84be 16a7 6cbe ce32 733e
000003e0: 780c 18bd 6d4f 9a3e 5a09 94bd a3d9 86be
000003f0: 24f3 623c 761d 26be e9ff 03bd e7b2 e4be

reaction_module.encoder.0.bias f4 [64]
-0.35400155 -0.13257705 0.31114668 0.20447238 -0.24149036 -0.21388799 -0.31493804 -0.47557187
-0.3949468 -0.12149957 0.32284924 0.05593062 -0.2088086 -0.27152595 0.19912925 -0.32141197
-0.04377126 0.21911943 -0.20465979 -0.019567315 -0.0044088084 -0.11331369 -0.22851332 -0.28363225
-0.363418 -0.19632377 0.45421326 -0.15542836 -0.24987917 0.060605977 0.16752386 0.22143671
0.3553764 0.2523041 -0.36514753 0.06743651 0.28855062 -0.08163195 -0.26800132 0.4489779
-0.21397433 -0.21697836 -0.37352136 0.085362166 0.1940079 0.05033986 0.058833916 -0.23116322
-0.342179 0.030069519 0.4090477 0.23280925 -0.22963475 -0.039246153 -0.3342287 -0.16962455
0.077513196 0.22749189 0.3701476 -0.28580382 0.32261467 -0.32908192 0.1936071 0.40044737
00000000: b13f b5be 47c2 07be 9e4e 9f3e 3561 513e
00000010: 4049 77be 7405 5bbe 8f3f a1be 287e f3be
00000020: 7836 cabe c4d4 f8bd 7f4c a53e 8117 653d
00000030: ecd1 55be 7305 8bbe 8ae8 4b3e 1c90 a4be
00000040: 7e49 33bd d860 603e 5692 51be a24b a0bc
00000050: c477 90bb 0211 e8bd 65ff 69be 3f38 91be
00000060: ed11 babe 1909 49be a48e e83e 9d28 1fbe
00000070: 53e0 7fbe f93d 783d 608b 2b3e 4ec0 623e
00000080: e5f3 b53e 012e 813e 9ef4 babe 271c 8a3d
00000090: e8bc 933e a72e a7bd 7837 89be 6ee0 e53e
000000a0: 161c 5bbe 932f 5ebe 313e bfbe 5cd2 ae3d
000000b0: 02aa 463e 2b31 4e3d d5fb 703d 0db6 6cbe
000000c0: 1632 afbe 5a54 f63c b36e d13e 8c65 6e3e
000000d0: 5f25 6bbe 93c0 20bd 0620 abbe 0fb2 2dbe
000000e0: 3dbf 9e3d a2f3 683e fc83 bd3e e154 92be
000000f0: c02d a53e 6d7d a8be f140 463e 7007 cd3e

reaction_module.encoder.1.weight f4 [64]
0.98478407 0.95235825 0.9550972 1.0022533 0.9658911 1.0013161 0.91798574 0.9922039
0.9323718 1.0326025 1.115327 0.9712446 0.9174013 0.97731096 0.9763808 0.99294776
1.0151621 1.0437771 0.9842096 1.0544277 1.1017884 1.0121821 0.9726975 0.9972381
1.0307404 1.0933936 0.9955068 1.0541842 1.0239483 0.95459515 1.0372796 0.971581
1.0361087 0.99684393 1.1103611 1.0083696 1.0085148 0.9659428 0.98132205 1.0170083
1.0327135 1.0447289 0.9971846 0.95715487 1.0184737 0.9749338 0.99893415 1.0487086
1.0343747 1.0491363 0.9795811 1.0384667 0.9416507 1.035569 0.99188495 1.0134517
0.9990955 0.9988145 0.99674505 0.99476117 0.9762631 1.0104353 1.0239533 0.97915024
00000000: cf1a 7c3f c0cd 733f 4081 743f d649 803f
00000010: a444 773f 202b 803f 1d01 6b3f 1301 7e3f
00000020: ebaf 6e3f 522c 843f 09c3 8e3f 7ca3 783f
00000030: d0da 6a3f 0d31 7a3f 18f4 793f d331 7e3f
00000040: d5f0 813f 7d9a 853f 29f5 7b3f 7df7 863f
00000050: 6707 8d3f 2f8f 813f b402 793f ff4a 7f3f
00000060: 4def 833f 52f4 8b3f 89d9 7e3f 82ef 863f
00000070: bd10 833f 5960 743f 94c5 843f 88b9 783f
00000080: 369f 843f 2a31 7f3f 5020 8e3f 4112 813f
00000090: 0317 813f 0748 773f ec37 7b3f 542d 823f
000000a0: f52f 843f adb9 853f 7d47 7f3f 1a08 753f
000000b0: 595d 823f 4395 793f 26ba 7f3f 153c 863f
000000c0: 6466 843f 194a 863f d4c5 7a3f 7aec 843f
000000d0: 0510 713f 868d 843f 2cec 7d3f c9b8 813f
000000e0: b9c4 7f3f 4fb2 7f3f af2a 7f3f aba8 7e3f
000000f0: 61ec 793f f255 813f e710 833f 97a9 7a3f

reaction_module.encoder.1.bias f4 [64]
-0.033989932 -0.052809235 -0.056023713 -0.006414037 -0.0014894019 0.020565497 -0.05523201 -0.029086657
-0.07092565 -0.005735871 0.03776566 -0.049900804 0.029871939 0.06011947 -0.047233235 0.027697088
0.023462746 0.021570507 -0.02516523 0.024271797 0.059967652 -0.015148684 -0.024554124 0.004347539
-0.04175394 0.08294815 -0.030587133 0.04382825 0.011581612 -0.05022045 0.05317049 -0.02689533
-0.0059231776 0.00023110434 0.010150762 0.0013583729 -0.007848722 -0.04364881 -0.017560115 0.0057769534
-0.011710193 -0.016883524 0.024906298 -0.052772384 0.0066776425 -0.030359123 -0.021876259 0.05694249
-0.024754386 0.072637536 -0.0028850224 -0.017129824 -0.040220372 -0.005700764 -0.0129711665 0.009335684
-0.027188746 -0.014260841 0.033334356 0.015341425 0.058618166 -0.01857234 3.769118e-05 -0.019544564
00000000: 0739 0bbd 7f4e 58bd 1f79 65bd d82c d2bb
00000010: 0938 c3ba f978 a83c f63a 62bd 2447 eebc
00000020: 7841 91bd f9f3 bbbb 2ab0 1a3d c964 4cbd
00000030: ffb5 f43c d53f 763d a377 41bd 01e5 e23c
00000040: f234 c03c a2b4 b03c 5027 cebc a6d5 c63c
00000050: a4a0 753d 3032 78bc bb25 c9bc cd75 8e3b
00000060: 2e06 2bbd b8e0 a93d de91 fabc 4085 333d
00000070: cdc0 3d3c f5b3 4dbd 4dc9 593d 9853 dcbc
00000080: 3717 c2bb 9954 7239 624f 263c 6e0b b23a
00000090: ed97 00bc 18c9 32bd 3bda 8fbc 994c bd3b
000000a0: 1cdc 3fbc 514f 8abc 4b08 cc3c db27 58bd
000000b0: 20d0 da3b b2b3 f8bc d735 b3bc 873c 693d
000000c0: b6c9 cabc fdc2 943d a512 3dbb d853 8cbc
000000d0: 1ebe 24bd 79cd babb 0485 54bc b2f4 183c
000000e0: efba debc 4da6 69bc 9b89 083d 9a5a 7b3c
000000f0: 9a19 703d 0525 98bc 9916 1e38 ec1b a0bc

reaction_module.encoder.4.weight f4 [64, 64]
-0.0057414453 0.09790866 -0.10780461 -0.023513347 0.07013763 -0.07569691 -0.0244057 -0.05929706
0.07391427 0.069724105 0.07809416 -0.06976119 -0.08880759 0.06708057 0.037492163 0.0015475468
0.019919641 0.1227343 0.0075292443 0.061198693 0.010283825 -0.1419977 -0.090791464 -0.07645631
-0.10501093 0.07470899 -0.042710718 -0.08071281 0.15380472 0.03880226 0.13296321 -0.050997186
-0.020997154 0.05948913 -0.041530583 -0.064184 0.0072404416 -0.027615588 -0.09759982 0.093137525
0.116027065 -0.011469688 0.022142693 -0.13498099 -0.020443335 0.045730192 0.06251528 -0.04440499
-0.065380126 0.13621609 -0.09640984 0.1216312 -0.03673258 -0.061272096 -0.00088380015 0.023771932
-0.056202684 0.11265465 0.012174485 0.07315339 0.119815096 -0.07225978 -0.07546135 0.10953964
0.09213595 -0.10949718 -0.04210087 -0.16645236 -0.12499633 0.06330063 0.059007358 0.0395693
-0.06313462 0.044156864 0.04290739 -0.09633749 -0.019550389 0.015491819 0.13167877 -0.17257209
0.108151704 -0.048926663 -0.12629312 -0.015304147 0.17780752 0.13993627 0.13584848 0.07446103
0.069498114 -0.038713872 -0.06384138 0.092668034 0.009456533 -0.099670194 -0.049446207 0.041472074
0.079003714 0.0015533541 -0.070323355 0.07740952 -0.13090721 -0.14012846 0.03065232 -0.022624772
0.1303375 0.17038214 0.04019563 0.024807505 0.06756673 0.0493644 -0.09235477 0.064416654
0.04402896 0.19175702 0.025567554 -0.06609356 -0.031659245 0.016839664 -0.029236684 0.12670803
0.15716887 0.09045979 -0.04297781 -0.06970016 0.030883173 -0.048501916 -0.068662785 -0.11889884
0.027935734 -0.08855104 -0.06601661 -0.059160195 0.048891764 -0.1680156 0.14942797 0.045676574
-0.04074644 0.07738752 -0.112237304 0.045849256 0.072371945 -0.08259429 0.11036329 -0.060705967
-0.034834065 -0.025301961 0.053279813 0.01737385 -0.009173044 0.13784496 0.17105897 -0.042754214
-0.1323964 -0.0026593432 -0.104522176 0.05192896 0.03644826 -0.016208598 -0.05853738 0.0580302
0.15869482 0.06667304 0.024976773 0.08719923 0.11598216 -0.029492069 -0.03302801 0.041794427
-0.06022613 -0.037663143 0.018243525 -0.10358131 0.0890397 0.07225807 0.032441765 0.2424718
0.097872 0.042333882 0.01664526 -0.17902519 -0.022512946 -0.010302768 -0.1149242 -0.0829672
-0.087502345 -0.10618635 -0.11487348 -0.17200859 -0.044568934 0.09001418 0.063249506 0.012911768
-0.06271267 0.08261441 -0.095397346 -0.094514124 0.062944405 -0.1320692 0.060870722 0.118254274
-0.013439099 0.028464511 -0.07414537 -0.026258986 0.050566703 0.06624321 0.09840857 0.1227459
0.021121958 0.033533122 -0.055621557 -0.05153377 0.023349976 -0.17118275 0.11397422 0.004453833
-0.08121161 0.060627576 -0.15786938 -0.088643126 0.10153266 -0.113387726 -0.1124862 -0.0166958
0.073074 0.16280024 0.16159566 -0.025694404 -0.14441246 0.0515426 0.025387302 -0.03157428
0.083139576 -0.028204704 -0.013041331 0.08734942 -0.02622813 0.01439878 -0.14723064 -0.05281649
0.029788824 0.053220488 0.02955133 0.0145015 -0.08603652 0.040800348 -0.13168395 0.015774157
0.06472747 0.11939212 0.024989776 -0.027129907 -0.09934815 -0.08206446 -0.1800524 -0.030955251
00000000: bc22 bcbb 5684 c83d aac8 dcbd 109f c0bc
00000010: 51a4 8f3d fb06 9bbd 76ee c7bc 79e1 72bd
00000020: 5d60 973d 83cb 8e3d d5ef 9f3d f4de 8ebd
00000030: c1e0 b5bd 8a61 893d 6291 193d 0ed7 ca3a
00000040: 842e a33c 1f5c fb3d e1b7 f63b 7bab 7a3d
00000050: 7d7d 283c d867 11be e0f0 b9bd 2095 9cbd
00000060: f80f d7bd 0701 993d 6ff1 2ebd c24c a5bd
00000070: fc7e 1d3e 1eef 1e3d 8227 083e 6de2 50bd
00000080: 3902 acbc e0aa 733d f91b 2abd e772 83bd
00000090: 3a41 ed3b 163a e2bc 6ae2 c7bd e3be be3d
000000a0: 999f ed3d 5ceb 3bbc 9864 b53c 7538 0abe
000000b0: c878 a7bc 954f 3b3d 0308 803d 02e2 35bd
000000c0: 04e6 85bd 3b7c 0b3e 8672 c5bd c719 f93d
000000d0: e774 16bd 73f8 7abd d3ae 67ba 5bbd c23c
000000e0: c934 66bd 7bb7 e63d 7e77 473c 72d1 953d
000000f0: 9e61 f53d effc 93bd 7b8b 9abd 5256 e03d
00000100: c6b1 bc3d 0f40 e0bd f671 2cbd 7d72 2abe
00000110: 13fe ffbd c3a3 813d b3b1 713d 6b13 223d
00000120: b94c 81bd d4dd 343d a9bf 2f3d 974c c5bd
00000130: 2328 a0bc 66d1 7d3c cdd6 063e bdb6 30be
00000140: a47e dd3d 5367 48bd fc52 01be 3fbe 7abc
00000150: 2d13 363e 744b 0f3e dd1b 0b3e 067f 983d
00000160: 0755 8e3d 7092 1ebd 45bf 82bd bdc8 bd3d
00000170: 93ef 1a3c e31f ccbd 1b88 4abd 9fde 293d
00000180: b3cc a13d ea99 cb3a b105 90bd e288 9e3d
00000190: 8a0c 06be d67d 0fbe 931a fb3c 9657 b9bc
000001a0: 3277 053e a878 2e3e 2ca4 243d 1c39 cb3c
000001b0: 6d60 8a3d 5332 4a3d 7f24 bdbd e1ec 833d
000001c0: b657 343d f45b 443e 0c73 d13c 0f5c 87bd
000001d0: 20ad 01bd 56f3 893c c581 efbc c0bf 013e
000001e0: e0f0 203e fb42 b93d 8009 30bd f5be 8ebd
000001f0: b5fe fc3c f2a9 46bd 139f 8cbd 3c81 f3bd
00000200: 7bd9 e43c 3f5a b5bd b733 87bd f651 72bd
00000210: bb42 483d 480c 2cbe a503 193e 5c17 3b3d
00000220: bde5 26bd 597d 9e3d acdc e5bd 6ecc 3b3d
00000230: be37 943d 3227 a9bd 2606 e23d d2a6 78bd
00000240: 2aae 0ebd 0f46 cfbc ef3b 5a3d 9b53 8e3c
00000250: 894a 16bc 3b27 0d3e 152a 2f3e 0b1f 2fbd
00000260: ec92 07be 6048 2ebb b90f d6bd 76b3 543d
00000270: c54a 153d e5c7 84bc e4c4 6fbd 13b1 6d3d
00000280: e580 223e e08b 883d 179c cc3c 8395 b23d
00000290: 0e88 ed3d 5a99 f1bc 6148 07bd a230 2b3d
000002a0: adaf 76bd ab44 1abd 7273 953c 7022 d4bd
000002b0: 725a b63d 0afc 933d a8e1 043d 874a 783e
000002c0: 1d71 c83d 4b66 2d3d a45b 883c 6152 37be
000002d0: 126d b8bc f1cc 28bc 615d ebbd b5ea a9bd
000002e0: 6e34 b3bd 3b78 d9bd c942 ebbd 0523 30be
000002f0: ea8d 36bd 5b59 b83d f588 813d e18b 533c
00000300: 806f 80bd be31 a93d af5f c3bd 9f90 c1bd
00000310: ffe8 803d 263d 07be 9453 793d 4c2f f23d
00000320: ab2f 5cbc 682e e93c 87d9 97bd 161d d7bc
00000330: 081f 4f3d 85aa 873d 6f8a c93d 3462 fb3d
00000340: f507 ad3c 075a 093d 6ed3 63bd 1315 53bd
00000350: 7348 bf3c 884a 2fbe 516b e93d 76f1 913b
00000360: 4652 a6bd 9f54 783d 83a8 21be 878a b5bd
00000370: 5bf0 cf3d d337 e8bd 2a5f e6bd a1c5 88bc
00000380: d2a7 953d 1bb5 263e 5579 253e 127d d2bc
00000390: dce0 13be 551e 533d 08f9 cf3c 0854 01bd
000003a0: 1545 aa3d 8d0d e7bc 4fab 55bc 41e4 b23d
000003b0: 60dc d6bc dce8 6b3c a1c3 16be 1b56 58bd
000003c0: b107 f43c bafd 593d a115 f23c b397 6d3c
000003d0: ea33 b0bd 441e 273d 28d8 06be ce38 813c
000003e0: d68f 843d db83 f43d 5cb7 cc3c 8a3f debc
000003f0: 0b77 cbbd 6911 a8bd a85f 38be de95 fdbc

reaction_module.encoder.4.bias f4 [64]
0.0034576769 -0.10449259 0.1217319 0.07648585 -0.096970715 -5.0327428e-05 0.07970396 -0.086895354
-0.1055185 0.05772043 0.015712993 0.0693985 -0.031736877 0.025524324 0.08857517 -0.007352035
-0.04802043 -0.107556924 -0.0039710267 0.09564714 -0.11404639 -0.011699813 0.09159661 -0.024980938
-0.053909108 -0.03905679 -0.052010927 0.018735833 -0.124943 0.024132486 -0.013369551 -0.024587363
0.03688455 0.071488455 -0.10130052 -0.10968965 -0.093175516 -0.081841625 -0.029643632 0.08809372
-0.10115538 -0.07755443 -0.06545662 -0.030975422 -0.034782607 -0.06610009 0.0068200617 0.043855246
-0.030202098 0.035011016 0.032188274 0.13194507 -0.0057929736 0.08095315 0.078566566 0.048174888
0.044587422 -0.08843549 -0.06784897 0.060471024 0.05322642 0.10492201 -0.0017413 -0.042279378
00000000: 319a 623b 3600 d6bd 934e f93d 9da4 9c3d
00000010: 9598 c6bd aa16 53b8 d43b a33d 31f6 b1bd
00000020: 151a d8bd 426c 6c3d 89b8 803c cd20 8e3d
00000030: 87fe 01bd 6318 d13c e666 b53d 57e9 f0bb
00000040: 12b1 44bd ce46 dcbd 631f 82bb a6e2 c33d
00000050: 2791 e9bd 93b0 3fbc 0197 bb3d d3a4 ccbc
00000060: cccf 5cbd 03fa 1fbd 6909 55bd e47b 993c
00000070: 1ee2 ffbd 7eb1 c53c f60b 5bbc 706b c9bc
00000080: 4114 173d 8a68 923d a676 cfbd f8a4 e0bd
00000090: ced2 bebd 959c a7bd 34d7 f2bc 7b6a b43d
000000a0: 8d2a cfbd dbd4 9ebd 1f0e 86bd 2bc0 fdbc
000000b0: 3578 0ebd 7c5f 87bd d37a df3b 8fa1 333d
000000c0: 646a f7bc b667 0f3d dad7 033d 9c1c 073e
000000d0: fcd2 bdbb c4ca a53d 82e7 a03d 0853 453d
000000e0: 4da1 363d ab1d b5bd 67f4 8abd 77b0 773d
000000f0: f203 5a3d 5ae1 d63d 553c e4ba 242d 2dbd

reaction_module.encoder.5.weight f4 [64]
1.0404134 1.0380808 1.0149707 1.0599109 0.9875331 1.0108281 0.9994876 1.0368114
1.000721 0.9699596 0.99603045 1.004062 1.0331243 1.0087943 1.1069895 1.0775948
1.0201675 0.9935475 0.9980943 1.0118636 1.0086418 0.99907935 0.98861414 1.0302922
1.0398592 0.96146184 1.0059253 0.9976827 1.0185491 1.0059793 1.0261528 1.0129719
1.0357738 0.9924291 0.99220914 0.99461114 1.0034083 1.0121984 1.0228602 0.9951473
1.0076566 1.0091602 1.1163286 1.0484469 0.939461 1.003567 0.98104656 0.9781228
1.0136935 0.98829013 0.959305 1.0080541 0.99410087 0.9695028 1.0040232 1.1007228
0.96933615 0.9956468 1.0227369 0.99291754 0.996507 0.96787214 1.020932 0.99532115
00000000: 442c 853f d5df 843f 8fea 813f 29ab 873f
00000010: f8ce 7c3f d162 813f 6bde 7f3f 3cb6 843f
00000020: a017 803f 464f 783f dafb 7e3f 1b85 803f
00000030: 6b3d 843f 2c20 813f d5b1 8d3f a0ee 893f
00000040: d994 823f 2159 7e3f 1c83 7f3f bf84 813f
00000050: 2d1b 813f aac3 7f3f d115 7d3f 9de0 833f
00000060: 1b1a 853f 5d22 763f 29c2 803f 2268 7f3f
00000070: d15f 823f eec3 803f fa58 833f 10a9 813f
00000080: 3c94 843f d50f 7e3f 6b01 7e3f d69e 7e3f
00000090: af6f 803f b88f 813f 15ed 823f f9c1 7e3f
000000a0: e4fa 803f 292c 813f dbe3 8e3f 8233 863f
000000b0: 8480 703f e274 803f de25 7b3f 4166 7a3f
000000c0: b5c0 813f 9500 7d3f 0395 753f eb07 813f
000000d0: 657d 7e3f 5631 783f d583 803f 7ce4 8c3f
000000e0: 6a26 783f b5e2 7e3f 0be9 823f d82f 7e3f
000000f0: 151b 7f3f 78c6 773f e6ad 823f 5ecd 7e3f

reaction_module.encoder.5.bias f4 [64]
0.043541662 0.028431417 0.010157552 -0.002328512 -0.017174415 0.0005441596 0.014329572 0.033950012
-0.025495345 0.008421937 0.008999859 0.025692262 0.016712304 0.0049977037 0.036543403 0.05397741
-0.011141984 0.011822873 0.0381059 0.02175041 0.0018981228 -0.0047006854 -0.0016679462 0.007129522
-0.04335408 -0.018299658 -0.005615275 0.005343432 -0.03483318 -0.020886866 0.0219969 -0.009786424
0.054587755 0.0015614233 -0.030120458 -0.027367802 -0.00021006707 0.0014001911 0.03634098 -0.012083608
-0.010108523 -0.0063201194 0.035597935 0.037883896 -0.022901976 0.0226267 0.0038369468 0.0037627646
0.0038905097 -0.03210004 -0.010976185 0.01642868 -0.00017531043 -0.013155123 -0.034046043 0.012047411
-0.0196001 -0.016793117 0.013629668 0.008381059 0.0088752555 -0.0063227843 0.0071351994 -0.031531207
00000000: be58 323d 01e9 e83c dc6b 263c f399 18bb
00000010: 5cb1 8cbc efa5 0e3a 95c6 6a3c 2b0f 0b3d
00000020: 9ddb d0bc 2afc 093c 2574 133c 9478 d23c
00000030: 3ee8 883c c7c3 a33b 89ae 153d 6b17 5d3d
00000040: de8c 36bc b9b4 413c ef14 1c3d ea2d b23c
00000050: 6fca f83a 3508 9abb fd9e daba c49e e93b
00000060: 0c94 31bd 2ae9 95bc 5700 b8bb f517 af3b
00000070: 3dad 0ebd ef1a abbc d832 b43c 3d57 20bc
00000080: 6997 5f3d aca8 cc3a 2ebf f6bc 7132 e0bc
00000090: 7345 5cb9 9e86 b73a 48da 143d 53fa 45bc
000000a0: 389e 25bc 0119 cfbb 24cf 113d 252c 1b3d
000000b0: ed9c bbbc a15b b93c 4975 7b3b b798 763b
000000c0: ecf7 7e3b 557b 03bd 75d5 33bc 7095 863c
000000d0: 89d3 37b9 9688 57bc dd73 0bbd 8162 453c
000000e0: 6490 a0bc b891 89bc f94e 5f3c b650 093c
000000f0: 8569 113c 5c2f cfbb 64ce e93b de26 01bd

reaction_module.residual_mlp.0.weight f4 [64, 65]
0.0634826 0.023146542 0.059965234 -0.027384479 -0.017762119 -0.009257257 0.0829068 -0.1593077
-0.0076796925 0.0776808 0.031055475 0.090837345 -0.06499649 -0.07801983 -0.1434624 -0.13810763
-0.035591323 0.04282144 0.026965901 -0.0749601 0.12974691 0.047437582 0.029369712 -0.06995403
0.10792392 -0.10444829 0.11660767 -0.095307305 0.046727207 -0.039454762 0.023056202 -0.080179356
-0.038182296 -0.05593092 -0.10167455 -0.057332546 -0.068055876 0.029061006 0.065377496 0.0012471535
0.1753557 -0.01595111 -0.17560124 -0.046347555 -0.04642987 0.09676962 0.09156663 0.04304685
-0.10183694 -0.043593187 -0.039567985 -0.12690529 0.020955177 0.05715245 0.067872345 -0.0046956255
-0.031098926 -0.071490735 -0.0680578 0.090139315 -0.062127646 -0.0041066497 -0.075044535 -0.034616966
0.07607219 -0.13599378 0.10259016 -0.10071245 -0.007258583 0.09985869 0.054975413 -0.036685225
-0.11257284 -0.037450206 0.018336464 -0.099122606 0.06631266 -0.102339566 0.028700944 -0.060510315
-0.1354073 0.12580885 0.08437455 -0.03503175 -0.11053788 -0.011418136 0.08317521 0.0836069
0.00019572096 -0.027907982 -0.11253209 0.110677704 0.074837506 0.097400405 -0.041533496 0.034212857
-0.018842803 0.039289977 0.04340309 -0.12764463 0.047171813 0.033387672 -0.055436328 0.08333891
0.11007141 0.08669189 0.011579954 -0.02712317 -0.11660396 0.025798932 0.01780227 0.09550081
0.091848165 -0.0095122885 -0.0707264 0.058908682 0.067562215 -0.05437652 -0.10009481 0.00798115
0.003267613 -0.120248966 0.014300591 0.025114657 -0.06873906 -0.08711409 -0.06783115 0.11503628
0.118547 0.103304744 0.00539977 0.047263876 0.18880413 0.067476496 -0.05944448 0.03369289
-0.042945623 -0.011735374 -0.08401917 0.00025197008 0.013863697 -0.065115616 0.06859652 0.11221354
-0.1095817 0.008723007 -0.0962698 -0.043533135 0.027906293 0.0074910508 0.07529702 0.012931527
0.11769099 -0.050075304 0.025131943 0.07492549 0.13178688 0.020945136 0.07705051 0.023937026
0.09212696 -0.036635324 0.05158183 0.12576796 0.003936045 -0.051397633 0.11746182 0.07118194
-0.11223799 0.047523823 -0.1011483 -0.068957366 0.16227342 0.07075264 -0.0060842778 0.09201991
0.14997031 0.117343865 -0.08464284 -0.06717845 0.037955813 0.08582813 0.006276351 0.064633995
0.053012885 -0.074848145 -0.043785717 0.16665594 0.028664839 0.079934664 -0.09866783 -0.01465755
0.09970155 -0.021141753 0.06962222 -0.10933252 0.09355843 -0.021098616 -0.0013545911 -0.07727013
-0.030992595 -0.09111315 -0.09084356 -0.034890205 -0.06504618 0.107907884 0.008649055 0.09354631
-0.008842508 0.036759816 0.12039539 -0.065980524 -0.045791518 0.11768864 -0.0118792625 -0.027724601
0.0026110383 -0.049984504 0.014969398 -0.057977214 0.016657524 -0.0349533 -0.019474953 -0.05908842
0.016343996 0.07137561 -0.10370741 -0.08055737 -0.08052264 0.084409446 0.06583768 -0.11957657
0.014206365 0.0281982 -0.093050115 0.01873504 0.13386974 0.08139451 0.057676937 0.00035178624
-0.06570846 -0.06731546 0.013400336 0.00711755 0.11642471 -0.14721097 0.025888246 -0.04727846
-0.020857483 0.11125822 0.015158227 -0.039769057 -0.064115316 -0.1356603 -0.08748741 0.067209646
00000000: 2a03 823d d19d bd3c 1b9e 753d 6a55 e0bc
00000010: dd81 91bc c0ab 17bc 0acb a93d 8f21 23be
00000020: eea5 fbbb 1c17 9f3d 0d68 fe3c ee08 ba3d
00000030: e11c 85bd dcc8 9fbd cfe7 12be 166c 0dbe
00000040: 35c8 11bd 8965 2f3d 98e7 dc3c ae84 99bd
00000050: 60dc 043e e94d 423d c098 f03c 0f44 8fbd
00000060: 3707 dd3d fce8 d5bd 01d0 ee3d 7a30 c3bd
00000070: 0765 3f3d 519b 21bd 5ce0 bc3c 1335 a4bd
00000080: 0a65 1cbd d217 65bd bf3a d0bd 88d5 6abd
00000090: e160 8bbd 5911 ee3c a3e4 853d 8777 a33a
000000a0: 7290 333e e7ab 82bc d0d0 33be efd6 3dbd
000000b0: 3f2d 3ebd 272f c63d 4987 bb3d e551 303d
000000c0: e38f d0bd c58e 32bd 0a12 22bd 76f3 01be
000000d0: 31aa ab3c b018 6a3d a800 8b3d c3dd 99bb
000000e0: 2dc3 febc bc69 92bd e361 8bbd f69a b83d
000000f0: 8f79 7ebd 1391 86bb f3b0 99bd 85ca 0dbd
00000100: bdcb 9b3d f441 0bbe ca1a d23d 5442 cebd
00000110: 68d9 edbb b682 cc3d e62d 613d 3f43 16bd
00000120: 978c e6bd 6365 19bd 5a36 963c cb00 cbbd
00000130: efce 873d 6897 d1bd 3e1e eb3c aad9 77bd
00000140: 36a8 0abe 09d4 003e 90cc ac3d 747d 0fbd
00000150: af61 e2bd 2213 3bbc c457 aa3d 183a ab3d
00000160: 723a 4d39 489f e4bc 3977 e6bd feaa e23d
00000170: 6844 993d dd79 c73d 071f 2abd c822 0c3d
00000180: 395c 9abc 87ee 203d 70c7 313d 46b5 02be
00000190: 3b37 413d 83c1 083d 3411 63bd 97ad aa3d
000001a0: 1f6d e13d 858b b13d d9b9 3d3c 6931 debc
000001b0: 0fce eebd 4858 d33c 11d6 913c ee95 c33d
000001c0: e41a bc3d 6ed9 1bbc 01d9 90bd 3b4a 713d
000001d0: 0f5e 8a3d eab9 5ebd 82fe ccbd 5fc3 023c
000001e0: 7325 563b 1745 f6bd 074d 6a3c 41bd cd3c
000001f0: 10c7 8cbd df68 b2bd 0feb 8abd 2498 eb3d
00000200: c5c8 f23d 7091 d33d 8ef0 b03b c497 413d
00000210: df55 413e 1e31 8a3d 0e7c 73bd 8e01 0a3d
00000220: c0e7 2fbd ba45 40bc 3e12 acbd da1a 8439
00000230: 8f24 633c 565b 85bd 557c 8c3d 36d0 e53d
00000240: 5f6c e0bd f1ea 0e3c 1a29 c5bd cd4f 32bd
00000250: bd9b e43c 7d77 f53b 5335 9a3d c1de 533c
00000260: f907 f13d c31b 4dbd 81e1 cd3c 8972 993d
00000270: 24f3 063e 2295 ab3c a8cc 9d3d 9517 c43c
00000280: 0fad bc3d ec0e 16bd 7847 533d 51c9 003e
00000290: f0f9 803b 5386 52bd d38f f03d d6c7 913d
000002a0: 08dd e5bd 57a8 423d d726 cfbd 8539 8dbd
000002b0: 012b 263e c3e6 903d 9f5e c7bb ef74 bc3d
000002c0: d191 193e fb51 f03d 3a59 adbd db94 89bd
000002d0: 8e77 1b3d a9c6 af3d d9a9 cd3b d45e 843d
000002e0: 0a24 593d fc49 99bd a758 33bd dba7 2a3e
000002f0: 86d2 ea3c c9b4 a33d 5c12 cabd 3826 70bc
00000300: 5430 cc3d 7831 adbc 1896 8e3d bae9 dfbd
00000310: 909b bf3d 01d7 acbc 898c b1ba cd3f 9ebd
00000320: 2fe4 fdbc 8899 babd 300c babd 08e9 0ebd
00000330: ee36 85bd cffe dc3d c4b4 0d3c 3595 bf3d
00000340: 2be0 10bc 7691 163d dc91 f63d cc20 87bd
00000350: e38f 3bbd be06 f13d 3da1 42bc b41e e3bc
00000360: f41d 2b3b 8dbc 4cbd 3542 753c 8479 6dbd
00000370: 5c75 883c 312b 0fbd f089 9fbc b306 72bd
00000380: d8e3 853c 602d 923d 8d64 d4bd 43fb a4bd
00000390: 0ee9 a4bd dcde ac3d e8d5 863d 90e4 f4bd
000003a0: d0c1 683c e9ff e63c 0f91 bebd 3a7a 993c
000003b0: 2615 093e 2ab2 a63d a73e 6c3d f36f b839
000003c0: 2892 86bd b0dc 89bd 158d 5b3c 563a e93b
000003d0: 1470 ee3d 79be 16be 9613 d43c 0fa7 41bd
000003e0: 50dd aabc 5adb e33d 365a 783c e1e4 22bd
000003f0: e44e 83bd 89ea 0abe 992c b3bd 36a5 893d

reaction_module.residual_mlp.0.bias f4 [64]
-0.13323905 -0.078717455 -0.051068157 0.077343024 0.046241242 -0.13620669 0.11476448 -0.040456112
0.0002669892 0.043201353 -0.087942734 0.011178036 -0.049876872 -0.022392217 -0.013864138 0.11841061
-0.057294898 -0.10191094 0.050693274 0.029681265 -0.03040053 0.03457009 0.14193135 -0.022622025
-0.10324846 -0.10555452 0.047354683 0.048206612 0.028631724 -0.10265438 -0.08589522 -0.09612753
0.082653016 -0.005558283 -0.07924425 -0.10355154 0.098999105 0.010347762 0.13335651 -0.09945438
-0.14439929 0.0047136117 0.041382182 0.09992391 0.115283266 0.03817212 0.09176003 -0.07660671
0.14422236 -0.03770811 0.057925858 0.048180822 -0.06921967 -0.010927608 0.01932434 0.10505974
0.092227474 0.043893427 -0.054976974 0.06202595 0.12261431 -0.050362807 0.08197055 0.037128784
00000000: d16f 08be 9e36 a1bd d82c 51bd 0566 9e3d
00000010: 7567 3d3d c479 0bbe a409 eb3d 4fb5 25bd
00000020: affa 8b39 e7f3 303d 521b b4bd 1524 373c
00000030: b14b 4cbd e26f b7bc 6926 63bc 4381 f23d
00000040: 0eae 6abd afb6 d0bd c0a3 4f3d 2026 f33c
00000050: 880a f9bc 5e99 0d3d 7456 113e d351 b9bc
00000060: ee73 d3bd f82c d8bd fcf6 413d 4c74 453d
00000070: 148d ea3c 763c d2bd d5e9 afbd 83de c4bd
00000080: fc45 a93d 4222 b6bb cf4a a2bd d412 d4bd
00000090: 0bc0 ca3d a989 293c 9c8e 083e bdae cbbd
000000a0: 68dd 13be a474 9a3b 5d80 293d e8a4 cc3d
000000b0: a219 ec3d 5e5a 1c3d afec bb3d fbe3 9cbd
000000c0: 07af 133e d273 1abd aa43 6d3d 4159 453d
000000d0: 0bc3 8dbd b609 33bc 144e 9e3c 9029 d73d
000000e0: c2e1 bc3d 98c9 333d 892f 61bd ec0e 7e3d
000000f0: 361d fb3d 3b49 4ebd 2de0 a73d 5a14 183d

reaction_module.residual_mlp.1.weight f4 [64]
1.0542866 0.98345685 0.98687446 0.9608552 1.0450275 1.0474786 0.9880558 0.9651707
1.0607847 0.9567848 0.9785327 0.98789907 0.9521122 1.0517001 1.0006998 1.0291847
1.0318935 0.9838327 0.9391376 1.0047618 0.9815693 0.9500404 1.005537 0.95466065
1.0125773 1.0642836 1.0561473 1.022998 0.9924857 0.9468079 0.95011985 0.96535254
0.9855035 1.0114448 1.0191743 1.075275 1.011662 1.0213504 0.9392144 1.0274576
1.0191603 1.0100675 0.99827665 0.9923452 1.0024773 1.0767049 1.0541576 0.9947082
1.0005025 1.0011222 1.0223147 0.9609033 1.0826916 0.9623237 0.9786847 0.97468495
0.933145 0.9916311 0.973799 1.0254264 0.99026954 1.0071293 1.0227032 0.98868626
00000000: ddf2 863f d4c3 7b3f cea3 7c3f 9bfa 753f
00000010: 76c3 853f c713 863f 3af1 7c3f 6d15 773f
00000020: cbc7 873f d9ef 743f 1e81 7a3f f4e6 7c3f
00000030: a0bd 733f 1c9e 863f ee16 803f 53bc 833f
00000040: 1615 843f 76dc 7b3f 526b 703f 099c 803f
00000050: 2048 7b3f d935 733f 70b5 803f a464 743f
00000060: 229c 813f 723a 883f d62f 873f 99f1 823f
00000070: 8b13 7e3f 0162 723f 0e3b 733f 5821 773f
00000080: f549 7c3f 0677 813f 4e74 823f 9ca2 893f
00000090: 247e 813f 9cbb 823f 5b70 703f bb83 833f
000000a0: d873 823f e449 813f 0f8f 7f3f 560a 7e3f
000000b0: 2d51 803f 77d1 893f a3ee 863f 32a5 7e3f
000000c0: 7710 803f c624 803f 35db 823f c2fd 753f
000000d0: a395 8a3f d95a 763f 158b 7a3f f484 793f
000000e0: 97e2 6e3f 89db 7d3f e44a 793f 2c41 833f
000000f0: 4e82 7d3f 9de9 803f f0e7 823f 8b1a 7d3f

reaction_module.residual_mlp.1.bias f4 [64]
0.010227138 -0.029981883 -0.013540529 -0.0016433198 0.040507976 -0.013975896 -0.008975214 -0.014604253
0.017252587 -0.016873255 -0.017407622 -0.0036210716 0.007460721 0.010498319 0.00087202404 0.020994019
-0.010527228 -0.0049524186 -0.038722612 0.016865194 -0.02526064 -0.013079111 0.0011469484 -0.008458183
-0.017290732 0.00969303 -0.027194595 -0.0053474954 -0.0016244405 -0.032362007 -0.01575144 -0.02166813
-0.021945376 -0.010080958 -0.013425956 0.006446928 0.0075404905 0.006307745 -0.0074095377 -0.027784435
-0.021907737 0.016044067 -0.024583373 0.0052578636 -0.023904387 -0.00496114 0.043029565 -0.016204251
0.019817222 -0.0077753947 0.00050503475 -0.020163957 -0.032272894 -0.010452985 -0.0056154914 -0.020577442
-0.0393691 -0.012417864 -0.0005463414 0.010949834 0.0026869732 -0.012852921 -0.025077235 0.03388975
00000000: ba8f 273c 919c f5bc 18d9 5dbc aa64 d7ba
00000010: b1eb 253d 28fb 64bc c70c 13bc ad46 6fbc
00000020: 4c55 8d3c c839 8abc 6e9a 8ebc 804f 6dbb
00000030: 1079 f43b 2401 2c3c 8b98 643a a6fb ab3c
00000040: 657a 2cbc e647 a2bb 9a9b 1ebd e028 8a3c
00000050: 67ef cebc c549 56bc 3455 963a 3194 0abc
00000060: 4ba5 8dbc 84cf 1e3c 33c7 debc 0b3a afbb
00000070: 2eeb d4ba 068e 04bd 2a09 81bc 5d81 b1bc
00000080: cac6 b3bc 9a2a 25bc 8af8 5bbc c040 d33b
00000090: 3816 f73b 33b1 ce3b b5cb f2bb 2f9c e3bc
000000a0: db77 b3bc d96e 833c 1263 c9bc 284a ac3b
000000b0: 22d3 c3bc 0f91 a2bb c53f 303d c7be 84bc
000000c0: ba57 a23c bdc8 febb 4f64 043a e22e a5bc
000000d0: 9530 04bd ff42 2bbc 2802 b8bb 0692 a8bc
000000e0: 7e41 21bd 4c74 4bbc 5a38 0fba ef66 333c
000000f0: ee17 303b 0f95 52bc c66e cdbc facf 0a3d

reaction_module.residual_mlp.4.weight f4 [64, 64]
0.012871262 0.02976058 0.11039222 -0.13364993 0.09619708 -0.1791623 0.030211532 0.13102481
-0.225713 -0.0746106 -0.07281619 0.042568114 -0.065060735 -0.16567935 0.029868457 0.0015685353
-0.0839473 -0.032977037 0.057946585 -0.007353954 -0.08712481 0.11957633 0.028505808 -0.024963731
0.11627087 -0.029734483 0.015437039 0.018434072 0.020687504 0.1156187 0.037797086 0.09408151
0.05490219 0.021525675 0.036358196 -0.15232618 0.14676265 -0.07016007 0.05856662 -0.08327195
-0.11146695 0.03156269 -0.116983 0.02188211 0.10435673 -0.1813636 0.038556565 -0.01044053
0.10483281 -0.05527595 -0.16962667 -0.043082353 0.038564026 -0.09842982 -0.065745495 0.027597254
-0.026231691 -0.048153743 -0.0519392 0.11695811 -0.04624483 -0.12759289 -0.098668255 0.06648055
-0.039059475 -0.07492595 -0.09254651 -0.013190606 0.09836442 0.035792362 -0.03411087 -0.09800744
-0.005612502 0.028295286 0.09399239 0.061657548 0.026131997 0.08205808 -0.05740494 0.034095503
0.050473485 -0.031490684 0.045721386 0.018155234 0.03403383 -0.031804096 0.08462571 -0.060401414
0.08490565 -0.13291267 -0.0518954 -0.06753013 -0.041031595 -0.026477104 -0.11145776 0.08899555
0.039012566 0.10682746 -0.08612627 -0.097001344 0.04208115 0.12864956 0.076750815 0.02302749
0.0042276345 0.08940892 -0.028920835 -0.10794629 -0.13530527 -0.09121109 0.052348066 0.12765582
0.07588816 -0.07643821 0.040678382 0.08843576 -0.053337768 -0.03195301 -0.07352748 0.0027255812
0.090303205 -0.024433026 0.014715109 0.068676844 -0.0447463 -0.0993732 0.0336006 0.055920176
0.07854746 0.03096789 -0.049132343 0.08819379 -0.020024901 -0.0076311356 -0.085203245 -0.04812745
-0.10245256 0.036481887 0.08708853 -0.0066621536 0.088790245 -0.027349755 0.0007464 -0.12686494
-0.14089791 0.113256514 0.06963994 0.15583926 -0.011796521 0.06769658 -0.024142712 0.12087753
-0.0860405 -0.08154911 -0.14485674 0.020016 -0.053998593 -0.08717066 0.05166529 0.10426592
0.08804521 0.14276151 -0.037116542 0.07860037 -0.11359857 0.10396487 0.008987505 0.089546785
-0.054612212 0.071403064 -0.024744594 -0.10222085 -0.079267845 0.1094347 0.06531407 -0.006553322
-0.06978966 0.041793168 0.16910979 -0.0042877644 -0.049938772 -0.123268686 0.092417516 -0.028728545
-0.047610894 0.061750207 -0.00347492 -0.057261083 -0.14933868 -0.011131386 -0.0067629577 -0.01656819
-0.097657934 0.088056885 0.08960345 0.12084638 0.06649516 -0.029287133 0.14067197 0.025733002
0.020049127 0.061653502 -0.12790908 0.1040697 -0.024521673 -0.094895504 0.08884773 -0.06999527
0.06387052 -0.117628194 -0.023452153 -0.14801197 0.09095557 0.050926227 0.121866465 0.03695336
-0.033958256 8.479607e-05 0.06838778 -0.115842864 -0.07089032 -0.021117164 -0.06253401 -0.01985277
0.13896558 0.013176009 -0.122711256 -0.13744539 0.12408113 -0.042282086 -0.039675776 0.037583303
-0.08336322 -0.032912787 -0.04937176 0.0733469 0.071627155 -0.024021516 0.061764922 -0.04070803
-0.10363973 -0.026006967 -0.1573529 -0.103843 -0.11713917 -0.03681664 -0.06288777 0.042509835
0.062930614 0.09388881 -0.11772406 0.13190937 0.051908083 0.073283985 0.0151097635 0.0059285364
00000000: fce1 523c 76cc f33c 5115 e23d 87db 08be
00000010: fa02 c53d 5276 37be 2d7e f73c 5e2b 063e
00000020: 4f21 67be 71cd 98bd a820 95bd e75b 2e3d
00000030: 903e 85bd d9a7 29be b2ae f43c 5097 cd3a
00000040: 90ec abbd ee12 07bd 6659 6d3d 70f9 f0bb
00000050: 7e6e b2bd 6fe4 f43d 0385 e93c bd80 ccbc
00000060: 6c1f ee3d bb95 f3bc a2eb 7c3c 0d03 973c
00000070: d778 a93c 7fc9 ec3d 1ed1 1a3d cfad c03d
00000080: 1ee1 603d 9d56 b03c 55ec 143d 65fb 1bbe
00000090: f348 163e 15b0 8fbd 8de3 6f3d 7c8a aabd
000000a0: c948 e4bd e147 013d c894 efbd 1c42 b33c
000000b0: fbb8 d53d 61b7 39be 7ded 1d3d c20e 2bbc
000000c0: 96b2 d63d 0969 62bd 9db2 2dbe 1f77 30bd
000000d0: 50f5 1d3d 9395 c9bd 93a5 86bd a313 e23c
000000e0: d8e3 d6bc dc3c 45bd 33be 54bd bc87 ef3d
000000f0: 386b 3dbd b6a7 02be 9512 cabd f426 883d
00000100: d4fc 1fbd c772 99bd 0689 bdbd 691d 58bc
00000110: 4973 c93d 039b 123d d7b7 0bbd 20b8 c8bd
00000120: 14e9 b7bb 84cb e73c 157f c03d a08c 7c3d
00000130: c512 d63c 110e a83d 7121 6bbd baa7 0b3d
00000140: 49bd 4e3d 60fc 00bd 5946 3b3d 49ba 943c
00000150: 0f67 0b3d 0345 02bd 3f50 ad3d 7967 77bd
00000160: 03e3 ad3d 421a 08be 4590 54bd 3d4d 8abd
00000170: bf10 28bd 83e6 d8bc f743 e4bd 4d43 b63d
00000180: a4cb 1f3d 5bc8 da3d f862 b0bd a4a8 c6bd
00000190: 495d 2c3d b6bc 033e 882f 9d3d 26a4 bc3c
000001a0: f887 8a3b 061c b73d 63eb ecbc f212 ddbd
000001b0: 778d 0abe e1cc babd ed6a 563d 35b8 023e
000001c0: 406b 9b3d a38b 9cbd 609e 263d cf1d b53d
000001d0: b478 5abd 29e1 02bd 9395 96bd aa9f 323b
000001e0: e3f0 b83d c527 c8bc a417 713c 72a6 8c3d
000001f0: e547 37bd 2d84 cbbd c8a0 093d 8e0c 653d
00000200: 7edd a03d 5fb0 fd3c ff3e 49bd f29e b43d
00000210: 430b a4bc 9b0e fabb 0a7f aebd 4a21 45bd
00000220: a6d2 d1bd 086e 153d 795b b23d 324e dabb
00000230: a9d7 b53d 980c e0bc 0eaa 433a e2e8 01be
00000240: 8b47 10be 08f3 e73d 639f 8e3d 5494 1f3e
00000250: 3246 41bc 81a4 8a3d f0c6 c5bc a38e f73d
00000260: 0036 b0bd 3803 a7bd 5355 14be 98f8 a33c
00000270: a12d 5dbd 8886 b2bd fc9e 533d 5f89 d53d
00000280: 0c51 b43d 1330 123e 8407 18bd 3bf9 a03d
00000290: 5ea6 e8bd 89eb d43d 5440 133c 4e64 b73d
000002a0: 0eb1 5fbd c53b 923d 2db5 cabc 2a59 d1bd
000002b0: 2e57 a2bd 4d1f e03d 62c3 853d 40bd d6bb
000002c0: e2ed 8ebd 502f 2b3d 1e2b 2d3e 6080 8cbb
000002d0: 998c 4cbd 4b74 fcbd 6545 bd3d 2058 ebbc
000002e0: a403 43bd c9ed 7c3d 7cbb 63bb 998a 6abd
000002f0: 3dec 18be 6b60 36bc cd9b ddbb 03ba 87bc
00000300: e200 c8bd 2b57 b43d 0382 b73d 4f7e f73d
00000310: 9d2e 883d 92eb efbc 500c 103e 04ce d23c
00000320: 113e a43c 6288 7c3d 99fa 02be 7f22 d53d
00000330: ade1 c8bc 9358 c2bd ccf5 b53d ae59 8fbd
00000340: 8cce 823d 0de7 f0bd bb1e c0bc 7390 17be
00000350: ea46 ba3d 0598 503d 2095 f93d 685c 173d
00000360: d017 0bbd 8bd4 b138 e40e 8c3d 063f edbd
00000370: f22e 91bd e7fd acbc d511 80bd 47a2 a2bc
00000380: fe4c 0e3e 30e0 573c 0a50 fbbd 7cbe 0cbe
00000390: 3f1e fe3d fb2f 2dbd 1183 22bd f3f0 193d
000003a0: 56ba aabd 8fcf 06bd 0b3a 4abd e636 963d
000003b0: 42b1 923d c5c8 c4bc 37fd 7c3d 77bd 26bd
000003c0: 1141 d4bd 900c d5bc 1e21 21be a4ab d4bd
000003d0: a9e6 efbd 0ccd 16bd 4ecb 80bd cb1e 2e3d
000003e0: c4e1 803d c748 c03d 5019 f1bd 4013 073e
000003f0: 929d 543d ea15 963d f18e 773c 2b44 c23b

reaction_module.residual_mlp.4.bias f4 [64]
0.07698034 0.047207832 0.09617321 -0.024752056 -0.019578086 -0.086966924 0.06927256 -0.030461352
0.003977374 0.10542993 -0.013635148 -0.061165802 -0.075679414 0.06851055 0.024188284 -0.04571973
0.11243078 0.08594636 -0.021729302 0.035976604 -0.09493897 -0.06845887 -0.055046998 0.07055471
-0.039635733 0.05730151 -0.10319276 0.059254427 -0.1263606 -0.025636923 0.13269567 -0.038909763
-0.01537252 0.046000365 -0.058682203 0.00719761 -0.050948024 0.03851819 -0.09293133 -0.07375138
-0.047744263 0.0045526302 0.089615405 0.044053786 -0.10161824 0.05085926 0.11427411 0.15174688
0.048489615 0.07354076 0.07301383 0.10660218 -0.016763005 0.01399315 0.10131857 -0.04397827
0.06726472 0.0841202 0.038038913 -0.0957404 0.066564746 0.040535204 0.01300141 0.059767295
00000000: dea7 9d3d 005d 413d 76f6 c43d d3c4 cabc
00000010: 3962 a0bc b71b b2bd c6de 8d3d 168a f9bc
00000020: a254 823b a6eb d73d f565 5fbc fe88 7abd
00000030: cffd 9abd 424f 8c3d 8226 c63c 9d44 3bbd
00000040: 1c42 e63d a504 b03d a601 b2bc 345c 133d
00000050: 5d6f c2bd 2a34 8cbd f678 61bd fd7e 903d
00000060: 1459 22bd fdb4 6a3d ba56 d3bd c5b4 723d
00000070: ac64 01be 8604 d2bc 60e1 073e d85f 1fbd
00000080: 06dd 7bbc e16a 3c3d c05c 70bd eed9 eb3b
00000090: e0ae 50bd 40c5 1d3d c852 bebd f70a 97bd
000000a0: 7d8f 43bd 3b2e 953b 4888 b73d be71 343d
000000b0: 391d d0bd cd51 503d 8b08 ea3d 8963 1b3e
000000c0: 0c9d 463d 8a9c 963d 4688 953d 3e52 da3d
000000d0: 9252 89bc 8643 653c 1c80 cf3d 8f22 34bd
000000e0: 16c2 893d 3647 ac3d b1ce 1b3d 8b13 c4bd
000000f0: 1953 883d 3e08 263d de03 553c 8dce 743d

reaction_module.residual_mlp.5.weight f4 [64]
1.0714034 1.0312717 1.0771629 1.0647544 1.0674089 0.99476194 0.9998126 1.0171714
1.0044305 1.0936967 1.0141114 1.0181427 1.0290042 1.0697869 1.0891033 1.0968745
1.0547504 1.0452054 1.0904732 1.0877997 1.0053322 1.0759784 1.0036197 1.0535702
1.0388879 1.050394 1.0227548 1.0822643 0.9954491 0.98715633 1.0670679 0.97937024
1.0847378 1.0197126 1.0753666 1.0694355 1.0074258 1.0963639 0.9858289 1.0697402
1.0524874 1.0681822 1.0129024 1.0877769 1.0065451 0.9681405 1.1371962 1.0284312
1.0817988 1.0709412 1.0446488 0.9795139 1.0269692 1.0567226 1.0736723 0.9792337
1.0872618 1.1129781 0.998855 1.0422862 1.0713284 0.97547466 0.999622 1.1097728
00000000: bf23 893f b600 843f 79e0 893f df49 883f
00000010: dba0 883f b8a8 7e3f b8f3 7f3f ac32 823f
00000020: 2e91 803f 41fe 8b3f 67ce 813f 8052 823f
00000030: 69b6 833f c7ee 883f bd67 8b3f 6266 8c3f
00000040: 1002 873f 4ac9 853f a094 8b3f 053d 8b3f
00000050: baae 803f a9b9 893f 9c76 803f 63db 863f
00000060: 47fa 843f 5073 863f a1e9 823f a387 8a3f
00000070: c1d5 7e3f 47b6 7c3f ae95 883f 02b8 7a3f
00000080: b0d8 8a3f f185 823f 9da5 893f 43e3 883f
00000090: 54f3 803f a755 8c3f 485f 7c3f 3fed 883f
000000a0: e8b7 863f 32ba 883f c9a6 813f 463c 8b3f
000000b0: 78d6 803f 0ed8 773f a58f 913f a2a3 833f
000000c0: 6278 8a3f 9a14 893f 0db7 853f 6cc1 7a3f
000000d0: ba73 833f b042 873f 186e 893f 0faf 7a3f
000000e0: 652b 8b3f 1176 8e3f f6b4 7f3f a269 853f
000000f0: 4a21 893f b5b8 793f 3ae7 7f3f 090d 8e3f

reaction_module.residual_mlp.5.bias f4 [64]
0.06889763 0.036232717 -0.0011357907 0.0597568 0.070735924 -0.034010846 0.02268329 0.031568337
0.013794383 0.07091099 -0.010258962 0.03652528 -0.015738226 0.07286268 0.031082159 0.043427873
0.063040406 0.06727485 0.0035718353 0.07302851 0.057160366 0.06696316 -0.029127745 0.013222716
-0.024086814 -0.005409759 -0.012598018 0.0011694045 -0.020350523 -0.008509628 0.06590437 -0.021012967
0.07987219 0.09087813 0.063312605 0.0058863303 -0.045054268 0.02253082 -0.075297855 -0.007173767
0.016280958 0.068774834 -0.013120639 -0.0017356075 -0.011752383 -0.029487666 0.03784026 0.0544189
0.07216077 0.06911794 0.0018354987 0.0028329014 -0.024266575 0.072468795 0.008056107 -0.049690902
0.05222658 0.02129587 -0.0117971385 -0.013645255 0.03425037 -0.0015859924 -0.026398782 0.07732966
00000000: 331a 8d3d c268 143d d0de 94ba 8cc3 743d
00000010: ffdd 903d f54e 0bbd 4fd2 b93c cd4d 013d
00000020: d601 623c c839 913d 3515 28bc 889b 153d
00000030: 74ed 80bc 0739 953d 03a0 fe3c 6de1 313d
00000040: 541b 813d 66c7 893d 7415 6a3b f98f 953d
00000050: fd20 6a3d fb23 893d 4f9d eebc 17a4 583c
00000060: b651 c5bc 5944 b1bb eb67 4ebc b446 993a
00000070: 24b6 a6bc f76b 0bbc dff8 863d 6323 acbc
00000080: 0894 a33d 501e ba3d 0aaa 813d 1ee2 c03b
00000090: d38a 38bd 8e92 b83c c335 9abd eb11 ebbb
000000a0: a55f 853c d2d9 8c3d f3f7 56bc 537d e3ba
000000b0: 118d 40bc 1e90 f1bc 63fe 1a3d 5ae6 5e3d
000000c0: 07c9 933d b58d 8d3d 1e95 f03a 33a8 393b
000000d0: b2ca c6bc 856a 943d c3fd 033c b088 4bbd
000000e0: 8aeb 553d ad74 ae3c c948 41bc 5990 5fbc
000000f0: 1e4a 0c3d 13e1 cfba 4242 d8bc 035f 9e3d
